datasets/Spirit/model/chronological_noKD.pth (torch, 3299 bytes, 6 tensors)

gru.weight_ih_l0 f4 [12, 30]
-0.0004375194 -0.0004375194 -0.0004375194 -0.0004375194 -0.0004375194 -0.0004375194 -0.0004375194 -0.11126289
-0.14054005 -0.1609917 0.22088577 -0.2528053 0.23463263 0.05691488 0.22958301 0.6399265
0.3286193 -0.43197352 0.13131411 0.29506555 0.31902784 -0.064615406 0.34780568 -0.2493848
0.5652192 -0.20414388 -0.27446783 0.25911614 0.027281191 0.034119885 -0.0028717192 -0.0028717192
-0.0028717192 -0.0028717192 -0.0028717192 -0.0028717192 -0.0028717192 -0.40490746 -0.3514854 0.22979137
0.060731795 -0.2758002 0.21808507 0.60707945 0.07324544 0.8196491 0.17060898 -1.0660319
0.1915356 -0.16050622 -0.1120239 -0.71192056 0.6228498 0.602467 0.65614647 0.10058847
0.034481972 -0.25556844 0.16938256 0.15664369 -0.0004119396 -0.0004119396 -0.0004119396 -0.0004119396
-0.0004119396 -0.0004119396 -0.0004119396 -0.22722566 0.010724266 0.031170577 0.06800847 -0.062595904
-0.032177858 0.18717675 -0.20824802 0.21230362 -0.23077007 -0.14120291 0.13235895 -0.03961892
-0.089072324 -0.25016657 0.27991697 0.12753399 0.044370152 0.041925345 -0.030676106 -0.015314359
0.012578849 -0.09519365 0.012996011 0.012996011 0.012996011 0.012996011 0.012996011 0.012996011
0.012996011 -0.12819423 0.0031650602 -0.034787033 -0.064555086 -0.008811621 -0.072072916 -0.066462055
0.0983938 -0.19866587 -0.054988515 0.08836421 -0.16088162 -0.07134325 -0.12698294 -0.030992141
0.024775965 0.05528894 0.057660434 0.0956978 -0.15809186 -0.001724922 0.18824945 -0.0597504
-0.040356643 -0.040356643 -0.040356643 -0.040356643 -0.040356643 -0.040356643 -0.040356643 -0.016602607
-0.07422348 0.012628941 -0.021153836 -0.036029983 -0.04111447 -0.017748315 -0.031852014 -0.05224803
-0.010380939 -0.04574193 -0.06988418 -0.026327997 -0.032452315 -0.007121859 -0.08979392 -0.052123692
-0.021289924 0.0246217 -0.016694844 -0.046874706 -0.042525463 -0.013848635 -0.042281516 -0.042281516
-0.042281516 -0.042281516 -0.042281516 -0.042281516 -0.042281516 -0.03340366 -0.1217335 0.07122001
-0.056832295 -0.022021282 -0.03693701 0.030803692 -0.0018952307 -0.014372531 -0.014809114 -0.14442885
-0.09291245 -0.034545507 -0.04522859 -0.04277777 -0.050920457 -0.030922655 0.030912051 0.0018776328
-0.0056400476 -0.058884572 -0.0033754534 0.01711719 0.026859127 0.026859127 0.026859127 0.026859127
0.026859127 0.026859127 0.026859127 -0.029049816 -0.041934345 0.17613971 -0.08247063 -0.23375405
-0.14491853 0.14852637 0.05130364 0.06710658 -0.07102985 -0.33396298 -0.21837227 -0.108574465
-0.033834614 0.11038029 -0.12966928 0.0924952 0.07687594 0.22621451 0.274851 0.030485433
0.20658377 0.17672212 0.00074782106 0.00074782106 0.00074782106 0.00074782106 0.00074782106 0.00074782106
0.00074782106 -0.03284388 -0.025052259 0.14058398 0.012209648 -0.04813451 -0.0070149563 0.047313716
0.028462533 -0.0033519608 0.03401048 -0.10504129 -0.010137077 0.011859205 0.0077134664 -0.04608802
0.038364593 0.032685325 0.059660055 -0.025302216 -0.03779173 -0.020558573 -0.0009698813 0.028374452
0.0019164484 0.0019164484 0.0019164484 0.0019164484 0.0019164484 0.0019164484 0.0019164484 -0.052200846
-0.1852074 0.20859125 -0.25595754 0.5820917 -0.8143166 -0.23104367 0.22182904 -0.23010913
00000000: dc62 e5b9 dc62 e5b9 dc62 e5b9 dc62 e5b9
00000010: dc62 e5b9 dc62 e5b9 dc62 e5b9 ccdd e3bd
00000020: bbe9 0fbe 02db 24be e12f 623e b26f 81be
00000030: 8943 703e 941f 693d cf17 6b3e 39d2 233f
00000040: ca40 a83e a22b ddbe 3577 063e d512 973e
00000050: 9e57 a33e 1555 84bd 9613 b23e bb5e 7fbe
00000060: 35b2 103f 180b 51be 0c87 8cbe dfaa 843e
00000070: ce7c df3c 4bc1 0b3d 7433 3cbb 7433 3cbb
00000080: 7433 3cbb 7433 3cbb 7433 3cbb 7433 3cbb
00000090: 7433 3cbb 0850 cfbe e5f5 b3be 6e4e 6b3e
000000a0: e7c1 783d af35 8dbe b151 5f3e 8f69 1b3f
000000b0: b501 963d 86d4 513f 1fb4 2e3e bc73 88bf
000000c0: e921 443e be5b 24be c96c e5bd 6d40 36bf
000000d0: 1673 1f3f 473b 1a3f 37f9 273f 5401 ce3d
000000e0: f83c 0d3d ded9 82be 9f72 2d3e 3467 203e
000000f0: 99f9 d7b9 99f9 d7b9 99f9 d7b9 99f9 d7b9
00000100: 99f9 d7b9 99f9 d7b9 99f9 d7b9 d8ad 68be
00000110: d5b4 2f3c 7059 ff3c 0648 8b3d 4832 80bd
00000120: eecc 03bd 43ab 3f3e f83e 55be 1f66 593e
00000130: fd4e 6cbe 7f97 10be 1b89 073e 7347 22bd
00000140: 8d6b b6bd d515 80be 4751 8f3e 4598 023e
00000150: 7abd 353d e9b9 2b3d 754c fbbc 14e9 7abc
00000160: 8417 4e3c e3f4 c2bd 39ed 543c 39ed 543c
00000170: 39ed 543c 39ed 543c 39ed 543c 39ed 543c
00000180: 39ed 543c 5945 03be e66c 4f3b d97c 0ebd
00000190: 7535 84bd 9e5e 10bc f79a 93bd 421d 88bd
000001a0: b082 c93d 116f 4bbe a33b 61bd 4cf8 b43d
000001b0: 27be 24be 691c 92bd d107 02be 3be3 fdbc
000001c0: f7f6 ca3c a876 623d 592d 6c3d 35fd c33d
000001d0: d5e2 21be c716 e2ba 77c4 403e d6bc 74bd
000001e0: 024d 25bd 024d 25bd 024d 25bd 024d 25bd
000001f0: 024d 25bd 024d 25bd 024d 25bd 3102 88bc
00000200: 7b02 98bd 9ee9 4e3c cf4a adbc 2d94 13bd
00000210: a667 28bd ea64 91bc 4277 02bd 0802 56bd
00000220: d014 2abc e45b 3bbd 701f 8fbd d0ad d7bc
00000230: b8ec 04bd 7c5e e9bb e0e5 b7bd a77f 55bd
00000240: 3568 aebc 73b3 c93c a0c3 88bc b1ff 3fbd
00000250: 2e2f 2ebd 63e5 62bc 622f 2dbd 622f 2dbd
00000260: 622f 2dbd 622f 2dbd 622f 2dbd 622f 2dbd
00000270: 622f 2dbd 47d2 08bd 6a4f f9bd ccdb 913d
00000280: fbc8 68bd fa65 b4bc 434b 17bd 0658 fc3c
00000290: 6469 f8ba c47a 6bbc eda1 72bc 28e5 13be
000002a0: e248 bebd 977f 0dbd 9d41 39bd be37 2fbd
000002b0: f891 50bd 8251 fdbc 453b fd3c e71a f63a
000002c0: 26d0 b8bb f330 71bd b636 5dbb 5939 8c3c
000002d0: ac07 dc3c ac07 dc3c ac07 dc3c ac07 dc3c
000002e0: ac07 dc3c ac07 dc3c ac07 dc3c e1f9 edbc
000002f0: 59c3 2bbd f85d 343e 5de6 a8bd 395d 6fbe
00000300: 8665 14be 4c17 183e c423 523d 2d6f 893d
00000310: 1978 91bd 32fd aabe fb9c 5fbe 4a5c debd
00000320: 2a96 0abd 100f e23d 06c8 04be 206e bd3d
00000330: 2271 9d3d c7a4 673e 45b9 8c3e 96bc f93c
00000340: b28a 533e a5f6 343e 6c09 443a 6c09 443a
00000350: 6c09 443a 6c09 443a 6c09 443a 6c09 443a
00000360: 6c09 443a 4e87 06bd 653a cdbc 3ff5 0f3e
00000370: fa0a 483c b128 45bd b8dd e5bb 07cc 413d
00000380: 422a e93c 92ac 5bbb 934e 0b3d e31f d7bd
00000390: fc15 26bc 1c4d 423c 3fc1 fc3b cbc6 3cbd
000003a0: 3124 1d3d 0ce1 053d 1a5e 743d 9846 cfbc
000003b0: 80cb 1abd 746a a8bc a23f 7eba 8a71 e83c
000003c0: 5631 fb3a 5631 fb3a 5631 fb3a 5631 fb3a
000003d0: 5631 fb3a 5631 fb3a 5631 fb3a 8ed0 55bd
000003e0: 02a7 3dbe f298 553e de0c 83be f603 153f
000003f0: 0d77 50bf b696 6cbe 2727 633e baa1 6bbe

gru.weight_hh_l0 f4 [12, 4]
-0.7571919 0.8596521 2.1320417 1.101156 -0.35084817 0.9369603 2.2194262 0.3658605
-0.21416762 1.3510753 1.0611875 0.17889865 0.09886526 0.47462687 0.826482 0.26073024
0.26305184 -0.34420806 -0.38554117 -0.37211123 0.4169691 0.09263824 -0.0026628098 -0.105500445
1.9074016 0.63292265 0.72341156 1.6399318 0.1947509 -0.28485772 -0.14566503 -0.049049746
1.1049045 1.6063564 1.804828 -0.45340848 0.73481923 1.7382071 1.3628799 -0.41609377
-0.6895378 1.5417756 1.0905159 -0.9986731 0.08937084 1.3954445 1.3023264 0.12565136
00000000: 54d7 41bf 2912 5c3f 5f73 0840 aef2 8c3f
00000010: 5fa2 b3be a1dc 6f3f 140b 0e40 1152 bb3e
00000020: c24e 5bbe 09f0 ac3f fed4 873f 3531 373e
00000030: df79 ca3d 4b02 f33e 5394 533f 6f7e 853e
00000040: bbae 863e 0a3c b0be a765 c5be 5d85 bebe
00000050: f97c d53e 1eb9 bd3d 8982 2ebb 9e10 d8bd
00000060: bc25 f43f 3807 223f 8031 393f 49e9 d13f
00000070: c86c 473e dfd8 91be 3729 15be 63e8 48bd
00000080: 836d 8d3f 169d cd3f 9b04 e73f 2825 e8be
00000090: 1d1d 3c3f 927d de3f d972 ae3f 3e0a d5be
000000a0: 8d85 30bf e758 c53f 0696 8b3f 0aa9 7fbf
000000b0: 0f08 b73d ed9d b23f a2b2 a63f c0aa 003e

gru.bias_ih_l0 f4 [12]
0.38200146 -0.12190958 0.20711544 0.549727 -1.0702167 -1.3793173 -0.8549416 -1.0415102
0.29124552 -0.166686 -0.29322186 0.17079125
00000000: b295 c33e bbab f9bd 1216 543e e9ba 0c3f
00000010: dcfc 88bf 788d b0bf 74dd 5abf 3550 85bf
00000020: 221e 953e bcaf 2abe 2d21 96be e7e3 2e3e

gru.bias_hh_l0 f4 [12]
0.31052822 0.05257202 0.49252942 0.3482017 -1.0702167 -1.4046991 -0.99735963 -1.0414972
-0.256917 0.18469745 0.10185527 0.43810695
00000000: 8efd 9e3e c255 573d d12c fc3e 7e47 b23e
00000010: dcfc 88bf 2ecd b3bf f652 7fbf c84f 85bf
00000020: a08a 83be 5421 3d3e 7f99 d03d 8e4f e03e

fc.weight f4 [2, 4]
-4.250058 -3.4589078 -2.0666232 -2.6629224 4.4172764 3.7634256 2.2095108 2.6924403
00000000: 7a00 88c0 bf5e 5dc0 8e43 04c0 526d 2ac0
00000010: 545a 8d40 f7db 7040 a068 0d40 f150 2c40

fc.bias f4 [2]
-2.1740468 2.7038958
00000000: 9523 0bc0 a10c 2d40
