datasets/Spirit/model/chronological_teacher(281022).pth (torch, 645703 bytes, 10 tensors)

gru.weight_ih_l0 f4 [384, 30]
-6.5018776e-07 -6.5018776e-07 -6.5018776e-07 -6.5018776e-07 -6.5018776e-07 -6.5018776e-07 -6.5018776e-07 -0.026504945
0.04861303 -0.07616853 0.04195102 0.055782292 -0.022015529 -0.05113734 0.08847254 0.044968653
-0.005532202 0.0027195802 0.054188643 0.014226622 0.037387047 0.03774303 0.02947152 0.0040097875
-0.018771453 0.06782615 -0.022412838 0.008982929 -0.005097985 -0.048258223 2.154741e-06 2.154741e-06
2.154741e-06 2.154741e-06 2.154741e-06 2.154741e-06 2.154741e-06 0.0015943056 -0.0057096574 0.002176891
-0.00061367836 -0.00082928105 0.0022278358 0.0021275904 0.00089386984 0.00027297792 3.0848976e-05 -0.000761691
-0.00087211543 -0.0015971496 -0.0011993804 -0.0018237373 -0.0032407886 -0.002319606 -0.0011204969 -0.0017851724
-0.002628908 -2.5855863e-05 0.0005204658 0.002980506 2.4746365e-05 2.4746365e-05 2.4746365e-05 2.4746365e-05
2.4746365e-05 2.4746365e-05 2.4746365e-05 -0.0019889157 -0.0076637887 0.004700534 -0.016589353 -0.0024284206
0.0059718196 0.00094313326 -0.0017839175 -0.0018629313 0.007639715 0.0010653377 -0.0018109044 -0.0017167644
-0.008409047 -0.0047127074 -0.014769566 0.008412595 0.0017008283 0.0003305594 0.0039945394 -0.007920638
-0.004526385 0.011116605 4.8683523e-05 4.8683523e-05 4.8683523e-05 4.8683523e-05 4.8683523e-05 4.8683523e-05
4.8683523e-05 -0.0015151907 -0.00076525577 0.0009645534 -9.051309e-05 -0.002376324 -0.000593854 0.00130614
-0.00029020803 -0.0012654884 0.0022128064 0.00038609648 -0.0008977151 0.0005454385 -0.0019202547 -0.0003095131
-0.001704935 -0.00078267325 0.00018762314 0.00055048516 0.00022852066 -0.0014106187 -0.00059358025 -0.0004721155
-0.00036458875 -0.00036458875 -0.00036458875 -0.00036458875 -0.00036458875 -0.00036458875 -0.00036458875 0.011985531
0.031765744 -0.041972123 0.03184339 0.012622887 -0.02888364 0.013602692 0.022614881 0.0011713853
0.004348298 0.023111744 -0.022278627 -0.011190969 -0.003163509 0.021206893 -0.010125937 -0.013843869
-0.025395945 -0.004603456 0.02053943 -0.014198896 -0.0068980386 -0.019851446 2.3387856e-06 2.3387856e-06
2.3387856e-06 2.3387856e-06 2.3387856e-06 2.3387856e-06 2.3387856e-06 -0.007373395 -0.011648588 0.008812372
-0.0005224121 0.0056155706 0.012051405 0.0032120738 -0.0033787605 0.002940289 -0.0015814714 -0.0071596806
-0.0025169177 -0.0026872356 0.00051662646 -0.002058165 0.008714321 0.005731913 0.0008172865 3.644482e-05
0.0070692296 -0.006713377 -0.008812688 -0.0015434339 -2.1881006e-06 -2.1881006e-06 -2.1881006e-06 -2.1881006e-06
-2.1881006e-06 -2.1881006e-06 -2.1881006e-06 -0.0076610413 -0.024503475 0.016236147 -0.004189091 -0.009313685
0.012808172 0.009973911 -0.009379578 -0.0021268586 0.0024659766 -0.0039941166 -0.00047856607 -0.009014082
-0.0042379964 -0.0075137913 -0.008815416 -0.0035120887 0.00071430136 -0.01015821 -0.007758073 -0.00302519
-0.002179677 0.007959896 -1.35679475e-05 -1.35679475e-05 -1.35679475e-05 -1.35679475e-05 -1.35679475e-05 -1.35679475e-05
-1.35679475e-05 -0.0061975387 -0.020621326 0.00917998 -0.01057453 -0.011825416 0.015411896 0.013753677
-0.010110221 -0.00860124 0.010791186 -0.0043005436 -0.009766441 -0.011163093 -0.0127270315 -0.0037608498
-0.020138975 -0.0011463121 -9.837966e-05 -0.013019234 9.491551e-05 -0.012894576 -0.0074740443 0.010079123
-2.169568e-05 -2.169568e-05 -2.169568e-05 -2.169568e-05 -2.169568e-05 -2.169568e-05 -2.169568e-05 -0.11825132
-0.016155234 -0.0039308993 -0.036725603 0.0007265829 -0.04055005 0.01832664 0.03328176 0.040591106
00000000: 9088 2eb5 9088 2eb5 9088 2eb5 9088 2eb5
00000010: 9088 2eb5 9088 2eb5 9088 2eb5 e620 d9bc
00000020: 751e 473d 3ffe 9bbd d5d4 2b3d f97b 643d
00000030: e959 b4bc 6375 51bd 1731 b53d 0d31 383d
00000040: 7947 b5bb fc3a 323b e9f4 5d3d c716 693c
00000050: 2923 193d 6f98 1a3d 426e f13c 8964 833b
00000060: 97c6 99bc 70e8 8a3d 219b b7bc 232d 133c
00000070: ff0c a7bb 6aaa 45bd 2b9a 1036 2b9a 1036
00000080: 2b9a 1036 2b9a 1036 2b9a 1036 2b9a 1036
00000090: 2b9a 1036 05f8 d03a 1418 bbbb 2caa 0e3b
000000a0: 42df 20ba 1c64 59ba e200 123b 0b6f 0b3b
000000b0: 9752 6a3a 7a1e 8f39 d663 0138 38ac 47ba
000000c0: ad9e 64ba 7357 d1ba 8734 9dba 780a efba
000000d0: 6963 54bb 8804 18bb a3dd 92ba 72fc e9ba
000000e0: c249 2cbb 0be5 d8b7 de6f 083a 9854 433b
000000f0: 6a96 cf37 6a96 cf37 6a96 cf37 6a96 cf37
00000100: 6a96 cf37 6a96 cf37 6a96 cf37 7858 02bb
00000110: 8520 fbbb f006 9a3b 65e6 87bc 2326 1fbb
00000120: 41af c33b 9a3c 773a 57d2 e9ba 9a2d f4ba
00000130: 9356 fa3b cda2 8b3a de5b edba 0e05 e1ba
00000140: 19c6 09bc 0e6d 9abb 0dfc 71bc fbd4 093c
00000150: 54ee de3a ee4e ad39 a0e4 823b 90c5 01bc
00000160: 1252 94bb 6c22 363c 8931 4c38 8931 4c38
00000170: 8931 4c38 8931 4c38 8931 4c38 8931 4c38
00000180: 8931 4c38 5d99 c6ba 729b 48ba 15da 7c3a
00000190: d8d1 bdb8 1abc 1bbb deac 1bba c932 ab3a
000001a0: 1027 98b9 bfde a5ba bb04 113b fe6c ca39
000001b0: a454 6bba c2fb 0e3a 0eb1 fbba 2546 a2b9
000001c0: 2078 dfba 502c 4dba b4bc 4439 6f4e 103a
000001d0: 0c9f 6f39 82e4 b8ba 7f9a 1bba 4586 f7b9
000001e0: 4626 bfb9 4626 bfb9 4626 bfb9 4626 bfb9
000001f0: 4626 bfb9 4626 bfb9 4626 bfb9 f65e 443c
00000200: cc1c 023d f6ea 2bbd 376e 023d 3ad0 4e3c
00000210: 629d ecbc d3dd 5e3c d842 b93c 2b89 993a
00000220: 2b7c 8e3b d754 bd3c ab81 b6bc 535a 37bc
00000230: e052 4fbb 14ba ad3c 42e7 25bc 65d1 62bc
00000240: 280b d0bc 96d8 96bb 4f42 a83c 7ca2 68bc
00000250: f108 e2bb 809f a2bc 08f4 1c36 08f4 1c36
00000260: 08f4 1c36 08f4 1c36 08f4 1c36 08f4 1c36
00000270: 08f4 1c36 859c f1bb b8d9 3ebc c461 103c
00000280: 7cf2 08ba d202 b83b 4273 453c a881 523b
00000290: 326e 5dbb ddb1 403b 6049 cfba c19b eabb
000002a0: dff2 24bb 551c 30bb 376e 073a 47e2 06bb
000002b0: 83c6 0e3c c5d2 bb3b 2b3f 563a 54dc 1838
000002c0: ffa4 e73b e3fb dbbb 1863 10bc 0c4d caba
000002d0: 48d7 12b6 48d7 12b6 48d7 12b6 48d7 12b6
000002e0: 48d7 12b6 48d7 12b6 48d7 12b6 7909 fbbb
000002f0: 83bb c8bc ab01 853c a444 89bb 6d98 18bc
00000300: 5ed9 513c 9d69 233c cdac 19bc c462 0bbb
00000310: 399c 213b 14e1 82bb 0de8 fab9 cdaf 13bc
00000320: e4de 8abb 4036 f6bb 896e 10bc 122b 66bb
00000330: f43f 3b3a 9f6e 26bc 6f37 febb 4442 46bb
00000340: e9d8 0ebb 396a 023c e4a1 63b7 e4a1 63b7
00000350: e4a1 63b7 e4a1 63b7 e4a1 63b7 e4a1 63b7
00000360: e4a1 63b7 b914 cbbb 0eee a8bc a067 163c
00000370: cb40 2dbc 64bf 41bc 2d82 7c3c 1a57 613c
00000380: 57a5 25bc 37ec 0cbc 84cd 303c 93eb 8cbb
00000390: 6c03 20bc 68e5 36bc 0a85 50bc 9778 76bb
000003a0: 7efa a4bc da3f 96ba 2e51 ceb8 a04e 55bc
000003b0: 600d c738 c643 53bc d4e8 f4bb e822 253c
000003c0: 1eff b5b7 1eff b5b7 1eff b5b7 1eff b5b7
000003d0: 1eff b5b7 1eff b5b7 1eff b5b7 c02d f2bd
000003e0: fb57 84bc c6ce 80bb 966d 16bd 2778 3e3a
000003f0: cf17 26bd c021 963c 7452 083d dc42 263d

gru.weight_hh_l0 f4 [384, 128]
0.087315015 -0.0035348535 0.05716243 0.0025387467 0.042264737 0.03709081 -0.028813414 0.024614839
-0.09017934 0.015641918 0.015448195 -0.0025303285 -0.01921404 0.03718859 -0.070337854 0.02954021
0.05393159 -0.1398274 -0.019888494 -0.037435442 -0.026710985 -0.10781964 -0.049579687 -0.029760804
0.06058898 -0.074590586 0.06417784 0.024353351 -0.016511796 0.023052301 -0.0021109255 -0.006080807
0.044390846 0.009264357 0.027334971 0.024808355 0.04879843 0.038022943 -0.049032554 -0.08816037
0.007628929 0.024248116 -0.030863257 0.052495375 0.028878462 -0.00652179 0.046515435 0.03414994
0.009029491 -0.041904896 0.022598008 -0.0031935945 0.00663176 -0.017305857 0.016140714 0.040745888
-0.035981238 -0.0011135582 -0.081328966 0.060752578 0.028217424 -0.0074182353 0.004434508 -0.064458005
0.03047313 0.02142439 0.02748978 -0.07075517 0.022721479 -0.010413337 -0.048382252 0.022459794
0.003405036 -0.003387696 -0.07799419 -0.014979463 -0.08086608 0.007137929 0.016187426 0.011757192
0.0051361043 -0.024937004 0.049600087 -0.1006429 -0.020017378 0.017419564 -0.104145266 -0.03776215
0.0050307354 -0.06561891 -0.0011512192 -0.009739735 0.055873662 0.06567532 0.004228388 0.021248009
-0.00771032 -0.023094786 -0.032027867 0.0030515615 -0.004646455 0.0011618393 -0.01399068 -0.039030273
0.020857904 0.018620437 0.021963663 0.03735199 0.012051736 0.014649982 -0.06819417 -0.019800993
-0.04585094 0.012144725 -0.011440526 -0.05786807 -0.02820433 0.040731978 0.046569962 0.007347237
-0.0014295107 -0.008261922 0.015538065 0.08891311 0.021376375 0.03146473 -0.16272084 -0.014181168
0.004408138 -0.0013502485 -0.0011464608 -0.000982863 -0.00018105678 -0.0008057989 0.0014810954 -0.001617324
-0.0020533055 5.9921775e-05 -0.001097685 0.0004973841 0.0012263838 0.0001060104 -0.005834634 -0.0010403366
-0.0013876044 -0.005458373 0.0016413665 0.001776934 0.00014433527 0.0046397937 -0.0020137972 -0.005713979
0.00052980724 -0.0013150865 0.0002169498 -0.0013765354 0.00060413044 -0.0014254603 -0.00047740375 0.0004894219
0.0065001086 -0.0004020703 -0.0009464838 -0.0026881457 -0.00017069983 -0.0019057172 -0.0018909759 0.0010981954
0.00063817715 -0.0026459596 0.0017282813 -0.00030117444 -0.00024727473 0.00048375688 0.0023658786 -0.0025700708
-0.0011659104 0.0018051893 -0.002075258 -0.00088608166 -0.00060033874 0.0014728204 9.7358105e-05 -0.0021208208
0.0017375898 0.00010616897 -0.0024777544 0.007050108 -0.0021130703 0.00024756917 -0.0004622508 0.0010419126
-0.0013192423 -0.0019437114 -0.0010790733 -0.0017881966 0.0034917044 0.0010262325 -0.0016750952 0.0010011581
-0.0005285242 0.0010383414 -0.0022297092 -0.0029252928 -0.0015327099 -0.0012051667 -0.00091324723 -0.0015065685
0.0006053202 -0.00085522304 -0.000193808 -0.0077850167 0.0011844734 2.6702925e-05 -0.0055246013 0.0057428386
0.0028349601 -0.0075567276 0.0016304835 0.0013749804 -0.001415279 0.002340325 -0.00022375486 -0.0004118748
-5.1555602e-05 0.0013834682 0.0003071563 -0.0007932447 -0.00010224203 -0.0006943927 0.0017053462 0.0033929707
-0.0001721571 0.007421052 -0.0016126784 0.0011765728 -0.001475911 -0.00049068726 -0.002707154 -0.00027394685
0.0022067607 0.0001562252 0.0013324925 -0.0011367889 0.0018932794 -0.0058164564 0.0016396197 -0.00030697038
0.00062853703 0.0014614103 -0.0012083153 0.0028334958 -0.0022903464 -0.0016924455 0.010940142 0.00053257286
00000000: 37d2 b23d 00a9 67bb 2723 6a3d 1a61 263b
00000010: ca1d 2d3d 88ec 173d 1c0a ecbc 0fa5 c93c
00000020: f2af b8bd 7b23 803c 6d1a 7d3c ded3 25bb
00000030: c366 9dbc 1053 183d 4b0d 90bd 4ffe f13c
00000040: 5fe7 5c3d ea2e 0fbe 32ed a2bc e855 19bd
00000050: ffd0 dabc 8bd0 dcbd 1214 4bbd eecc f3bc
00000060: 262c 783d f3c2 98bd ac6f 833d ae80 c73c
00000070: bf43 87bc 2ed8 bc3c 7457 0abb 8241 c7bb
00000080: 2dd3 353d 88c9 173c 97ed df3c e43a cb3c
00000090: dde0 473d f2bd 1b3d 5cd6 48bd 6d8d b4bd
000000a0: 18fc f93b fca3 c63c f1d4 fcbc 6405 573d
000000b0: 8692 ec3c bdb4 d5bb f886 3e3d cfe0 0b3d
000000c0: 6ef0 133c 78a4 2bbd 751f b93c a04b 51bb
000000d0: 3c4f d93b 03c5 8dbc 8839 843c 29e5 263d
000000e0: 1061 13bd d0f4 91ba cd8f a6bd b2d7 783d
000000f0: 3a28 e73c ab14 f3bb 594f 913b 8f02 84bd
00000100: c9a2 f93c 3482 af3c 3f32 e13c 16e8 90bd
00000110: 6522 ba3c b39c 2abc 782c 46bd 9afd b73c
00000120: 0627 5f3b 1c04 5ebb 6bbb 9fbd 6c6c 75bc
00000130: 1e9d a5bd 4ae5 e93b 7e9b 843c 3da1 403c
00000140: c44c a83b b048 ccbc 7629 4b3d dd1d cebd
00000150: 7cfb a3bc 79b3 8e3c 1d4a d5bd 7cac 1abd
00000160: ded8 a43b 3563 86bd 82e4 96ba 6993 1fbc
00000170: c8db 643d c880 863d 4a8e 8a3b 4e10 ae3c
00000180: daa6 fcbb 4731 bdbc a72f 03bd b5fc 473b
00000190: 4a41 98bb dc48 983a 2a39 65bc 35de 1fbd
000001a0: 32de aa3c e389 983c 24ed b33c 66fe 183d
000001b0: a574 453c 7a06 703c 63a9 8bbd b135 a2bc
000001c0: 32ce 3bbd abfa 463c 0b71 3bbc 1207 6dbd
000001d0: c40c e7bc 93d6 263d 25c0 3e3d 17c1 f03b
000001e0: 6b5e bbba 035d 07bc 5e93 7e3c 1418 b63d
000001f0: 821d af3c 29e1 003d 4ba0 26be 2158 68bc
00000200: 2472 903b d2fa b0ba d744 96ba 69d3 80ba
00000210: 0fda 3db9 403c 53ba 5121 c23a 63fc d3ba
00000220: c090 06bb 8454 7b38 32e0 8fba e262 023a
00000230: 9dbe a03a e651 de38 7530 bfbb e75b 88ba
00000240: 47e0 b5ba 27dc b2bb 1f23 d73a 03e8 e83a
00000250: b458 1739 6909 983b e9f9 03bb 543c bbbb
00000260: c3e2 0a3a fb5e acba 057d 6339 dd6c b4ba
00000270: 825e 1e3a 83d6 baba 0c4c fab9 8c4c 003a
00000280: ddfe d43b f6cc d2b9 741d 78ba 9a2b 30bb
00000290: e3fd 32b9 42c9 f9ba 9fda f7ba 53f1 8f3a
000002a0: 584b 273a d667 2dbb 7f87 e23a f3e6 9db9
000002b0: a7a4 81b9 c0a0 fd39 db0c 1b3b a26e 28bb
000002c0: 76d1 98ba 1a9c ec3a 0d01 08bb ef47 68ba
000002d0: 0d60 1dba a70b c13a bc2c cc38 78fd 0abb
000002e0: d7bf e33a 08a7 de38 d261 22bb 9804 e73b
000002f0: 707b 0abb 2ccc 8139 415a f2b9 c990 883a
00000300: 6dea acba 22c4 feba b16f 8dba ec61 eaba
00000310: 14d5 643b a682 863a de8e dbba 4b39 833a
00000320: a98c 0aba f518 883a 5020 12bb 45b6 3fbb
00000330: 36e5 c8ba aff6 9dba fc66 6fba 0d78 c5ba
00000340: 5aae 1e3a 0c31 60ba f038 4bb9 7419 ffbb
00000350: 5540 9b3a 1800 e037 b707 b5bb 6c2e bc3b
00000360: bdca 393b 6d9e f7bb f3b5 d53a b038 b43a
00000370: e280 b9ba 2360 193b bd9f 6ab9 e6f0 d7b9
00000380: 683d 58b8 7d55 b53a d209 a139 c0f1 4fba
00000390: c66a d6b8 e807 36ba ec85 df3a 9a5c 5e3b
000003a0: 1285 34b9 4c2c f33b 8260 d3ba 3b37 9a3a
000003b0: 5b73 c1ba 77a1 00ba 826a 31bb 86a0 8fb9
000003c0: 4d9f 103b 62d0 2339 07a7 ae3a 4e00 95ba
000003d0: ea27 f83a f997 bebb 82e8 d63a def0 a0b9
000003e0: 68c4 243a cb8c bf3a 5560 9eba 2cb2 393b
000003f0: a319 16bb 0cd5 ddba 483e 333c 5c9c 0b3a

gru.bias_ih_l0 f4 [384]
-0.01032235 -0.010734762 0.01634999 -0.007241667 -0.01707439 -0.015758341 -0.023574268 -0.025294207
-0.069335006 -0.010175278 -0.02233648 -0.027174376 -0.007310012 -0.046217293 0.03495852 -0.026997548
-0.16147281 -0.0072168508 -0.03027764 -0.019916842 -0.018763771 -0.041292757 -0.018172126 -0.03047212
-0.074067704 -0.051594518 -0.08156611 -0.022882432 -0.021785215 -0.026814038 -0.0056303716 -0.07391666
0.16671245 -0.0088538295 -0.022317711 -0.009428933 -0.04841642 -0.03889805 -0.03314437 -0.05187827
-0.0278814 -0.006312175 -0.025622651 -0.037571676 -0.0027850321 -0.0020534093 -0.005855372 -0.026813077
-0.009379145 -0.010479067 -0.0028441928 -0.005185648 -0.015607936 -0.01069848 -0.021120232 0.10100249
-0.036791053 -0.017921012 -0.00968662 -0.04295626 -0.027018925 -0.022159833 -0.027571857 -0.09875145
-0.027668018 -0.021479087 -0.025134062 -0.071334526 -0.05877948 -0.0084481165 0.018217096 -0.060573418
-0.014131939 -0.012279004 -0.09387737 -0.03789826 -0.19028297 -0.014478166 -0.017318495 -0.021657191
-0.012068451 -0.064368784 -0.0029621986 -0.04578748 -0.021209646 -0.041114956 -0.057608142 -0.102951095
-0.014944223 0.10641077 -0.02046789 -0.007552881 -0.148239 -0.046488654 -0.008050413 -0.02114673
0.013525586 -0.03166436 -0.015221292 -0.009683257 -0.017307004 -0.022540264 -0.021930218 -0.089060925
-0.012736313 0.2043014 -0.012342116 -0.054738045 -0.0064767017 -0.00904845 -0.05672574 -0.043903362
0.0149130225 -0.03444012 -0.016781526 -0.0040005827 -0.028337386 0.031884152 -0.009935959 -0.01119158
-0.011421956 -0.008523065 -0.009602444 -0.04138023 -0.01789153 -0.023375362 -0.07752496 -0.024151461
-0.6999737 0.008948519 -0.18483791 -0.0039993357 -0.26359746 -0.01614396 0.01474294 0.0035167998
-0.15909219 -0.14719023 -0.004571302 -0.050895315 0.0012586853 -0.2256127 -0.6728558 -0.045242313
-0.085658826 -0.7072692 0.01404933 -0.007887169 0.013002503 -0.12272092 -0.20787399 -0.41359907
-0.2873311 -0.2543774 -0.29986548 -0.003534013 0.0038856857 0.009445951 -0.017983675 -0.21864477
-0.59896576 -0.021291982 0.016686965 0.003564126 -0.29423228 -0.1969118 -0.33316907 -0.46656466
-0.050724056 0.002732365 0.003921451 -0.20162599 -0.31534058 -0.16288175 -0.3213364 0.01989106
-0.0025796213 -0.0039039026 6.3111176e-05 0.0009926682 -0.003181883 0.0025468275 0.012746733 -0.6014569
0.04167443 0.0048281867 -0.47091883 -0.53059703 0.00847976 0.003757678 -0.013435203 -0.22897775
0.0039910525 -0.00024451854 0.01293756 -0.35502735 -0.38158813 -0.003155576 -0.42047358 -0.15528148
0.0042681196 0.0024530047 -0.38855544 -0.2881004 -0.22810903 0.0016304461 -0.0038130681 0.003145121
0.0052981717 -0.194098 -0.09768031 -0.8078534 -0.00036894818 -0.19418299 -0.48690978 -0.12033743
-0.16257592 -0.7240922 -0.042743023 0.006201572 -0.15363954 -0.34323874 0.0015359542 -0.09163266
-0.17155251 0.008982891 -0.033818003 -0.045865387 -0.00064743165 0.008465191 0.0014383644 -0.19752163
0.0005980564 -0.5576607 0.007861401 -0.10992794 0.00081389886 0.0029668866 -0.23690586 -0.101884104
-0.06343594 -0.064259246 -0.0065365313 -0.24897413 0.0051834374 -0.4628839 -0.19970357 -0.0108424
-0.00835408 -0.046177253 -0.0038993685 -0.4075608 0.0101245595 0.0049553406 0.45693532 0.0024859137
00000000: 131f 29bc dbe0 2fbc 6af0 853c 814b edbb
00000010: 97df 8bbc a317 81bc d31e c1bc cc35 cfbc
00000020: 83ff 8dbd 36b6 26bc fefa b6bc cc9c debc
00000030: d388 efbb 584e 3dbd aa30 0f3d f629 ddbc
00000040: 2159 25be 557b ecbb d008 f8bc a528 a3bc
00000050: 7bb6 99bc 9822 29bd b6dd 94bc aba0 f9bc
00000060: cfb0 97bd c654 53bd 220c a7bd f073 bbbc
00000070: e876 b2bc 1da9 dbbc fb7e b8bb 9e61 97bd
00000080: abb6 2a3e a70f 11bc a2d3 b6bc d07b 1abc
00000090: 4c50 46bd 9053 1fbd 64c2 07bd 4f7e 54bd
000000a0: 8967 e4bc 5dd6 cebb 98e6 d1bc c2e4 19bd
000000b0: 1685 36bb 7e92 06bb 6cde bfbb 19a7 dbbc
000000c0: fcaa 19bc 65b0 2bbc a365 3abb 5eec a9bb
000000d0: 6eb8 7fbc ad48 2fbc 5604 adbc 65da ce3d
000000e0: 37b2 16bd 16cf 92bc a1b4 1ebc e7f2 2fbd
000000f0: cb56 ddbc 8a88 b5bc 60de e1bc 333e cabd
00000100: 0aa8 e2bc e9f4 afbc f3e5 cdbc d617 92bd
00000110: c1c2 70bd f869 0abc 053c 953c d51b 78bd
00000120: a689 67bc e02d 49bc c742 c0bd 353b 1bbd
00000130: 8ad9 42be d435 6dbc 84df 8dbc 6c6a b1bc
00000140: c1ba 45bc c8d3 83bd 7221 42bb a78b 3bbd
00000150: dabf adbc 2868 28bd 84f6 6bbd 06d8 d2bd
00000160: 9dd8 74bc e4ed d93d 47ac a7bc 287e f7bb
00000170: f7cb 17be e36a 3ebd e1e5 03bc e83b adbc
00000180: 6b9a 5d3c 7db2 01bd ba62 79bc 86a6 1ebc
00000190: 6bc7 8dbc 5ca6 b8bc 00a7 b3bc 9365 b6bd
000001a0: f8ab 50bc 6334 513e 9636 4abc 0035 60bd
000001b0: 833a d4bb f33f 14bc 4059 68bd 03d4 33bd
000001c0: c055 743c 1511 0dbd 6979 89bc 5217 83bb
000001d0: ce23 e8bc f598 023d 6fca 22bc e45c 37bc
000001e0: 2823 3bbc 53a4 0bbc 9253 1dbc 517e 29bd
000001f0: 4291 92bc b07d bfbc 68c5 9ebd 49d9 c5bc
00000200: 7a31 33bf cf9c 123c 2646 3dbe dc0c 83bb
00000210: 3ff6 86be 5740 84bc 5f8c 713c 1c7a 663b
00000220: 10e9 22be 09b9 16be dcca 95bb 9b77 50bd
00000230: 78fa a43a 0407 67be 4740 2cbf 0150 39bd
00000240: e56d afbd 980f 35bf 292f 663c 2f39 01bc
00000250: 7308 553c 1b55 fbbd ebdc 54be 42c3 d3be
00000260: 101d 93be c13d 82be f887 99be e69a 67bb
00000270: fda6 7e3b 31c3 1a3c 8052 93bc 6ae4 5fbe
00000280: d255 19bf 866c aebc 1ab3 883c 1d94 693b
00000290: 9da5 96be 3fa3 49be 2395 aabe 90e1 eebe
000002a0: 07c4 4fbd 7a11 333b 847f 803b 0b77 4ebe
000002b0: 5274 a1be 79ca 26be 3486 a4be 94f2 a23c
000002c0: dd0e 29bb 9ed8 7fbb 8e5a 8438 6b1c 823a
000002d0: 2387 50bb ade8 263b acd7 503c 14f9 19bf
000002e0: cfb2 2a3d c435 9e3b 461c f1be 35d5 07bf
000002f0: b1ee 0a3c 6043 763b 531f 5cbc 2579 6abe
00000300: 60c7 823b b932 80b9 0ff8 533c 25c6 b5be
00000310: 855f c3be c8cd 4ebb 5048 d7be 1c02 1fbe
00000320: 95db 8b3b 97c2 203b bdf0 c6be e581 93be
00000330: 6a95 69be b1b4 d53a abe4 79bb 601e 4e3b
00000340: 499c ad3b a0c1 46be 9d0c c8bd 7bcf 4ebf
00000350: 636f c1b9 e8d7 46be 3d4c f9be 7873 f6bd
00000360: 4d7a 26be 1b5e 39bf 4f13 2fbd 8e36 cb3b
00000370: af53 1dbe fdbc afbe 1252 c93a e7a9 bbbd
00000380: 76ab 2fbe fa2c 133c bf84 0abd 58dd 3bbd
00000390: 67b8 29ba 96b1 0a3c 8087 bc3a 1c43 4abe
000003a0: e3c6 1c3a dac2 0ebf 1bcd 003c e621 e1bd
000003b0: d45b 553a 1970 423b 7397 72be 9da8 d0bd
000003c0: b4ea 81bd 5a9a 83bd 6630 d6bb 13f3 7ebe
000003d0: d3d9 a93b 1eff ecbe 187f 4cbe 52a4 31bc
000003e0: 8ddf 08bc 5c24 3dbd 8c8c 7fbb cfab d0be
000003f0: 7be1 253c 6960 a23b 6df3 e93e b6ea 223b

gru.bias_hh_l0 f4 [384]
-0.007338148 -0.010734763 0.016349996 -0.007241666 -0.017074455 -0.015758343 -0.023574274 -0.025294209
-0.08133326 -0.010156649 -0.02233648 -0.027174378 -0.0073100133 -0.046217643 0.035051268 -0.02699754
-0.16442212 -0.00899269 -0.030277643 -0.019916855 -0.018763779 -0.049120538 -0.018172689 -0.030492045
-0.06813524 -0.05159453 -0.08156547 -0.02288243 -0.021785213 -0.026814034 -0.0056303707 -0.07391639
0.16665559 -0.008853832 -0.022317717 -0.009428931 -0.048474614 -0.038898032 -0.03314432 -0.05197451
-0.027881399 -0.0063121747 -0.025622655 -0.037572123 -0.0028543489 -0.0020534114 -0.005855382 -0.026813082
-0.009379144 -0.010479069 -0.0028441923 -0.0051856474 -0.015607934 -0.010698479 -0.021120237 0.1009401
-0.03679106 -0.017921012 -0.009692207 -0.042691417 -0.027018921 -0.022159835 -0.027571853 -0.098734215
-0.027668016 -0.021479085 -0.02513406 -0.07134433 -0.058747023 -0.008448118 0.018194199 -0.06057597
-0.01413194 -0.012279004 -0.093877465 -0.037895575 -0.20018125 -0.014478164 -0.017318496 -0.021657191
-0.012068455 -0.06436953 -0.002962201 -0.046046622 -0.021209644 -0.04111513 -0.05737499 -0.11048807
-0.014945064 0.10807713 -0.020467889 -0.007552881 -0.15068291 -0.04648752 -0.008050411 -0.021145297
0.013525578 -0.031664357 -0.015221293 -0.00968326 -0.017307002 -0.02254026 -0.021930212 -0.073017076
-0.012736315 0.2030443 -0.012342121 -0.05467659 -0.006476704 -0.009048448 -0.056725696 -0.04390335
0.014913019 -0.03444012 -0.016781522 -0.0037311264 -0.02833739 0.03198546 -0.009935771 -0.011191585
-0.011421955 -0.008523065 -0.009602445 -0.041381717 -0.017891534 -0.023375358 -0.04740023 -0.024151461
-0.6969276 0.008948518 -0.18483792 -0.0039993357 -0.2635975 -0.016143965 0.014742944 0.003516803
-0.15908276 -0.14723209 -0.0045713014 -0.05089532 0.0012586858 -0.22558837 -0.67492247 -0.045242306
-0.08565521 -0.70941496 0.014049329 -0.007887168 0.013002503 -0.12299111 -0.20787387 -0.4113475
-0.28735283 -0.25437784 -0.29986224 -0.0035340157 0.0038856843 0.00944595 -0.017983673 -0.21868111
-0.5989278 -0.021292163 0.016686965 0.003564125 -0.2942288 -0.19691283 -0.33316928 -0.4665727
-0.05072404 0.0027323638 0.0039214543 -0.20162597 -0.31534296 -0.16288175 -0.32133642 0.01989106
-0.0025796224 -0.003903905 6.311129e-05 0.0009926695 -0.0031818836 0.0025468275 0.012746733 -0.60399586
0.041674435 0.004828188 -0.4709256 -0.53022355 0.008479757 0.003757677 -0.013435206 -0.22898477
0.0039910474 -0.00024452302 0.012937559 -0.35502732 -0.38122925 -0.0031555754 -0.4204463 -0.1552821
0.004268119 0.0024530063 -0.38855383 -0.2880379 -0.2281266 0.0016304463 -0.003813065 0.003145115
0.0052981717 -0.19409467 -0.09767995 -0.80852145 -0.00036894763 -0.19415152 -0.48690975 -0.12032633
-0.16257589 -0.72688293 -0.04274301 0.006201572 -0.15363842 -0.34323868 0.0015359559 -0.09151324
-0.17155254 0.008982892 -0.03381797 -0.04586538 -0.00064743124 0.008465195 0.0014383658 -0.19810304
0.00059805636 -0.55738837 0.007861406 -0.109928556 0.00081389886 0.0029668869 -0.23690489 -0.101883925
-0.06343594 -0.06425925 -0.006536534 -0.24897705 0.005183438 -0.46191227 -0.19971728 -0.010842398
-0.008354075 -0.046177253 -0.0038993685 -0.40756077 0.010124557 0.0049553383 0.44950253 0.002485921
00000000: d974 f0bb dce0 2fbc 6df0 853c 7f4b edbb
00000010: badf 8bbc a417 81bc d61e c1bc cd35 cfbc
00000020: 0d92 a6bd 1368 26bc fefa b6bc cd9c debc
00000030: d688 efbb b64e 3dbd eb91 0f3d f229 ddbc
00000040: 465e 28be 1356 13bc d208 f8bc ac28 a3bc
00000050: 7fb6 99bc 9e32 49bd e4de 94bc 74ca f9bc
00000060: 7d8a 8bbd c954 53bd cc0b a7bd ef73 bbbc
00000070: e776 b2bc 1ba9 dbbc f97e b8bb 7a61 97bd
00000080: c3a7 2a3e aa0f 11bc a5d3 b6bc ce7b 1abc
00000090: 518d 46bd 8b53 1fbd 57c2 07bd 39e3 54bd
000000a0: 8867 e4bc 5cd6 cebb 9ae6 d1bc 3ae5 19bd
000000b0: 0710 3bbb 8792 06bb 81de bfbb 1ca7 dbbc
000000c0: fbaa 19bc 67b0 2bbc a165 3abb 5dec a9bb
000000d0: 6cb8 7fbc ac48 2fbc 5904 adbc afb9 ce3d
000000e0: 39b2 16bd 16cf 92bc 10cc 1ebc 32dd 2ebd
000000f0: c956 ddbc 8b88 b5bc 5ede e1bc 2a35 cabd
00000100: 09a8 e2bc e8f4 afbc f2e5 cdbc fa1c 92bd
00000110: b8a0 70bd fa69 0abc 000c 953c 821e 78bd
00000120: a789 67bc e02d 49bc d442 c0bd 6438 1bbd
00000130: 50fc 4cbe d235 6dbc 85df 8dbc 6c6a b1bc
00000140: c5ba 45bc 2cd4 83bd 7c21 42bb 629b 3cbd
00000150: d9bf adbc 5768 28bd 0a02 6bbd 9247 e2bd
00000160: 24dc 74bc 8b57 dd3d 46ac a7bc 287e f7bb
00000170: 9f4c 1abe b369 3ebd dfe5 03bc e738 adbc
00000180: 639a 5d3c 7cb2 01bd bb62 79bc 89a6 1ebc
00000190: 6ac7 8dbc 5aa6 b8bc fda6 b3bc fa89 95bd
000001a0: faab 50bc d8ea 4f3e 9c36 4abc 8ff4 5fbd
000001b0: 883a d4bb f13f 14bc 3459 68bd 00d4 33bd
000001c0: bc55 743c 1511 0dbd 6779 89bc ea85 74bb
000001d0: d023 e8bc 3003 033d a5c9 22bc e95c 37bc
000001e0: 2723 3bbc 53a4 0bbc 9353 1dbc e07f 29bd
000001f0: 4491 92bc ae7d bfbc be26 42bd 49d9 c5bc
00000200: d969 32bf ce9c 123c 2746 3dbe dc0c 83bb
00000210: 40f6 86be 5940 84bc 648c 713c 2a7a 663b
00000220: 97e6 22be 02c4 16be dbca 95bb 9c77 50bd
00000230: 7dfa a43a a300 67be b8c7 2cbf ff4f 39bd
00000240: 006c afbd 389c 35bf 282f 663c 2e39 01bc
00000250: 7308 553c c3e2 fbbd e3dc 54be 249c d2be
00000260: e91f 93be d03d 82be 8b87 99be f29a 67bb
00000270: f7a6 7e3b 30c3 1a3c 7f52 93bc f1ed 5fbe
00000280: 5553 19bf e76c aebc 1ab3 883c 1894 693b
00000290: 28a5 96be 84a3 49be 2a95 aabe 9ee2 eebe
000002a0: 03c4 4fbd 7511 333b 8b7f 803b 0a77 4ebe
000002b0: a274 a1be 79ca 26be 3586 a4be 94f2 a23c
000002c0: e20e 29bb a8d8 7fbb 9e5a 8438 761c 823a
000002d0: 2687 50bb ade8 263b acd7 503c 799f 1abf
000002e0: d0b2 2a3d c735 9e3b 291d f1be bbbc 07bf
000002f0: aeee 0a3c 5c43 763b 571f 5cbc fc7a 6abe
00000300: 55c7 823b 5333 80b9 0ef8 533c 24c6 b5be
00000310: 7b30 c3be c5cd 4ebb bd44 d7be 4502 1fbe
00000320: 94db 8b3b 9ec2 203b 87f0 c6be b479 93be
00000330: 059a 69be b3b4 d53a 9de4 79bb 461e 4e3b
00000340: 499c ad3b c1c0 46be 6d0c c8bd 43fb 4ebf
00000350: 506f c1b9 a8cf 46be 3c4c f9be a76d f6bd
00000360: 4b7a 26be 0015 3abf 4b13 2fbd 8e36 cb3b
00000370: 6453 1dbe fbbc afbe 2152 c93a 4b6b bbbd
00000380: 78ab 2fbe fb2c 133c b684 0abd 56dd 3bbd
00000390: 60b8 29ba 9ab1 0a3c 8c87 bc3a 86db 4abe
000003a0: e2c6 1c3a 01b1 0ebf 20cd 003c 3922 e1bd
000003b0: d45b 553a 1a70 423b 3297 72be 85a8 d0bd
000003c0: b4ea 81bd 5b9a 83bd 6c30 d6bb d7f3 7ebe
000003d0: d4d9 a93b c47f ecbe b082 4cbe 50a4 31bc
000003e0: 88df 08bc 5c24 3dbd 8c8c 7fbb ceab d0be
000003f0: 78e1 253c 6460 a23b 3225 e63e d5ea 223b

gru.weight_ih_l1 f4 [384, 128]
-0.0033959805 -0.001829502 0.000256048 -0.002308008 -0.008540682 -0.0033674135 0.0032876434 -0.0049965493
-0.0012655958 0.008039475 -0.0029656896 0.004868454 0.0029972652 0.0006014988 -0.007973741 -0.0029950177
0.003133646 -0.00050874933 0.003740178 0.005322284 0.0009375321 0.014031027 0.0008513284 -0.0067949602
0.010162634 -0.0030132001 0.0030380366 -0.0036784874 0.0012083387 -0.00213249 0.00084684 0.00020986293
0.022102267 0.0006195521 -0.001987423 -0.005346175 0.0035328465 -0.0024726563 -0.0040499503 0.007029273
-0.0018531752 -0.0058453814 0.0041265916 0.004492089 0.010674257 -0.005036856 0.0075580124 -0.0053571174
-0.0014481104 0.0016129258 -0.0040358035 -0.0013698833 -0.0018007647 0.0027431934 -0.00061876327 0.003612989
0.0049590156 0.0013303409 -0.008924838 0.001714393 -0.004623218 0.00037677735 -0.0022707246 0.0006380282
-0.002667511 -0.003298589 -0.0023223797 0.0019848682 -0.00020299756 0.0032070416 -0.010599642 -0.0017704547
-0.0016367402 0.0024770694 -0.008870055 -0.0038026692 -0.0070132175 -0.0030718837 -0.0022215857 -0.0023883535
0.0010535803 0.00059432327 -0.00018080667 -0.005209502 0.0035524885 0.00038758802 -0.014041367 0.015161748
0.006335448 -0.01113684 0.00082456606 0.0030394446 0.002318667 0.0037120474 1.6917737e-05 -0.0065785525
-0.006977103 0.0027238417 0.002443661 0.0042243423 -0.00056313234 -0.0011053621 0.0040362594 0.003976531
-0.0010988959 0.02063883 -0.003358393 0.008884015 -0.0033179352 -0.0017911821 -0.0076544867 0.0004642487
0.0010035014 -0.002039141 0.0019628045 -0.005284388 0.0042521176 -0.005352604 0.009519424 -0.00013512059
0.00030153658 -0.0017200431 -0.0035406337 0.0019525939 -0.0056092544 -0.0040474525 0.020201618 0.0009586357
0.08147404 0.0015442016 0.009197466 0.002325608 0.029352643 0.012143154 -0.008500643 0.009147214
-0.009371233 -0.008034517 0.0058403797 -0.0060997903 -0.005046555 0.0152066285 -0.08169994 0.0036085367
0.03132268 -0.09304686 -0.0075157667 -0.006389792 -0.00028901716 -0.01420502 -0.035042256 -0.025329523
0.034518562 -0.022484694 0.018741827 0.0065332414 -0.006920631 0.0041226693 -0.00539985 -0.0011902455
0.03767997 0.0007410438 0.004143675 0.004336738 0.022743326 0.0053236894 -0.035412416 -0.047690343
0.008588499 0.0061098165 -0.0051111965 0.012270864 -0.0038444297 0.012983699 0.022740832 0.009772073
0.0007863377 -0.009027744 0.0028861747 0.0043114494 0.00398173 -0.0059631797 -0.00080736977 0.022423496
-0.0029026235 -0.00466585 -0.05322042 0.043288536 0.0056590866 0.00076142926 0.0036742082 -0.026788218
0.0048815957 0.0065294756 0.004451185 -0.03971568 0.019864604 -0.00027681942 -0.0172064 0.014525687
0.0047438936 -0.005998903 -0.04530114 -0.013814352 -0.030970465 0.005763819 0.0064097093 -0.00059388595
0.0011698103 -0.022240818 0.010040308 -0.12620275 -0.008162057 0.006064594 -0.07335633 -0.003933755
0.011150674 -0.08330944 -0.0022786043 -0.0061513153 0.006639714 0.03969761 9.569099e-05 0.01077162
0.00562417 -0.005576904 -0.0041281017 -0.0033837585 -0.00024588278 0.0072846287 -0.0019735515 -0.026408922
0.0025851966 0.0016297497 0.0042488608 0.017437978 -0.002183024 0.0022996082 -0.0411678 -0.008201176
-0.0037252933 0.00538781 -0.0019613465 -0.026860528 -0.004641109 -0.012338828 0.012319359 0.0006186633
-0.003825995 0.0055380315 0.005140343 0.05359469 0.009300595 0.004676586 -0.01286013 -0.0043262076
00000000: 198f 5ebb e7cb efba 2e3e 8639 f341 17bb
00000010: 37ee 0bbc d3af 5cbb 8175 573b 18ba a3bb
00000020: 59e2 a5ba 01b8 033c 045c 42bb 8d87 9f3b
00000030: c46d 443b e7ad 1d3a 4ba4 02bc 0f48 44bb
00000040: db5d 4d3b 975d 05ba c61d 753b 8e66 ae3b
00000050: b7c4 753a 65e2 653c af2b 5f3a 42a8 debb
00000060: 2d81 263c 1c79 45bb cc19 473b c712 71bb
00000070: 1e61 9e3a 3fc1 0bbb 78fe 5d3a a70e 5c39
00000080: d00f b53c 7069 223a 6d3f 02bb f72e afbb
00000090: 5487 673b 4a0c 22bb 72b5 84bb d155 e63b
000000a0: 3ee6 f2ba 9d8a bfbb 5c38 873b 6032 933b
000000b0: 14e3 2e3c 360c a5bb 34a9 f73b c28a afbb
000000c0: 86ce bdba cf68 d33a c63e 84bb a88d b3ba
000000d0: a307 ecba 26c7 333b 8034 22ba e6c7 6c3b
000000e0: 3d7f a23b d55e ae3a 7c39 12bc 7cb5 e03a
000000f0: 5d7e 97bb 338a c539 70d0 14bb 5941 273a
00000100: 69d1 2ebb 242d 58bb 1133 18bb 9014 023b
00000110: bedb 54b9 3b2d 523b 1faa 2dbc 9a0e e8ba
00000120: e387 d6ba 5456 223b b553 11bc 3436 79bb
00000130: 22cf e5bb a851 49bb 0698 11bb ec85 1cbb
00000140: 4a18 8a3a 5ccc 1b3a ec96 3db9 78b4 aabb
00000150: ded0 683b 2f35 cb39 c30d 66bc fb68 783c
00000160: 9799 cf3b 4b77 36bc b127 583a 6b31 473b
00000170: c7f4 173b d245 733b 90ea 8d37 e690 d7bb
00000180: 2fa0 e4bb 7b82 323b d425 203b 5a6c 8a3b
00000190: 2c9f 13ba cce1 90ba 9942 843b 8f4d 823b
000001a0: d408 90ba c312 a93c 7c18 5cbb 428e 113c
000001b0: b771 59bb 19c6 eaba 7dd2 fabb 6866 f339
000001c0: eb87 833a 1ca3 05bb 65a2 003b a928 adbb
000001d0: 5955 8b3b e664 afbb 5cf7 1b3c 28af 0db9
000001e0: 8e17 9e39 1273 e1ba fa09 68bb 2eee ff3a
000001f0: d6cd b7bb 7ea0 84bb dd7d a53c f44c 7b3a
00000200: dddb a63d cf66 ca3a f8b0 163c 3a69 183b
00000210: f474 f03c 14f4 463c 4846 0bbc 32de 153c
00000220: cd89 19bc 35a3 03bc a860 bf3b c0e0 c7bb
00000230: 925d a5bb 3925 793c 4c52 a7bd 337d 6c3b
00000240: 364c 003d 5a8f bebd d246 f6bb 7661 d1bb
00000250: 3a87 97b9 2cbc 68bc 7888 0fbd dc7f cfbc
00000260: 5663 0d3d d231 b8bc 7688 993c cd14 d63b
00000270: 76c6 e2bb 7517 873b 3af1 b0bb 0302 9cba
00000280: 5056 1a3d 9c42 423a aac7 873b 321b 8e3b
00000290: 3650 ba3c 5872 ae3b 9c0c 11bd f356 43bd
000002a0: c7b6 0c3c db34 c83b d37b a7bb bc0b 493c
000002b0: d4f2 7bbb 95b9 543c fb4a ba3c 0b1b 203c
000002c0: 3b22 4e3a 1ae9 13bc fa25 3d3b 0f47 8d3b
000002d0: 2c79 823b c766 c3bb aba5 53ba 7bb1 b73c
000002e0: f139 3ebb fde3 98bb a8fd 59bd 524f 313d
000002f0: dc6f b93b a79a 473a fcca 703b f772 dbbc
00000300: cbf5 9f3b 36f5 d53b 3fdb 913b e9ac 22bd
00000310: 18bb a23c 1322 91b9 70f4 8cbc 26fd 6d3c
00000320: aa72 9b3b 7292 c4bb b08d 39bd 9855 62bc
00000330: c6b5 fdbc 6bde bc3b 8a08 d23b 03af 1bba
00000340: 5254 993a 6032 b6bc 1b80 243c 4b3b 01be
00000350: 26ba 05bc 80b9 c63b d83b 96bd bbe6 80bb
00000360: 51b1 363c 249e aabd a354 15bb f990 c9bb
00000370: f591 d93b f699 223d b6ad c838 737b 303c
00000380: f54a b83b 76be b6bb 0745 87bb 0cc2 5dbb
00000390: d4e9 80b9 e5b3 ee3b b356 01bb 8657 d8bc
000003a0: 676c 293b 539d d53a 073a 8b3b 17da 8e3c
000003b0: 1111 0fbb 06b5 163b 919f 28bd 3a5e 06bc
000003c0: 0d24 74bb 3a8c b03b ef89 00bb 9c0a dcbc
000003d0: 7214 98bb cc28 4abc 23d7 493c cb2d 223a
000003e0: 8bbd 7abb 6078 b53b 5370 a83b 1b86 5b3d
000003f0: 8661 183c 0c3e 993b 4bb3 52bc dcc2 8dbb

gru.weight_hh_l1 f4 [384, 128]
0.0005131763 -0.02172105 -0.012766378 0.019914897 0.019560158 -0.0015111642 -0.019180462 -0.008736474
-0.019477047 0.015294441 -0.019790875 -0.0058262316 -0.019803667 0.019006856 -0.011702141 -0.0021211577
-0.0025629872 0.018602394 0.01137316 -0.0013468338 0.02016852 5.6146775e-05 -0.019570561 -0.0018088856
0.012415828 -0.002438646 -0.00036491238 0.020077774 -0.011217933 0.02002542 0.0038703375 0.009651466
0.008084512 0.016851192 0.01796532 -0.020092674 0.0064995997 0.0034286124 0.020329626 -0.00074025267
-0.021085989 0.010326603 0.018783536 0.010989096 -0.0055395416 0.019385636 -0.013477218 0.019700995
0.019923314 0.0155851 -0.018471034 0.0056312885 0.021028245 0.002388717 -0.02575026 0.015734801
-0.01930273 0.005847256 0.015075637 0.017129168 0.0043223808 0.020304734 0.0017017915 -0.011080473
-0.0034462486 0.0022256738 -0.019523904 -0.010802635 -0.006671442 0.019609379 0.0024410803 0.015251605
-0.006838546 0.005220495 0.0008805947 0.004782336 -0.020201264 -0.005746446 -0.0011434392 0.01992231
-0.008623323 -0.0034593265 -0.015287561 -0.016998699 -0.011372274 -0.003016617 0.0033410715 -0.021221317
0.010417107 0.015300775 0.017199581 0.0018929725 0.0047640675 0.002547867 0.0060757594 -0.019432763
-0.019747337 0.0019771634 0.0023076104 0.009558811 -0.00019585415 -0.019904885 0.0041742665 0.017875109
-0.019471962 -0.0048800646 0.018916454 -0.020033496 0.004501424 -0.0019836393 0.017168272 -0.019669823
0.0031860648 0.012845081 -0.01346795 -0.0029820972 0.0033688615 -0.016842633 -0.01926507 0.01963236
0.02532257 0.0003903422 0.0017944555 0.02932479 0.019961938 0.019890504 -0.0045237616 0.023896392
-0.003617364 0.11322588 0.014346823 -0.046314705 -0.03258323 0.0129729975 0.017932693 0.012749261
0.04692769 -0.019059006 0.05593541 -0.118227564 0.05721467 -0.054479636 0.06638464 0.00676623
0.007601042 -0.056732774 0.08353961 0.009104852 -0.04015172 0.08080913 0.04688201 0.0028754212
-0.124705054 0.01079389 -0.012450933 -0.03789317 0.017093424 -0.043324243 -7.3188945e-05 0.031492516
-0.08018009 -0.089138076 -0.056389205 0.041211907 -0.09959255 0.00012673704 -0.039373375 -0.005951487
0.011465652 -0.0741463 -0.04600825 -0.089012474 -0.011617663 -0.046049256 -0.071253896 -0.046720367
-0.035421073 -0.05680231 0.03688689 -0.00022223202 -0.034755174 -0.00916951 -0.09209656 0.061618082
0.032350864 0.005703007 -0.029965838 -0.060334314 0.0075540193 -0.044242553 -0.0074437605 0.040513936
-0.004008655 0.0017196223 0.046704598 0.078297295 -0.026225014 -0.0473166 -0.0005254487 -0.06027425
-0.07977271 0.0063168057 0.008395094 -0.0014912955 0.028977884 -0.000113657065 -0.066831015 -0.045513757
-0.0054763635 -0.005926336 0.08368821 -0.022870203 -0.048509885 0.004379698 0.0019973884 -0.058918413
-0.08094011 0.03791693 -0.06458737 -0.008895049 0.00090351 -0.006650385 -0.020226086 0.04653783
0.046290193 -0.0021944018 -0.00011138138 0.06046938 -0.094850786 0.047412697 -0.0012443293 -0.060124587
0.053751387 0.05686861 -0.049076404 0.041748423 0.0018008812 0.0022304752 -0.009205247 0.047931217
-0.009872849 -0.116769575 0.070655085 -0.003073318 0.0039045885 0.06523226 0.023754936 -0.047548905
0.09493739 0.0035974584 -0.0075759366 0.012118301 -0.034818202 -0.044374324 0.006401779 0.000120441335
00000000: ae86 063a 58f0 b1bc 122a 51bc 9124 a33c
00000010: a03c a03c 4212 c6ba 5820 9dbc 6e23 0fbc
00000020: 548e 9fbc 8995 7a3c 7920 a2bc f9e9 bebb
00000030: 4d3b a2bc 44b4 9b3c 56ba 3fbc 1f03 0bbb
00000040: caf7 27bb 0c64 983c 7e56 3a3c 3e88 b0ba
00000050: 7438 a53c 247f 6b38 7152 a0bc 2118 edba
00000060: c26b 4b3c b1d1 1fbb b651 bfb9 257a a43c
00000070: 6ccb 37bc 590c a43c 7da5 7d3b 2f21 1e3c
00000080: e774 043c 830b 8a3c 022c 933c 6499 a4bc
00000090: 98fa d43b 92b2 603b 518a a63c 840d 42ba
000000a0: 86bc acbc ea30 293c eedf 993c 9c0b 343c
000000b0: 0b85 b5bb a0ce 9e3c 8dcf 5cbc fb63 a13c
000000c0: 3836 a33c a658 7f3c 9150 97bc ac86 b83b
000000d0: 6d43 ac3c 058c 1c3b 36f2 d2bc 45e6 803c
000000e0: c220 9ebc 579a bf3b ceff 763c 7852 8c3c
000000f0: c2a2 8d3b 1d56 a63c a60e df3a df8a 35bc
00000100: 75da 61bb 9cdc 113b 98f0 9fbc 89fd 30bc
00000110: 1d9c dabb d9a3 a03c 88fa 1f3b dee1 793c
00000120: e215 e0bb b010 ab3b b6d7 663a 24b5 9c3b
00000130: 1f7d a5bc af4c bcbb 74df 95ba 1d34 a33c
00000140: d748 0dbc deb5 62bb ae78 7abc db40 8bbc
00000150: c652 3abc 6fb2 45bb e1f5 5a3b 54d8 adbc
00000160: 83ac 2a3c 1ab0 7a3c 23e6 8c3c 9e1d f83a
00000170: e51b 9c3b 1dfa 263b 2a17 c73b 7531 9fbc
00000180: 2bc5 a1bc 4c93 013b 473b 173b 8f9c 1c3c
00000190: 335e 4db9 920f a3bc 49c8 883b d26e 923c
000001a0: aa83 9fbc f3e8 9fbb aef6 9a3c 491d a4bc
000001b0: ae80 933b f2ff 01bb 7aa4 8c3c 9c22 a1bc
000001c0: 4ccd 503b 2d74 523c ada8 5cbc 4a6f 43bb
000001d0: 1ec8 5c3b 90f9 89bc c8d1 9dbc 0bd4 a03c
000001e0: 4771 cf3c d8a6 cc39 ef33 eb3a 8b3a f03c
000001f0: 3887 a33c 69f1 a23c 103c 94bb 5ec2 c33c
00000200: 4c11 6dbb f8e2 e73d f00e 6b3c 7db4 3dbd
00000210: fe75 05bd b28c 543c 95e7 923c 47e2 503c
00000220: 4037 403d a221 9cbc 871c 653d 4b21 f2bd
00000230: ee59 6a3d 0a26 5fbd acf4 873d 40b7 dd3b
00000240: 2912 f93b a060 68bd d116 ab3d 842c 153c
00000250: 2176 24bd 427f a53d 5a07 403d 9071 3c3b
00000260: 5d65 ffbd dbd8 303c 00ff 4bbc de35 1bbd
00000270: 8207 8c3c c374 31bd 047d 99b8 4cfe 003d
00000280: 7635 a4bd 068e b6bd 5ef8 66bd d1cd 283d
00000290: 2ef7 cbbd b7e4 0439 fa45 21bd b104 c3bb
000002a0: 6eda 3b3c 04da 97bd 2673 3cbd 2c4c b6bd
000002b0: 0358 3ebc 259e 3cbd 90ed 91bd db5d 3fbd
000002c0: b015 11bd 8aa9 68bd b516 173d f406 69b9
000002d0: 715b 0ebd b63b 16bc 1f9d bcbd 3e63 7c3d
000002e0: 5782 043d 4ae0 ba3b eb7a f5bc 1d21 77bd
000002f0: b587 f73b ae37 35bd caea f3bb f1f1 253d
00000300: 095b 83bb f364 e13a 524d 3f3d 555a a03d
00000310: d7d5 d6bc 0dcf 41bd 44be 09ba 22e2 76bd
00000320: e05f a3bd 35fd ce3b 948b 093c 9377 c3ba
00000330: 0763 ed3c 2c5b eeb8 b3de 88bd a26c 3abd
00000340: 1173 b3bb b631 c2bb b964 ab3d 4b5a bbbc
00000350: 4db2 46bd 9283 8f3b 9ee6 023b 6f54 71bd
00000360: eec3 a5bd c84e 1b3d 6246 84bd 8abc 11bc
00000370: 88d9 6c3a 79eb d9bb 2db1 a5bc 749e 3e3d
00000380: c99a 3d3d f4cf 0fbb 6c95 e9b8 beae 773d
00000390: 2141 c2bd d133 423d c318 a3ba 3345 76bd
000003a0: 6a2a 5c3d 0fef 683d 5704 49bd 6500 2b3d
000003b0: 8c0b ec3a 2a2d 123b 9bd1 16bc 8653 443d
000003c0: bbc1 21bc e324 efbd 9db3 903d b869 49bb
000003d0: 20e4 7f3b 7e98 853d b699 c23c a4c2 42bd
000003e0: 896e c23d 56c3 6b3b 903f f8bb d78b 463c
000003f0: 889d 0ebd dac1 35bd 04c6 d13b 7395 fc38

gru.bias_ih_l1 f4 [384]
-0.025911294 -0.029960144 -0.012388317 0.012237947 0.0038549886 -0.016473178 -0.002470187 0.019381508
0.016776571 -0.007456806 0.022265907 0.14332014 -0.0041486956 0.009770738 0.011265867 -0.024264364
-0.022666808 0.034376584 0.014040309 -0.024270095 0.008382584 0.25584692 0.023916144 -0.020679135
-0.015133837 -0.021473048 -0.019415135 0.0074018436 0.008314409 0.015646404 -0.020284953 -0.054107074
0.037214596 -0.016605454 0.04036381 0.016562155 0.09789019 -0.020428618 0.0092309415 -0.014210673
0.0007417878 0.10908047 0.04808404 0.075256675 0.038867556 0.015716305 0.22550681 0.02221314
0.0022859597 0.010334814 0.33151644 -0.019774802 0.008290649 -0.021169063 -0.028968045 -0.103026286
0.001624468 -0.016266294 0.018290607 0.023650685 -0.01771478 0.01400629 -0.022064466 -0.007992467
-0.014037713 -0.017533159 0.029195508 0.01221552 0.1549364 0.021824427 -0.022808537 0.0025050764
0.037785176 -0.014057813 -0.011570518 -0.021823758 0.001970573 -0.014776063 0.20303635 0.016294204
-0.021879513 -0.022714082 0.031229956 -0.026492747 0.16968745 -0.020284131 -0.016599778 -0.13016616
0.09664589 -0.103780895 0.055214047 -0.02184636 -0.020411935 -0.02246456 -0.01682189 0.013216242
0.015119029 -0.017800301 -0.010728517 0.2570719 0.22603966 0.016714515 -0.018927084 0.04436172
-0.00056721375 0.16751826 0.031331643 0.02025287 -0.01777981 -0.021902582 0.054292798 0.01232291
-0.018821413 -0.023932526 0.067273974 -0.025922807 -0.022076897 0.009928491 -6.028336e-05 0.014862201
0.02602366 -0.0011353522 -0.00971743 0.3625879 0.043991517 0.018258728 -0.021160683 0.13075341
0.0016012331 -0.19728939 -0.016219778 -0.089851394 -0.048871793 -0.000984139 -0.028716829 -0.08300108
-0.12514721 -0.02420639 -0.19774877 -0.09850565 -0.2785596 -0.13849677 -0.2408694 0.0021488094
-0.00014220623 -0.15414287 0.04019873 -0.00023891203 -0.06815673 0.09791561 -0.13117492 0.003806205
-0.2278343 -0.0028799807 -0.002334681 -0.061364826 -0.07573344 -0.108375 -0.000343373 -0.12295223
-0.15174375 -0.21602824 -0.15037112 -0.10574498 -0.1657943 0.0040481584 -0.07360527 0.0011876794
-0.018206287 0.44200388 -0.122755975 -0.1761311 -0.14699969 -0.1317113 0.16897762 -0.1340743
-0.050051372 -0.04939256 0.17792794 -0.0037238242 -0.076901495 0.00080786354 -0.104700744 -0.02255851
-0.041816536 0.006071904 0.021207271 -0.14134027 0.0033043276 -0.098209985 -0.0016680801 -0.06115258
0.0018532508 -0.0003465027 -0.14371228 -0.16730554 0.37459198 -0.12602839 0.0042860694 -0.06709417
0.06573217 0.0037935565 -0.00501441 0.00073711335 -0.04674163 0.0047649615 -0.04642099 -0.10104512
-0.04267329 0.0038457098 -0.18297683 -0.24050537 -0.026551064 -0.0010034868 0.002210678 -0.06390291
-0.17101224 -0.030508943 -0.16288759 -0.0015626093 0.0012572227 -0.0001915684 -0.025596991 -0.12220726
-0.114803076 0.0026157899 -0.0008705483 0.036364026 0.13532615 -0.10849591 0.0015270292 -0.15722111
-0.2833099 -0.23616184 -0.12551902 -0.10273698 0.006886133 -0.0021290258 -0.29130223 -0.10798752
-0.007494107 -0.2189725 -0.16529536 0.005370182 0.003391409 -0.15181655 -0.005086721 -0.11055783
-0.16948488 -0.021632709 -0.009257723 0.12651864 -0.0056745894 -0.12093381 -0.004869786 -0.02675864
00000000: ec43 d4bc fa6e f5bc 5ef8 4abc ac81 483c
00000010: faa3 7c3b c2f2 86bc dce2 21bb f8c5 9e3c
00000020: 056f 893c 3958 f4bb fe66 b63c 84c2 123e
00000030: c8f1 87bb 7215 203c 7994 383c 0fc6 c6bc
00000040: beaf b9bc 76ce 0c3d 5309 663c 14d2 c6bc
00000050: 1b57 093c 5efe 823e caeb c33c 4a67 a9bc
00000060: eaf3 77bc 3fe8 afbc 7d0c 9fbc 2a8b f23b
00000070: 2939 083c e32c 803c a12c a6bc 619f 5dbd
00000080: 556e 183d 2908 88bc 8654 253d 5bad 873c
00000090: a77a c83d eb59 a7bc 603d 173c e2d3 68bc
000000a0: 8974 423a 9565 df3d c5f3 443d 2c20 9a3d
000000b0: 9633 1f3d 7bbf 803c 42eb 663e 55f8 b53c
000000c0: 0ad0 153b 5a53 293c 86bc a93e c4fe a1bc
000000d0: 81d5 073c be6a adbc 654e edbc 72ff d2bd
000000e0: 1aec d43a e440 85bc 2fd6 953c 15bf c13c
000000f0: 961e 91bc a37a 653c 8ac0 b4bc d6f2 02bc
00000100: 70fe 65bc b3a1 8fbc 6b2b ef3c 9b23 483c
00000110: a6a7 1e3e 24c9 b23c f8d8 babc 352c 243b
00000120: a1c4 1a3d be52 66bc 4592 3dbc bdc7 b2bc
00000130: bb24 013b 4d17 72bc c3e8 4f3e 6c7b 853c
00000140: aa3c b3bc e212 babc f7d5 ff3c 5107 d9bc
00000150: 8cc2 2d3e e82a a6bc 42fc 87bc 474a 05be
00000160: 48ee c53d 148b d4bd 2028 623d 23f7 b2bc
00000170: ee36 a7bc 9907 b8bc 0fce 89bc f088 583c
00000180: ceb5 773c f0d1 91bc a9c6 2fbc ee9e 833e
00000190: f176 673e e1ec 883c f90c 9bbc a3b4 353d
000001a0: 12b1 14ba e889 2b3e 9c55 003d 59e9 a53c
000001b0: f7a6 91bc 0b6d b3bc 2062 5e3d 08e6 493c
000001c0: 5d2f 9abc 250e c4bc f0c6 893d 115c d4bc
000001d0: 9cda b4bc 1cab 223c c4d8 7cb8 9780 733c
000001e0: 922f d53c 19d0 94ba db35 1fbc 1fa5 b93e
000001f0: 7330 343d 5493 953c 2b59 adbc 39e4 053e
00000200: 78e0 d13a 3b06 4abe 57df 84bc 0204 b8bd
00000210: ca2d 48bd 3afe 80ba 8e3f ebbc 78fc a9bd
00000220: 9726 00be 7b4c c6bc a77e 4abe 55bd c9bd
00000230: 5d9f 8ebe 19d2 0dbe 78a6 76be 0ad3 0c3b
00000240: 321d 15b9 a1d7 1dbe 6ca7 243d 7684 7ab9
00000250: c195 8bbd fb87 c83d b852 06be 8671 793b
00000260: 654d 69be 0fbe 3cbb 7301 19bb af59 7bbd
00000270: 221a 9bbd b6f3 ddbd be06 b4b9 61ce fbbd
00000280: b762 1bbe 8236 5dbe e3fa 19be d390 d8bd
00000290: fbc5 29be 6aa6 843b 5cbe 96bd e8ab 9b3a
000002a0: 5a25 95bc 554e e23e 7c67 fbbd b65b 34be
000002b0: 1687 16be 54df 06be 7808 2d3e c64a 09be
000002c0: ab02 4dbd da4f 4abd be32 363e 670b 74bb
000002d0: 887e 9dbd cec6 533a 586d d6bd a0cc b8bc
000002e0: d147 2bbd d3f6 c63b dfba ad3c 81bb 10be
000002f0: 6b8d 583b 5122 c9bd 7ba3 daba 217b 7abd
00000300: c7e8 f23a ceaa b5b9 5029 13be 2552 2bbe
00000310: 85ca bf3e 960d 01be 2872 8c3b ab68 89bd
00000320: 979e 863d 519d 783b eb4f a4bb d73a 413a
00000330: 2774 3fbd 6523 9c3b f023 3ebd bef0 cebd
00000340: 30ca 2ebd 4e08 7c3b 475e 3bbe 0a47 76be
00000350: 9e81 d9bc 6e87 83ba 06e1 103b 87df 82bd
00000360: d51d 2fbe e4ed f9bc 01cc 26be 78d0 ccba
00000370: 65c9 a43a c0df 48b9 c8b0 d1bc cd47 fabd
00000380: e01d ebbd ac6d 2b3b 8235 64ba 72f2 143d
00000390: f092 0a3e 1b33 debd 9926 c83a 92fe 20be
000003a0: ff0d 91be 69d4 71be 0f88 00be c467 d2bd
000003b0: 12a5 e13b 2087 0bbb 9125 95be 9028 ddbd
000003c0: 2091 f5bb 543a 60be 3043 29be 5af8 af3b
000003d0: 6742 5e3b cc75 1bbe 82ae a6bb 256c e2bd
000003e0: 728d 2dbe 1437 b1bc b4ad 17bc 1a8e 013e
000003f0: e8f1 b9bb 25ac f7bd ba92 9fbb ef34 dbbc
