datasets/Spirit/model/chronological_lightlog.pth (torch, 10327 bytes, 22 tensors)

resblock1.conv1.weight f4 [3, 20, 3]
000000 ea d2 ee 3c 80 a9 27 bd 6b d0 a6 bc 46 2c e5 bd
       0.029153306 -0.040933132 -0.020363053 -0.11190085
000010 ba 27 fd 3d 06 5d 81 3d ac 14 1a bd 05 9f b7 bd
       0.12361093 0.06316571 -0.03761737 -0.089658774
000020 cb 5b eb 3d 75 35 c3 bc d9 44 9b bc f3 29 dd bc
       0.114921175 -0.023829201 -0.018953728 -0.026997542
000030 8d 22 67 bd c0 9b 2b bd e4 e7 db 37 5d 63 3a 3d
       -0.056429435 -0.04189658 2.6214817e-05 0.045504916
000040 78 55 8f bd b0 c8 50 3d fa a3 b8 bd 9f 18 fb 3d
       -0.06998724 0.05097264 -0.09015651 0.122605555
000050 08 06 00 3e 03 bf fc 3e 5a 7f 27 40 02 d2 10 3e
       0.125023 0.4936448 2.617148 0.14142612
000060 18 4f c9 be 62 4b 36 c0 26 c1 7b 3e 52 c4 92 be
       -0.39318156 -2.848351 0.24585399 -0.28665406
000070 ad 22 45 be 7e fd 7b be 62 7c 56 3d 40 21 b0 3f
       -0.19251509 -0.24608418 0.052364714 1.3760147
000080 00 87 14 bd ca 9e 9a 3e 9f 01 f9 3f 20 98 a7 bb
       -0.03626156 0.3019927 1.945362 -0.0051145703
000090 7b 56 e1 3e 8d fd 82 bf 8f c8 25 3f 7a e1 c8 3e
       0.44011292 -1.0233628 0.64759153 0.39234525
0000a0 aa f6 8d 3f a0 e8 04 3f 39 33 f3 3e f3 de 34 bf
       1.1090901 0.5191746 0.47500017 -0.70652694
0000b0 de 10 dd bd ef 0f 0c 3e 32 07 84 3f 4a c4 01 3e
       -0.10794233 0.13677953 1.0314696 0.12672535
0000c0 fb dc c9 3e 09 4b cd 3e a3 06 54 3f 54 72 cf 3e
       0.39426407 0.4009631 0.82822627 0.40516913
0000d0 68 dd bb be 76 aa ad bd 36 b6 a6 be b6 9f 61 bf
       -0.36692357 -0.084797785 -0.3256089 -0.88134325
0000e0 ff 1d b5 bd 5d 2f 13 3f 59 2d fa bf 82 c0 55 3e
       -0.08843612 0.57494146 -1.9545089 0.20874217
0000f0 1c ca 84 bd fb 29 68 3d 57 52 27 bd 29 7d 00 be
       -0.06483862 0.05668066 -0.04085001 -0.12547745
000100 bc 69 1a 3d ba 72 36 3d 2d 76 35 3c 7e 73 b2 3d
       0.037698492 0.044543006 0.011075539 0.08713435
000110 b4 ec 31 3d 10 74 d4 3d d9 24 02 be 60 fd 6b 3a
       0.04343863 0.103737 -0.12709369 0.00090022944
000120 2a 82 8a 3c 59 76 84 3d b5 06 a4 bd dc 85 96 bc
       0.01690777 0.064678855 -0.08009092 -0.018374376
000130 18 16 a6 bd 70 5a c1 3d 6c d8 fb bc aa 9b 0b 3d
       -0.08109683 0.09441078 -0.030742846 0.034084
000140 a3 06 cf bd ae 4f 9e 3d d8 62 e9 3d 44 40 f4 bd
       -0.10108688 0.077300414 0.11395806 -0.1192632
000150 8a 08 22 bd 91 12 52 bc a8 67 13 3d 60 f9 22 3d
       -0.039558925 -0.012821809 0.035987526 0.039788604
000160 5b 12 af 3d dc 5b 70 bd 3d e0 d2 3d 14 21 d8 bd
       0.08548423 -0.058681354 0.10296676 -0.10553184
000170 1b 13 86 bd 20 77 df 3d c3 f2 b8 bd fb be a4 3c
       -0.06546613 0.10911393 -0.09030678 0.020110598
000180 87 d3 4b bd 3f fd 0f bd 06 4c b5 bb cf 20 fa 3c
       -0.049762275 -0.035153624 -0.0055327443 0.030533222
000190 e7 3f e6 bc cb 6d 24 3d ce f8 95 3d 9b 0a da 3d
       -0.028106643 0.04014377 0.07322846 0.10646554
0001a0 6c 4e 65 3d 39 30 26 bd f5 37 37 3c cc 82 bd 3d
       0.055982992 -0.040573332 0.011182775 0.09253463
0001b0 5f f4 13 bd 05 a7 6a bd c4 b8 01 bb 6d cb c7 3c
       -0.036121722 -0.05728819 -0.0019793967 0.024388993
0001c0 32 5f dd 3d 13 3a 52 bc a7 0c 39 3d 13 81 92 3d
       0.10809173 -0.012831229 0.04517808 0.07153525
0001d0 06 ec 53 3d 4b 18 e6 bd 1f 6c 48 bd f9 cc 6d 3d
       0.05173876 -0.11235102 -0.048931237 0.058056805
0001e0 6f e0 03 be 27 f2 5e 3d 8b 47 a1 3d 6b 05 86 3d
       -0.12878583 0.054430153 0.07874974 0.06544002
0001f0 1c 30 f3 3c f6 fc 01 3e da 2f 8f bc 58 8c bc 3d
       0.029686026 0.12694153 -0.017478872 0.09206456
000200 a9 ca db 3d 20 56 c8 3d 8d 34 d7 3d 0c 2f cf bd
       0.10732014 0.09782052 0.1050807 -0.10116395
000210 46 26 91 bd c2 e0 f7 3d a7 bc 03 3e 7d f0 a9 bd
       -0.07087378 0.12103416 0.12864934 -0.082978226
000220 c1 c9 ff 3d da cd 58 3c 1d 38 a2 3d 03 28 92 3d
       0.124896534 0.013232673 0.07920859 0.07136538
000230 81 ea 20 bd 39 b5 9e 3f aa 00 88 3d 1f 73 d2 3d
       -0.03928614 1.2399055 0.06640752 0.10275864
000240 a5 83 28 bf 2b 22 1f bf 4c 14 6e bf bf e9 b1 3d
       -0.65825874 -0.6216151 -0.9299972 0.08687162
000250 5d 48 12 c0 ed ea ed be ba 00 82 be 32 bf da 3e
       -2.2856667 -0.46468297 -0.2539118 0.42723995
000260 24 81 18 3e 87 b0 9a 3f 4b cc bd 3f 47 94 21 bf
       0.14893013 1.2085122 1.482797 -0.6311688
000270 5c f2 12 bf 5a 9c 1c c0 35 40 05 be 9f 10 24 be
       -0.5740106 -2.447043 -0.13012774 -0.16021965
000280 8b b6 19 bf 79 a4 57 3f b1 d1 cd be f9 34 92 3e
       -0.60044163 0.8423534 -0.40199044 0.2855604
000290 4d f4 a4 be 32 f9 36 bf 73 67 31 3f bf db 28 3d
       -0.32217637 -0.7147399 0.69298476 0.04122519
0002a0 5b be fa be 3f c3 10 3f 33 b6 02 be ca 51 da bd
       -0.48973355 0.5654792 -0.12764816 -0.10660131
0002b0 45 58 5d 3f 76 80 16 be ac 34 4e 3e 5c 29 dc 3f
       0.86462814 -0.14697441 0.2013728 1.7200122
0002c0 46 42 31 bd 40 00 29 3f 6c df 2b bf 86 a3 54 be
       -0.043276094 0.66016006 -0.6713779 -0.20765504

resblock1.conv1.bias f4 [3]
000000 33 1d c1 3d 95 b8 03 be b6 9f 9d bd
       0.094293974 -0.12863381 -0.07696478

resblock1.conv2.weight f4 [1, 3, 3]
000000 d0 68 bc bf 46 74 7a c0 06 b6 f0 be 4a 95 95 3e
       -1.4719486 -3.9133468 -0.47013873 0.2921546
000010 4b 25 fd 3d 1b 2c a4 3e cf e8 b6 3e 3a fa a0 3f
       0.12360629 0.320649 0.35724494 1.2576363
000020 fd 17 30 bf
       -0.68786603

resblock1.conv3.weight f4 [3, 20, 3]
000000 14 6f 08 3b 82 04 f7 bd 24 ec 31 3d 79 cd 9c 3c
       0.002081816 -0.12061407 0.043438092 0.019140946
000010 80 33 74 bd e3 d4 b9 bc 42 d4 bb bd 5e 09 78 3d
       -0.059619427 -0.02268452 -0.09171344 0.06055581
000020 2d 1e 38 3d 7a 47 aa bd f0 a6 da 3c d4 ba d1 3d
       0.044950653 -0.08314414 0.02669093 0.10240713
000030 47 9a 54 3d a0 46 83 bd 6c d7 c3 bd eb 77 f4 bd
       0.051904943 -0.06409955 -0.09562573 -0.11936935
000040 7c 5e 35 3c 35 8e a1 bd 45 60 2f bc ad 24 75 bd
       0.01106989 -0.07888452 -0.010704105 -0.05984943
000050 41 ea b9 bc 55 fe 12 3f 85 de 9f 3f 38 e0 0c 3f
       -0.022694709 0.5741933 1.2489783 0.5502963
000060 e8 64 5c bf f2 1f c1 bf b0 df b3 be 56 48 7e bf
       -0.8609147 -1.5087874 -0.35131598 -0.99329126
000070 6f 58 14 be a1 86 e0 3e 78 30 9a 3f 34 73 b2 3f
       -0.1448686 0.43852714 1.2046041 1.3941407
000080 65 71 ab be 68 0a 25 bf 47 06 e3 bc 6a 0e a6 bf
       -0.3348495 -0.64469004 -0.027712954 -1.2973149
000090 42 e0 d7 bd 36 64 7c 3f 53 6f 8d be a5 72 2c bf
       -0.10540821 0.9859041 -0.27623996 -0.67362434
0000a0 36 02 7e 3e 1d 11 8b be b4 33 58 bf a7 37 b4 bf
       0.24805531 -0.27161494 -0.8445389 -1.4079484
0000b0 83 72 5c 3e 18 8e 8c 3f 5d 02 90 3f 86 1f 83 bf
       0.21528058 1.0980864 1.1250721 -1.0243995
0000c0 03 4c 15 3f dd 7f c3 bf 4f 45 06 c0 4d 8e 2b 3d
       0.5831911 -1.5273396 -2.0979803 0.041883755
0000d0 13 df 64 3f 33 8a c1 3d d5 bc 40 bf 41 a4 79 3f
       0.89402884 0.094501875 -0.75288135 0.97516257
0000e0 e8 4c c6 3f 16 35 0c bf ec e1 58 3f 7d fb 3d be
       1.549222 -0.547685 0.8471973 -0.18552966
0000f0 28 1a 1d 3d 31 ad a6 3d 22 64 eb bd e8 98 fd 3d
       0.038355023 0.081385024 -0.11493708 0.1238268
000100 f9 19 e3 bd f5 5a ea bd 3e 98 c1 3a a0 fc 37 bd
       -0.11088938 -0.1144313 0.0014770103 -0.044918656
000110 1a e3 88 bd ae 69 75 bd e9 1d 3e 3d e6 40 9a bd
       -0.06683941 -0.059915237 0.046415243 -0.0753191
000120 eb 18 73 3d cc c9 db bb ea 90 b5 3d f3 2b a7 3a
       0.059349936 -0.0067074057 0.08865531 0.0012754187
000130 e8 f0 1b 3d 56 8b cd 3d 3f 60 6b 3d 2b c6 9a 3d
       0.038071543 0.10036342 0.057464834 0.07557329
000140 62 8c b9 bd c5 a7 89 3e 95 4c 60 3c a9 cb fb 3e
       -0.09059979 0.2688581 0.013690134 0.49178818
000150 b8 c6 83 bf c8 a3 c5 3e 3c a8 0c bf 9a 8a 62 bf
       -1.0295019 0.38601518 -0.54944205 -0.8849274
000160 d0 75 f1 bf 97 85 ee 3d 9b 1a bc 3f c5 4a c5 3f
       -1.8864079 0.11646574 1.4695619 1.5413443
000170 be 68 78 bd 88 ea 15 be c3 63 04 40 e4 06 b4 be
       -0.060646765 -0.14640248 2.068589 -0.35161507
000180 2a 73 df 3d 4f 42 aa bf 85 cf c6 be 21 a9 62 3e
       0.10910638 -1.3301486 -0.388302 0.2213483
000190 b4 6c af bf 5d ee 09 bf d7 b9 61 bd f1 79 3e 3f
       -1.3705049 -0.5387934 -0.05510887 0.7440482
0001a0 7b 82 21 bf 41 a8 ee 3e 99 e8 36 3f 28 51 af 3e
       -0.6308972 0.46612743 0.71448666 0.34241605
0001b0 61 5b 74 be d6 60 80 3e cd fe 9a bf 20 fe a3 bd
       -0.23862983 0.2507388 -1.2109009 -0.08007455
0001c0 33 5e d6 3f 24 68 f1 bd 7d a3 aa be c7 a0 cb 3f
       1.6747497 -0.117874414 -0.33327857 1.590844
0001d0 19 73 95 3f 8e fb 30 bf d1 43 43 c0 df 21 0f 3e
       1.167575 -0.6913384 -3.0510142 0.13977765
0001e0 fd 8d 00 3e 82 e6 90 bd 5e d5 02 3e 53 a6 03 be
       0.12554164 -0.07075216 0.12776706 -0.12856416
0001f0 e7 c1 99 3a 79 a2 81 3d af 82 87 3d 39 13 e7 3d
       0.0011730761 0.06329817 0.06616723 0.11282963
000200 b9 0b 23 3c 8b 8e 1a bd fe a5 e0 bd 75 8e 3b 3d
       0.009951525 -0.037733596 -0.109691605 0.045790154
000210 0e 69 c4 3d 21 65 86 3d 5f ab 8e bd 40 f6 ed bd
       0.0959035 0.065622576 -0.0696628 -0.11619234
000220 fb 9a 28 3c 74 02 9a 3b 12 4b ba 3d 8e 2d 44 3c
       0.0102908565 0.0046999995 0.0909635 0.011973752
000230 d8 de de 3d 6e 08 ba 3f b4 4d 43 3e 2e 2c f3 3d
       0.10882348 1.4533823 0.1907261 0.11873661
000240 74 64 d6 be 03 ac 5a bd b7 fc 45 3e 53 cf 77 3f
       -0.41873515 -0.0533867 0.19334684 0.96800727
000250 66 fc a3 bf fc 0b 8f be fa ca 1e bf 65 9f f3 3d
       -1.2811401 -0.2793883 -0.6202847 0.118956365
000260 fd 57 57 bd 10 32 3c 3e 6d 17 6d 3f b1 54 b5 be
       -0.052574147 0.18378472 0.9261387 -0.35416177
000270 ef 0f 47 bf 23 01 03 bf 73 48 dc be db 16 a4 bd
       -0.7775869 -0.5117361 -0.43024024 -0.08012172
000280 2e b5 8a bf aa 36 86 bf 9c 0b 32 bf ef 6c 49 3f
       -1.0836542 -1.0485432 -0.69548965 0.78681844
000290 18 2e fe 3e 96 8d d6 3e 3a 42 2c bf c7 63 6f bf
       0.49644542 0.41904896 -0.67288554 -0.93511623
0002a0 63 c5 be bf 96 01 2a be d0 30 51 be 06 70 d2 be
       -1.4903988 -0.16602167 -0.20428777 -0.41101092
0002b0 2c cf 0e 3f b5 76 5c be af 1b 79 bd 6d 45 91 3f
       0.5578487 -0.21529658 -0.060817417 1.1349312
0002c0 03 26 0e 3e ea 57 a7 3f f5 59 94 be 97 82 93 be
       0.13881688 1.3073704 -0.28974882 -0.2881057

resblock1.conv3.bias f4 [3]
000000 60 c2 82 3c 2e f3 c2 bd 76 9a 49 bd
       0.015961826 -0.09519039 -0.04921957

resblock2.conv1.weight f4 [3, 3, 3]
000000 46 2a 8b 3f e1 55 f9 bf aa 71 b8 bf c2 d9 cf be
       1.0872276 -1.9479333 -1.4409688 -0.40595824
000010 62 b2 b9 3f f6 4b 51 3f 97 6a 74 3e 0f 1c ae 3f
       1.4507563 0.8175653 0.23868786 1.3602313
000020 8f 60 9c 3f b3 cc be be ce 5a 6d 3d e8 f2 11 be
       1.2216967 -0.37265548 0.057947926 -0.14252818
000030 00 6b 17 40 ab 25 87 3f 6a eb 66 3f 80 95 ca 3f
       2.3659058 1.055837 0.90202963 1.5826874
000040 84 0c 2d 3f bd 05 b2 3e a7 38 c2 c0 33 a1 2c c0
       0.6759722 0.34770003 -6.0694156 -2.6973388
000050 fd fd 0a c0 16 47 8d c0 96 69 1c 40 b9 ba c5 3f
       -2.1717522 -4.4149275 2.4439445 1.5447608
000060 a4 1b c2 bf 29 67 b3 3f 22 e4 65 3f
       -1.5164685 1.4015857 0.8980123

resblock2.conv1.bias f4 [3]
000000 ca d9 2a 3c 90 42 8c 3e a6 50 25 bb
       0.0104279015 0.27394533 -0.0025225072

resblock2.conv2.weight f4 [1, 3, 3]
000000 8a 22 b4 3f 74 24 de 3e 00 de 0c bf fc 3e 4c bf
       1.407304 0.43387187 -0.55026245 -0.79783607
000010 eb 4d 8f 3f 43 b4 8c 3e 9f af 03 40 c1 e5 1a 40
       1.1195654 0.2748128 2.057594 2.420273
000020 cc c8 09 3c
       0.00840969

resblock2.conv3.weight f4 [3, 3, 3]
000000 86 6f 0d be 3b 92 b3 bd 0b 95 73 3e 00 e0 c9 3c
       -0.13812074 -0.087681256 0.23787324 0.024642944
000010 33 da 4f be 07 53 a0 be e0 c4 7b 3e 98 91 07 3e
       -0.2029808 -0.31313345 0.2458682 0.13239133
000020 42 7e a3 be 40 ce 85 be 38 bd 91 be 23 66 22 be
       -0.31932265 -0.2613392 -0.28464675 -0.15859275
000030 93 2d 0f be 70 37 8f 3e a6 d6 87 be ab 03 9c bb
       -0.13982229 0.27971983 -0.2653095 -0.0047611794
000040 4b 3d a8 3d 70 02 fe bd b6 91 15 3d eb dc 00 be
       0.08214816 -0.12402809 0.036515914 -0.12584274
000050 a0 7d 3a bd c0 83 aa be af 1b a8 3e 1e 29 48 be
       -0.04552996 -0.33303642 0.3283362 -0.19546935
000060 8e 0d 98 3e f6 93 f6 3d dc 42 87 be
       0.2969784 0.1203994 -0.26418197

resblock2.conv3.bias f4 [3]
000000 63 57 2b be 56 7d 39 bb a6 00 a1 be
       -0.16732554 -0.0028303466 -0.31445807

resblock3.conv1.weight f4 [3, 3, 3]
000000 62 58 4a bf 33 21 cd be b9 77 60 3e 61 9b 42 bf
       -0.7904111 -0.40064391 0.2192067 -0.7601834
000010 62 78 68 bc 9e 2e 38 3f f2 7b 44 bf 55 de 24 be
       -0.014188858 0.7194613 -0.76751626 -0.16100438
000020 82 ee 01 3f b5 12 cc 3e 0d bf b5 3d 2a 1a 2e 3f
       0.5075456 0.39858022 0.08874331 0.68008673
000030 d4 e3 ce be dc c0 30 bf 3b ae 5a 3d 9f 72 38 ba
       -0.40408194 -0.6904428 0.053388815 -0.0007036123
000040 a4 6a d3 bd 35 e5 36 3e 9a 42 65 3f 6d 25 99 be
       -0.103230745 0.17860873 0.8955475 -0.29911366
000050 d6 1c 3b 3f a6 53 4f 3f 13 ef 36 bf 63 3a eb 3e
       0.73090875 0.8098701 -0.7145855 0.45942983
000060 cd df 24 3f f4 88 f9 be de c5 39 3f
       0.6440399 -0.487373 0.72567546

resblock3.conv1.bias f4 [3]
000000 73 b8 e7 be c8 97 4f 3f 91 e9 80 3f
       -0.4525791 0.81090975 1.0071279

resblock3.conv2.weight f4 [1, 3, 3]
000000 ae ce 9c 3f b3 cf d0 bf bb 60 05 40 52 d1 23 3e
       1.2250574 -1.6313385 2.084029 0.15997818
000010 a1 44 38 bf e4 0e 51 be d7 91 c8 3a 71 56 8c bf
       -0.7197972 -0.20415837 0.0015302253 -1.096388
000020 e0 7d ee 3d
       0.116451025

resblock3.conv3.weight f4 [3, 3, 3]
000000 66 df 38 be 80 bc 05 bc 48 66 39 3e 3e a3 05 be
       -0.1805397 -0.008162618 0.18105423 -0.13050553
000010 b6 55 2d be c0 98 28 be f6 46 f5 bd 9b de 45 be
       -0.16927227 -0.1646452 -0.11976425 -0.19323198
000020 ab 7b 90 bc 06 41 c0 bd 48 9e 48 be aa d9 93 be
       -0.017637094 -0.09387402 -0.1959163 -0.28877002
000030 cb 43 5a be ae 2c 15 be a3 f6 41 be ab c2 fd bd
       -0.21314923 -0.14567825 -0.1894174 -0.123906456
000040 10 a2 c9 bd bf c6 9b 3e 9a 12 84 3e e6 c1 ad bd
       -0.09845364 0.3042507 0.25795442 -0.08484249
000050 0a 9f 80 be eb 8a d2 bd 6a 45 91 be 10 2b 70 be
       -0.25121337 -0.10280403 -0.2837327 -0.23453927
000060 46 62 b3 bd 3b 31 ce bd b6 da 65 bd
       -0.087589785 -0.10067984 -0.056116782

resblock3.conv3.bias f4 [3]
000000 de 1c 0e be e8 76 25 3e f6 7a f3 3d
       -0.138782 0.1615864 0.11888687

resblock4.conv1.weight f4 [3, 3, 3]
000000 94 b4 50 3f 6f f3 87 3f 70 12 62 3f d7 7b 5f 3f
       0.8152554 1.0621165 0.88309383 0.8729834
000010 91 04 df 3f db 45 75 3f a2 4a 1d 3f e0 e2 e0 3f
       1.7423269 0.95809716 0.61442006 1.7569237
000020 e0 66 88 3f 03 56 f3 bd dd 90 bd bc b9 f3 0c be
       1.0656395 -0.1188164 -0.023140365 -0.13764848
000030 1a 71 b1 be 1b 7f c1 be 18 57 d1 be 9c c9 fe be
       -0.34656602 -0.37792286 -0.4088676 -0.4976319
000040 17 76 37 bf 47 5a cd be 2b 02 35 3e 49 16 e1 bd
       -0.71664566 -0.4010794 0.17676608 -0.10990579
000050 ce a7 4c 3c 65 3e b4 bd 1a 37 93 bd 70 c3 91 3d
       0.01249118 -0.08800963 -0.07188244 0.07117355
000060 2d a4 e1 bd 20 74 6b be 7c 03 d9 bd
       -0.11017642 -0.22993517 -0.10596368

resblock4.conv1.bias f4 [3]
000000 ad 86 92 3e c1 b4 30 3f 0d a8 03 be
       0.28618374 0.6902581 -0.12857075

resblock4.conv2.weight f4 [1, 3, 3]
000000 5f 76 4b 3f 50 13 c7 3f 87 4e 4e 3f eb 3f fa be
       0.79477495 1.5552769 0.80588573 -0.4887689
000010 09 29 b9 bf 3c 12 31 bf 74 02 82 bd 85 97 91 3d
       -1.4465648 -0.6916845 -0.06348124 0.07108978
000020 fa 50 11 ba
       -0.00055433775

resblock4.conv3.weight f4 [3, 3, 3]
000000 b0 f2 9b be 33 9a 3e be 00 57 7e 3c ab e3 5f be
       -0.30458593 -0.1861351 0.015523672 -0.21864192
000010 c0 82 cf 3c 4b fc 26 3d 78 d8 58 be eb 5f 88 3c
       0.025330901 0.04076795 -0.21176326 0.0166473
000020 fb 5c 0e 3e 78 7b 98 be b6 5d 9f 3d 2b 82 35 3e
       0.13902657 -0.297817 0.07781546 0.17725436
000030 c0 e8 67 3d d6 c7 ba bc 58 cc 24 3e 7b 9b 9d 3e
       0.056618452 -0.022800367 0.16093576 0.30782685
000040 ef 1a 95 be 00 38 fa bc 90 90 60 be fb 3b 09 3e
       -0.2912211 -0.030544281 -0.21930146 0.13401787
000050 ab 12 de 3a f6 6e bd 3d 17 ae a6 3e 1e 67 46 be
       0.0016942819 0.0924968 0.32554695 -0.19375274
000060 26 1d f5 bd 00 ca cf 3b 76 db 43 be
       -0.1196845 0.006341219 -0.19126686

resblock4.conv3.bias f4 [3]
000000 56 6f a0 3b 96 6a 5e 3e 00 8d ef 3c
       0.004896085 0.21720347 0.029242039

fc.weight f4 [2, 3]
000000 fc f2 0f bf 88 ce 28 bf 4d 28 ac bf 83 6c 46 3f
       -0.5623014 -0.6594014 -1.3449799 0.77509326
000010 6a 13 a5 3f 68 78 7a 3f
       1.289655 0.97839975

fc.bias f4 [2]
000000 74 81 4b 40 ba cc 3c c0
       3.1797762 -2.9499955
