datasets/Spirit/model/chronological_teacher.pth (torch, 644963 bytes, 10 tensors)

gru.weight_ih_l0 f4 [384, 30]
0	0xb416472c	-1.3995731e-07
1	0xb416472c	-1.3995731e-07
2	0xb416472c	-1.3995731e-07
3	0xb416472c	-1.3995731e-07
4	0xb416472c	-1.3995731e-07
5	0xb416472c	-1.3995731e-07
6	0xb416472c	-1.3995731e-07
7	0x37f09b7b	2.868263e-05
8	0x37ce12c8	2.456586e-05
9	0xb72af756	-1.0190377e-05
10	0xb6d3e8a1	-6.3153716e-06
11	0xb7e475e6	-2.7234619e-05
12	0xb777375e	-1.4735238e-05
13	0x38ae6acb	8.316858e-05
14	0xb8018b85	-3.0885934e-05
15	0x38e41cab	0.00010877227
16	0xb7ff8171	-3.0458645e-05
17	0x36355961	2.7023127e-06
18	0xb869aa4c	-5.571013e-05
19	0xb7f5ab04	-2.9285911e-05
20	0xb8414fa7	-4.6088968e-05
21	0x382b1634	4.0790255e-05
22	0x381a375f	3.676803e-05
23	0x37c40ddb	2.3371473e-05
24	0x37a41676	1.9560783e-05
25	0x38053ddf	3.1767293e-05
26	0xb7f68d04	-2.939115e-05
27	0xb773487a	-1.4500803e-05
28	0x3898e100	7.289834e-05
29	0xb83c6ec7	-4.4925862e-05
30	0x358b8cf2	1.0397328e-06
31	0x358b8cf2	1.0397328e-06
32	0x358b8cf2	1.0397328e-06
33	0x358b8cf2	1.0397328e-06
34	0x358b8cf2	1.0397328e-06
35	0x358b8cf2	1.0397328e-06
36	0x358b8cf2	1.0397328e-06
37	0xb974b1e0	-0.00023335917
38	0x3854c625	5.0729275e-05
39	0x391f6625	0.00015201473
40	0x3a372e5a	0.0006987803
41	0x3926ae30	0.00015895884
42	0x39b86595	0.000351709
43	0x39495a25	0.00019202435
44	0x39aa0dd3	0.00032435227
45	0x3aace47f	0.0013190656
46	0xb9357d6b	-0.00017308227
47	0xb88feaee	-6.8625304e-05
48	0xba37c854	-0.0007010747
49	0x3980c0e8	0.0002455779
50	0xba6a3d38	-0.0008935514
51	0x38848875	6.3196676e-05
52	0x38a4e9fa	7.863711e-05
53	0x39a20887	0.000309054
54	0x3899ae0b	7.3280265e-05
55	0x39b019b4	0.00033588486
56	0xb91ac87e	-0.00014761274
57	0xb99f3cd2	-0.00030372158
58	0x3a3cfb9d	0.0007209124
59	0xb92a789a	-0.00016257391
60	0x35a19932	1.204002e-06
61	0x35a19932	1.204002e-06
62	0x35a19932	1.204002e-06
63	0x35a19932	1.204002e-06
64	0x35a19932	1.204002e-06
65	0x35a19932	1.204002e-06
66	0x35a19932	1.204002e-06
67	0xb8b88125	-8.797859e-05
68	0x38bf4e0a	9.1221256e-05
69	0x38619c03	5.3789478e-05
70	0x389a5bc1	7.360383e-05
71	0xb8ea2589	-0.00011164981
72	0x38c49952	9.3745664e-05
73	0x38b2e88f	8.531019e-05
74	0x38f9c697	0.000119102355
75	0x39095267	0.00013096035
76	0x38683c0c	5.5369033e-05
77	0x38a23287	7.7341734e-05
78	0xb9341aca	-0.00017176117
79	0xb7c8b8d6	-2.3927929e-05
80	0xb98ba36a	-0.000266339
81	0x38039ad8	3.1377043e-05
82	0xb89ff4de	-7.627321e-05
83	0x38ce30e5	9.831953e-05
84	0xb85e0ecc	-5.2942705e-05
85	0xb7b33310	-2.136224e-05
86	0xb809a1f6	-3.2814183e-05
87	0xb60888aa	-2.0345128e-06
88	0xb4f35477	-4.5323733e-07
89	0xb89c9ac1	-7.467485e-05
90	0x35911a7b	1.0811049e-06
91	0x35911a7b	1.0811049e-06
92	0x35911a7b	1.0811049e-06
93	0x35911a7b	1.0811049e-06
94	0x35911a7b	1.0811049e-06
95	0x35911a7b	1.0811049e-06
96	0x35911a7b	1.0811049e-06
97	0x374ce8f3	1.2213585e-05
98	0x387dd545	6.0518523e-05
99	0xb8fdc0ae	-0.000120998695
100	0x39ee3653	0.00045435372
101	0x38357c78	4.3269683e-05
102	0x393564d2	0.00017299064
103	0xb9542452	-0.00020231426
104	0x382a5624	4.0611383e-05
105	0x3aa474ad	0.0012546979
106	0xb91c9450	-0.0001493257
107	0x3808a7f5	3.258135e-05
108	0xb981ddc0	-0.00024770014
109	0x386d2f68	5.6549354e-05
110	0xba0f03cf	-0.00054555846
111	0x39b77e2c	0.00034998485
112	0x3954fa63	0.00020311172
113	0x3994957d	0.00028340137
114	0x38a8428e	8.023261e-05
115	0x395bdcad	0.00020967676
116	0xb93f6480	-0.00018252619
117	0xb9be3ac9	-0.00036283422
118	0x3a45c63c	0.0007544493
119	0x3923a88c	0.0001560768
120	0x385df205	5.2915904e-05
121	0x385df205	5.2915904e-05
122	0x385df205	5.2915904e-05
123	0x385df205	5.2915904e-05
124	0x385df205	5.2915904e-05
125	0x385df205	5.2915904e-05
126	0x385df205	5.2915904e-05
127	0xb9aa0c82	-0.00032434246
128	0x3b451275	0.0030070816
129	0x3ba724e2	0.0051008323
130	0x3a595b93	0.00082915387
131	0x3b62d937	0.0034614333
132	0x3abca466	0.0014392256
133	0x3c55ba61	0.0130449245
134	0x3c3bff8f	0.011474504
135	0xbc02a039	-0.00797277
136	0x3c39d26e	0.011341674
137	0xba241f02	-0.0006260724
138	0x3b84973e	0.00404635
139	0xbc344aff	-0.011004209
140	0xbb09a3f1	-0.0021002258
141	0x3b1df12c	0.0024100048
142	0xbc2c5874	-0.010519136
143	0x3b7872e8	0.0037910286
144	0xbbecdc2b	-0.0072283945
145	0x3b6faa76	0.0036570108
146	0x3a45f7d4	0.0007551883
147	0x3b8abb18	0.004233729
148	0xb9f0ddeb	-0.0004594171
149	0xbb7848d7	-0.0037885213
150	0x357a3081	9.320284e-07
151	0x357a3081	9.320284e-07
152	0x357a3081	9.320284e-07
153	0x357a3081	9.320284e-07
154	0x357a3081	9.320284e-07
155	0x357a3081	9.320284e-07
156	0x357a3081	9.320284e-07
157	0xb8d6e215	-0.00010246426
158	0xb5d60106	-1.594454e-06
159	0xb7a597e5	-1.9740264e-05
160	0x38261e6d	3.960582e-05
161	0x378c5922	1.6730806e-05
162	0x37d6371a	2.5536447e-05
163	0xb708aca3	-8.146427e-06
164	0x35d1653e	1.5601179e-06
165	0xb8aae6f4	-8.14925e-05
166	0xb718129d	-9.06424e-06
167	0xb7110078	-8.642783e-06
168	0x3832bf20	4.2616506e-05
169	0xb608e29c	-2.0397483e-06
170	0xb882fa0b	-6.245457e-05
171	0xb7d93c35	-2.5896452e-05
172	0xb8866d02	-6.409922e-05
173	0xb70324ab	-7.816746e-06
174	0xb89b91b2	-7.418114e-05
175	0xb7d835d1	-2.5774267e-05
176	0x3895239f	7.1115086e-05
177	0x383b7217	4.469053e-05
178	0xb8886474	-6.503696e-05
179	0x366e01a2	3.5465714e-06
180	0xb76b5e4b	-1.4029046e-05
181	0xb76b5e4b	-1.4029046e-05
182	0xb76b5e4b	-1.4029046e-05
183	0xb76b5e4b	-1.4029046e-05
184	0xb76b5e4b	-1.4029046e-05
185	0xb76b5e4b	-1.4029046e-05
186	0xb76b5e4b	-1.4029046e-05
187	0x3b265d3a	0.0025385157
188	0x3b260bad	0.002533655
189	0xbab78b04	-0.0014003222
190	0xbbc2f9c0	-0.0059501827
191	0x3b966085	0.0045891427
192	0xba01bb3e	-0.0004948861
193	0xba397aca	-0.0007075487
194	0xbb10352f	-0.0022004356
195	0xbb258da7	-0.0025261433
196	0xba88aec4	-0.0010428061
197	0xba86a982	-0.0010273906
198	0x3bc92ce4	0.0061393846
199	0xbc00af98	-0.007854365
200	0x3bcb3b47	0.006202135
201	0x3b88964c	0.0041683074
202	0xbb840a9f	-0.0040295864
203	0xbaceac8f	-0.0015767979
204	0x3b5726a3	0.0032829426
205	0x3c1bbfa6	0.009506142
206	0x3bcc5867	0.0062361243
207	0xba42c9df	-0.0007430594
208	0x3b9cdf22	0.0047873417
209	0xbbd911d9	-0.006624442
210	0xb55cf009	-8.2305684e-07
211	0xb55cf009	-8.2305684e-07
212	0xb55cf009	-8.2305684e-07
213	0xb55cf009	-8.2305684e-07
214	0xb55cf009	-8.2305684e-07
215	0xb55cf009	-8.2305684e-07
216	0xb55cf009	-8.2305684e-07
217	0xb9170dff	-0.00014405696
218	0x3828effa	4.0277817e-05
219	0xb82ca533	-4.116185e-05
220	0x390d5607	0.00013478856
221	0xb7e96edc	-2.7827387e-05
222	0x3839013b	4.4108583e-05
223	0x38a23877	7.735279e-05
224	0x386c4383	5.632966e-05
225	0x38e7b328	0.00011048309
226	0xb7db6afd	-2.6156655e-05
227	0x3809861b	3.278824e-05
228	0xb8362f38	-4.3436157e-05
229	0xb6d6acf9	-6.3978337e-06
230	0xb93644a3	-0.00017382442
231	0x38acfc71	8.24862e-05
232	0xb7fa2a4f	-2.9822024e-05
233	0x37f1a7a2	2.8807499e-05
234	0xb84eeb52	-4.9333386e-05
235	0x382cfd16	4.12437e-05
236	0x379a39db	1.8385172e-05
237	0x37c75f9a	2.3767167e-05
238	0x390a6c19	0.00013200975
239	0xb7aacf31	-2.036206e-05
240	0x388affdf	6.6280125e-05
241	0x388affdf	6.6280125e-05
242	0x388affdf	6.6280125e-05
243	0x388affdf	6.6280125e-05
244	0x388affdf	6.6280125e-05
245	0x388affdf	6.6280125e-05
246	0x388affdf	6.6280125e-05
247	0x3c6bed88	0.014399894
248	0xbc304377	-0.010758272
249	0x3bafeeec	0.005369058
250	0xbbf9ec65	-0.0076270574
251	0xbc460b38	-0.012087636
252	0x3a6ae535	0.0008960546
253	0xbb8ab498	-0.0042329542
254	0xbb9ed747	-0.0048474404
255	0xbc53471c	-0.012895372

gru.weight_hh_l0 f4 [384, 128]
0	0xb63d7cdc	-2.8235872e-06
1	0x377524c2	1.4611696e-05
2	0xb59bf8c0	-1.1620796e-06
3	0xb7382f70	-1.09782995e-05
4	0xb7b2f629	-2.133388e-05
5	0x36baed42	5.5708524e-06
6	0x3808b32a	3.2591786e-05
7	0x3715374c	8.893967e-06
8	0xb878eec9	-5.9350194e-05
9	0xb770eb2c	-1.435987e-05
10	0xb70de4be	-8.457513e-06
11	0x376f2c1d	1.4255781e-05
12	0x36a708c3	4.978008e-06
13	0xb7416703	-1.1527681e-05
14	0xb49da45f	-2.9363125e-07
15	0xb7050c75	-7.930318e-06
16	0xb6cfb275	-6.189856e-06
17	0x352b1e4d	6.374656e-07
18	0xb6b7ce04	-5.4778084e-06
19	0xb846e0a1	-4.741608e-05
20	0x3668c612	3.4685986e-06
21	0x36fec54c	7.5927583e-06
22	0xb766f80f	-1.3766824e-05
23	0x36b1eb55	5.3024073e-06
24	0xb73518ba	-1.0794198e-05
25	0xb6a54815	-4.9257746e-06
26	0x38384e7a	4.3942106e-05
27	0x368d645b	4.2138104e-06
28	0xb4eec473	-4.447389e-07
29	0x379fedc7	1.9065e-05
30	0xb80dc7e2	-3.3803175e-05
31	0x36caf37e	6.0484153e-06
32	0x3729d439	1.0122597e-05
33	0xb6614767	-3.3569174e-06
34	0x363bef50	2.800447e-06
35	0x36c1d9a8	5.7771867e-06
36	0x36ae7dac	5.200234e-06
37	0xb69b715a	-4.632556e-06
38	0xb5edf8a2	-1.7730238e-06
39	0xb672e731	-3.6195381e-06
40	0xb66b2333	-3.5038217e-06
41	0x353fc74c	7.144306e-07
42	0x369927e1	4.564398e-06
43	0xb7317edf	-1.0579562e-05
44	0x36b18f2b	5.291678e-06
45	0xb6e10cea	-6.707026e-06
46	0xb6af68a6	-5.227589e-06
47	0xb793395c	-1.7550476e-05
48	0x36603e78	3.3414963e-06
49	0xb8371f7f	-4.3659933e-05
50	0x38855244	6.3572574e-05
51	0x375da26d	1.3210444e-05
52	0x38165528	3.5842095e-05
53	0xb6c08e9b	-5.7386474e-06
54	0x3705db52	7.978482e-06
55	0xb741140f	-1.1508367e-05
56	0x362bd888	2.5607023e-06
57	0xb7c74118	-2.375296e-05
58	0xb8286b94	-4.015451e-05
59	0x36e59a9b	6.8427303e-06
60	0xb5db1893	-1.6323924e-06
61	0xb5f80256	-1.847812e-06
62	0xb54978ab	-7.505393e-07
63	0x35670620	8.606312e-07
64	0x37f2e3f4	2.8954797e-05
65	0x3661efad	3.3667122e-06
66	0x37d23224	2.50573e-05
67	0x36853902	3.9703455e-06
68	0xb72f9dc2	-1.0467544e-05
69	0x3746e05a	1.1853956e-05
70	0x35b766dd	1.36645e-06
71	0x35ad88e5	1.2929346e-06
72	0x367139b2	3.5945382e-06
73	0x35996c15	1.1430844e-06
74	0x36b67b58	5.438382e-06
75	0xb734c905	-1.077564e-05
76	0xb6c72475	-5.9349063e-06
77	0x36d03988	6.2055806e-06
78	0x3573b45f	9.078703e-07
79	0xb5a22389	-1.2080283e-06
80	0xb6901ac1	-4.294649e-06
81	0xb6fc6434	-7.5218504e-06
82	0xb67a2741	-3.7275752e-06
83	0xb7a27301	-1.9365458e-05
84	0xb8289252	-4.0190593e-05
85	0x36c88fcb	5.977204e-06
86	0xb735835d	-1.0819026e-05
87	0x368cae1b	4.1925937e-06
88	0x3447598d	1.8565898e-07
89	0xb526f65b	-6.2198313e-07
90	0x37133dd1	8.7762755e-06
91	0x341757dc	1.4094934e-07
92	0xb5ef12d9	-1.7812373e-06
93	0xb6edaeba	-7.0834913e-06
94	0x36887bb0	4.067515e-06
95	0x37b73789	2.184116e-05
96	0xb70b2225	-8.2929955e-06
97	0xb76b9c16	-1.4043433e-05
98	0xb68c7780	-4.1862368e-06
99	0x3827e1b5	4.002611e-05
100	0x3883ef51	6.291143e-05
101	0xb42a14f5	-1.5840108e-07
102	0x37164e83	8.958977e-06
103	0xb5a5aa70	-1.2343062e-06
104	0x37482cbf	1.1931347e-05
105	0x3655f4d1	3.1881975e-06
106	0x344430c6	1.8271666e-07
107	0x35108c16	5.384803e-07
108	0x366d4855	3.5357855e-06
109	0x36d16884	6.2408526e-06
110	0x3602c49f	1.9485958e-06
111	0x36553e59	3.1775764e-06
112	0xb52a0865	-6.334215e-07
113	0x36c7ab20	5.9505837e-06
114	0xb4d120ef	-3.8953246e-07
115	0x35900566	1.0730407e-06
116	0xb77e0811	-1.5141458e-05
117	0x37374b81	1.092523e-05
118	0xb81fa1a3	-3.805909e-05
119	0xb66e20e1	-3.5483902e-06
120	0x37570e47	1.2818323e-05
121	0xb87f44be	-6.086076e-05
122	0xb63f3c7b	-2.8496422e-06
123	0x37e508b9	2.730299e-05
124	0xb67bfd51	-3.7549364e-06
125	0xb80ad56b	-3.3100525e-05
126	0x368e8dfe	4.24846e-06
127	0x37825592	1.5537054e-05
128	0xb956219c	-0.00020421151
129	0x3a25ceca	0.00063250645
130	0xb919f78e	-0.00014683438
131	0xb9edcff0	-0.00045359088
132	0xb94c5e3b	-0.0001949006
133	0x39384212	0.0001757222
134	0x39782a47	0.00023666873
135	0x39b80a05	0.0003510268
136	0xb8c71819	-9.493548e-05
137	0xb82b2d8c	-4.0811996e-05
138	0x3a08d1cf	0.0005219252
139	0x3990c07e	0.00027609238
140	0x399e0709	0.0003014135
141	0xb9fcc556	-0.00048212212
142	0xb999103c	-0.0002919453
143	0xb9a92ab0	-0.00032265997
144	0xb93b921a	-0.00017888137
145	0xb7d62b82	-2.5531048e-05
146	0x38a3e493	7.815021e-05
147	0xb930bd63	-0.0001685522
148	0x38db99ac	0.000104713574
149	0x39af5886	0.00033444556
150	0xb8340a37	-4.2924858e-05
151	0x39ae73b1	0.00033274063
152	0xb8de2e06	-0.000105943574
153	0xb945b20e	-0.00018853715
154	0xb7753705	-1.4615948e-05
155	0x395a287b	0.0002080518
156	0xb885a6b5	-6.372986e-05
157	0x398897c0	0.00026053004
158	0xb9e96180	-0.00044513866
159	0x3996d8d5	0.00028771782
160	0x39d175ad	0.00039951262
161	0xb8f8df8b	-0.000118672
162	0x387da91f	6.0477407e-05
163	0x398f7cc3	0.0002736804
164	0x38c497a3	9.374253e-05
165	0xb947128b	-0.00018985027
166	0xb8b3e357	-8.5777305e-05
167	0xb97b6344	-0.00023974205
168	0xb9322ebc	-0.00016992813
169	0x37865e8c	1.6018072e-05
170	0x392b5f31	0.00016343292
171	0xb9e8db77	-0.00044414002
172	0x396ddfa8	0.000226854
173	0xb9a571da	-0.00031556078
174	0xb93e7012	-0.00018161561
175	0xba3f153c	-0.0007289236
176	0x392371e9	0.00015587326
177	0xba4e5fc7	-0.00078725483
178	0x38c4a6b0	9.377056e-05
179	0x3a317fdc	0.00067710667
180	0x399041a3	0.00027514723
181	0xb9656b07	-0.00021879013
182	0x39f55807	0.00046795627
183	0xb949cf36	-0.00019246046
184	0x38c91475	9.588237e-05
185	0xb989d816	-0.00026291673
186	0xb902b1cb	-0.00012463999
187	0xb8dbfbb4	-0.00010489617
188	0xb8d4d89c	-0.000101492944
189	0xb88075c8	-6.125454e-05
190	0xb7cbf2ec	-2.4312605e-05
191	0x388fd5a6	6.8585665e-05
192	0xba121d71	-0.0005573845
193	0x39424d44	0.00018530065
194	0x3a631aa6	0.0008663334
195	0x39438718	0.00018646976
196	0xb9d10880	-0.0003986992
197	0xb8ee3a54	-0.00011359589
198	0x36d0e041	6.2249896e-06
199	0xb84ca3c7	-4.878992e-05
200	0x38e39aa2	0.00010853006
201	0x373d7982	1.1293569e-05
202	0x395e15ba	0.00021179664
203	0xb925ced8	-0.00015812682
204	0x39263c0b	0.00015853361
205	0x39a8a803	0.00032168636
206	0x389735e2	7.2102775e-05
207	0xb8a325e5	-7.779504e-05
208	0xb8f15a0f	-0.0001150855
209	0xb9aa7343	-0.00032510803
210	0xb9105c11	-0.00013767208
211	0xb92b741f	-0.0001635109
212	0xb915e1f2	-0.00014293919
213	0x394a1211	0.00019270951
214	0xb9e2d2e0	-0.00043263193
215	0x38e82ae8	0.00011070614
216	0x36cfb1bb	6.1897713e-06
217	0xb708a7ed	-8.14533e-06
218	0x3a03c8b6	0.00050271617
219	0xb7f8daed	-2.9665849e-05
220	0xb85a720a	-5.2081457e-05
221	0xb9019360	-0.000123573
222	0x390b28fd	0.00013271342
223	0xba19a076	-0.00058603974
224	0xb9d1d33c	-0.00040020968
225	0xb93d9b07	-0.00018082197
226	0xb96887bc	-0.00022175809
227	0x3a0c4edd	0.0005352328
228	0x3a5fe9a1	0.00085415883
229	0x380e68c7	3.395302e-05
230	0x3941413a	0.00018430213
231	0x383e93f8	4.5437337e-05
232	0xb9a90290	-0.000322361
233	0x3896e116	7.194483e-05
234	0xb8e4a8f5	-0.00010903358
235	0x3810ce51	3.4524423e-05
236	0x39204160	0.00015283143
237	0x399480d3	0.0002832474
238	0x389cafbd	7.4713935e-05
239	0x390be5f4	0.00013341737
240	0xb8e17ece	-0.00010752455
241	0x3984e19b	0.0002534509
242	0x388b6b1c	6.647987e-05
243	0x37aede70	2.0845997e-05
244	0xba1bf47e	-0.0005949213
245	0x39ebf35b	0.00045004007
246	0xb9cec674	-0.0003943924
247	0xb8f0a284	-0.00011474363
248	0x3a04aff9	0.00050616224
249	0xba85488c	-0.0010168715
250	0xb8b8c998	-8.8113535e-05
251	0x3a19f992	0.00058736757
252	0xb914755f	-0.00014158104
253	0xb98f246c	-0.00027302222
254	0x38c1605a	9.220904e-05
255	0x392fb9ee	0.00016758565

gru.bias_ih_l0 f4 [384]
0	0xb9ae77cb	-0.0003327712
1	0xbb941fb4	-0.004520381
2	0xbb8ec0c8	-0.0043564774
3	0xbb04cc5b	-0.0020263407
4	0x3cc1b3c4	0.02364529
5	0xbb0554e9	-0.00203448
6	0x3d8cf5f3	0.068828486
7	0xbb47b7cb	-0.003047454
8	0x3e1f46dd	0.15554376
9	0x3cba7425	0.02276046
10	0x3e4c442c	0.1994788
11	0x3d5da344	0.05411078
12	0xba63b7bc	-0.00086867413
13	0xbba5d6b8	-0.005060997
14	0x3e409192	0.1880553
15	0xbb061021	-0.002045639
16	0xbaa578e2	-0.0012624527
17	0xba785c72	-0.00094742246
18	0x3c19690f	0.009363427
19	0x3d287376	0.041125737
20	0xba909210	-0.0011029858
21	0xbaf863cd	-0.0018950641
22	0x3e112095	0.14172585
23	0xb9aa5c11	-0.00032493522
24	0xbbbf24a4	-0.0058332253
25	0xbae1260f	-0.001717748
26	0xbc9ceaf5	-0.019155005
27	0xba5254c8	-0.00080234976
28	0xba7c35de	-0.0009621064
29	0x3c16a7ae	0.009195251
30	0x3eca9a52	0.39570862
31	0xbb06b542	-0.0020554815
32	0xbb2dbf0d	-0.002651158
33	0xba7add9c	-0.00095697655
34	0xb9d84882	-0.00041252753
35	0xbb1f206f	-0.0024280807
36	0xb9e8e5f2	-0.0004442181
37	0xb9e344c9	-0.00043348063
38	0xba12e031	-0.0005602865
39	0x3df34b9a	0.11879654
40	0xba2e1b39	-0.000664163
41	0xbaa67751	-0.0012700354
42	0xbb2d9c4b	-0.0026490863
43	0xbad83bea	-0.0016497348
44	0xbabe2a4a	-0.0014508453
45	0xbb3d3368	-0.0028869752
46	0xbb3f1e58	-0.0029162373
47	0xbbfa39fd	-0.0076363073
48	0xb9dd9403	-0.00042262682
49	0x3c25471d	0.0100877555
50	0x3deb193a	0.11479421
51	0xbb57c402	-0.0032923226
52	0x3e9d1355	0.30678812
53	0xbb6151b7	-0.0034380981
54	0xbac6c9ab	-0.0015166303
55	0x39c5640b	0.00037649306
56	0xb9f6df8b	-0.0004708733
57	0x3c7b12ab	0.015324275
58	0x3d0e3993	0.034722876
59	0x3d44e8db	0.04807363
60	0xbaec72ed	-0.0018039622
61	0xb9625778	-0.00021585624
62	0xbb313658	-0.0027040448
63	0xba4c4398	-0.00077920547
64	0x3f08b47f	0.53400415
65	0xba0afc8d	-0.0005301915
66	0xbbca6e4f	-0.0061777006
67	0xba9e8877	-0.0012095113
68	0xbb835748	-0.0040082075
69	0x3dbe2b70	0.09285629
70	0xb9a71935	-0.00031871503
71	0xb9347631	-0.00017210167
72	0xbad67088	-0.0016360441
73	0xbab9d018	-0.0014176397
74	0xbb0f2fa4	-0.0021848464
75	0xbbba66c2	-0.005688519
76	0x3ca33057	0.019920511
77	0xbadf68f3	-0.0017044827
78	0xbae7bb74	-0.0017679767
79	0xba9c09be	-0.0011904759
80	0xba9b1a7f	-0.0011833458
81	0xbb0827f0	-0.0020775758
82	0xba050a68	-0.0005075098
83	0x3dab4d5e	0.08364366
84	0x3e2da6b4	0.16958123
85	0xbb59792c	-0.0033183796
86	0xbb57b952	-0.0032916856
87	0xbafeb663	-0.0019433018
88	0xba38b06a	-0.0007045331
89	0xbad2716e	-0.0016055533
90	0xba9bd248	-0.001188823
91	0xb9d85ac6	-0.00041266362
92	0xba2a3dbe	-0.00064941857
93	0xbb74cfa0	-0.00373552
94	0xbb3b0e27	-0.002854237
95	0x3dd7e946	0.1054254
96	0xba8f942d	-0.0010954194
97	0xbb9480fc	-0.0045319777
98	0xba9da3e9	-0.0012026998
99	0x3f0c5ccf	0.54829115
100	0x3d171126	0.03688159
101	0xba2aa00e	-0.00065088354
102	0xba552734	-0.0008131147
103	0xba1cceaa	-0.0005981723
104	0x3ec03b0a	0.37545043
105	0xba1eed2f	-0.0006062565
106	0x3e6e3185	0.23261078
107	0xba9e6ec0	-0.001208745
108	0xba2f31d2	-0.0006683144
109	0xbae901f1	-0.0017777068
110	0xbac5e692	-0.0015098623
111	0xba5aeba9	-0.0008351156
112	0xbaf93f19	-0.0019015997
113	0xba788477	-0.0009480188
114	0xb9d79c95	-0.00041124658
115	0xba509724	-0.0007957092
116	0xbb76431c	-0.0037576621
117	0xba95a994	-0.0011418336
118	0x3e2dd871	0.16977097
119	0xb9e2210e	-0.00043130707
120	0x3e8fac49	0.2806113
121	0x3d153f3e	0.036437266
122	0xbabc11d7	-0.0014348578
123	0xbb820fac	-0.0039691534
124	0xb964f1d8	-0.00021833868
125	0x3e76cc00	0.24101257
126	0xbb91248c	-0.0044294056
127	0x3c812442	0.01576436
128	0x381043ca	3.439541e-05
129	0x3b843b23	0.00403537
130	0x3b16e739	0.0023026003
131	0x39f5bc71	0.0004687044
132	0xbeaec3be	-0.34133714
133	0x3a11a851	0.0005556392
134	0xbeb547fa	-0.35406476
135	0x3a96c0f5	0.0011501597
136	0xbf19fcf4	-0.601516
137	0xbdd2f0bf	-0.10299825
138	0xbebbfaea	-0.3671487
139	0xbef55f20	-0.47924137
140	0x39cd1ff5	0.00039124457
141	0x3b540368	0.0032350663
142	0xbbb50f53	-0.0055255084
143	0x3a96ce13	0.0011505507
144	0x3a939e50	0.0011262391
145	0xb8a9bc94	-8.0936734e-05
146	0xbdc1d9cd	-0.0946537
147	0xbf05fba7	-0.52337116
148	0x38919716	6.942281e-05
149	0x3a51eaf4	0.0008007728
150	0xbf0d285c	-0.5513971
151	0x38fd867b	0.00012089029
152	0x3b894756	0.004189412
153	0x3a127c5a	0.0005587988
154	0xbecc46fe	-0.39897913
155	0x3a216fba	0.0006158311
156	0x3a9b2c4a	0.0011838761
157	0xbd0cb89d	-0.03435575
158	0xbf36def5	-0.71433955
159	0x39ef07dd	0.0004559149
160	0x3ac4fb49	0.0015028502
161	0x38e8f750	0.000111086876
162	0x39168136	0.0001435325
163	0x3ad3c17c	0.0016155685
164	0x379c50fd	1.8634362e-05
165	0x3a6eba5a	0.0009106748
166	0x3a4d4b7e	0.00078313786
167	0xbf517c91	-0.818307
168	0x3a6e8ae0	0.00090996735
169	0x3a91f037	0.0011134212
170	0xba11cc88	-0.00055617886
171	0x389dfa3a	7.532952e-05
172	0x3a3e1d81	0.0007252321
173	0x3b0a4dce	0.0021103504
174	0x3a4e9ec3	0.00078819337
175	0x3af1bd9e	0.0018443351
176	0x39d94c80	0.00041446462
177	0xbe11f81f	-0.14254807
178	0xbf00e45a	-0.50348437
179	0x3ad5b859	0.001630555
180	0xbf3143c4	-0.6924403
181	0xb959549f	-0.00020726256
182	0x39f0f5f5	0.0004595962
183	0xbc339b7e	-0.010962365
184	0x39bf1995	0.0003644942
185	0xbd8efbf2	-0.069816485
186	0xbe4613c0	-0.19343472
187	0xbe065070	-0.13116622
188	0xb9997a59	-0.0002927359
189	0x39b956a8	0.00035350514
190	0x3ab1594c	0.0013530641
191	0x3a1d9f88	0.0006012847
192	0xbf56d5a6	-0.8391975
193	0x3a182067	0.0005803168
194	0xba376295	-0.0006995586
195	0x3a767fd6	0.00094032043
196	0x3a811d66	0.000985068
197	0xbdd95912	-0.10612692
198	0x3854111c	5.0560673e-05
199	0xb902f28e	-0.00012488125
200	0x3ab5e52e	0.0013877505
201	0x3a29d162	0.0006478039
202	0x3aa5e3d3	0.0012656398
203	0x3b879fda	0.004138929
204	0xbd919f45	-0.071104564
205	0x3a173967	0.00057687465
206	0x3b05f311	0.0020439068
207	0x3a7b3951	0.0009583431
208	0x36c3c8bc	5.8348214e-06
209	0x3a9b37ec	0.0011842228
210	0xb9850b7e	-0.000253763
211	0xbec382c9	-0.3818572
212	0xbf28f0fb	-0.65992707
213	0xba0318ac	-0.000500093
214	0xb91788e8	-0.00014451484
215	0x393b9634	0.00017889665
216	0x3a109881	0.0005515889
217	0x3ab994b7	0.00141587
218	0x3a8219e6	0.0009925931
219	0xb8985e8c	-7.2655355e-05
220	0x3a77ba2f	0.0009450046
221	0x3b04fee0	0.002029352
222	0x39205e09	0.0001529382
223	0xbea69683	-0.32536706
224	0x3a0cf421	0.0005376954
225	0xbd6ad7cd	-0.05733471
226	0x3aa7d38f	0.0012804138
227	0xbf6e92cb	-0.9319274
228	0xbe5e39c8	-0.2170173
229	0x3a6593fd	0.0008757709
230	0xbc0701b0	-0.008240148
231	0x3a07d3ef	0.0005181422
232	0xbf4b4a95	-0.7941068
233	0x3a09beb2	0.0005254551
234	0xbf310d37	-0.6916079
235	0x3a92d50c	0.0011202409
236	0x39653e73	0.00021862406
237	0x3ac23f55	0.00148199
238	0x3ab5f4fb	0.0013882214
239	0x3a79c25f	0.000952756
240	0x3a962971	0.0011456442
241	0x3a007f7f	0.0004901811
242	0x386fe56c	5.7195706e-05
243	0x3a427284	0.0007417577
244	0x3ae3ea57	0.0017388564
245	0x3a8b1047	0.001060971
246	0xbf010042	-0.5039102
247	0x39d5669f	0.00040702985
248	0xbf51c51f	-0.8194141
249	0xbe14e2ac	-0.14539593
250	0x3a3be6ba	0.0007167865
251	0xbb0466c2	-0.002020285
252	0x3a133176	0.0005614975
253	0xbf1ef1e8	-0.6208787
254	0x3b7c7c42	0.0038526212
255	0xbe9949f6	-0.2993924

gru.bias_hh_l0 f4 [384]
0	0xb9ae77cb	-0.0003327712
1	0xbb941fb4	-0.004520381
2	0xbb8ec0c8	-0.0043564774
3	0xbb04cc5b	-0.0020263407
4	0x3cc1b3b5	0.023645261
5	0xbb0554e9	-0.00203448
6	0x3d8cf5ec	0.068828434
7	0xbb47b7cb	-0.003047454
8	0x3e1f4846	0.15554914
9	0x3cba7432	0.022760484
10	0x3e4dac59	0.20085277
11	0x3d5da344	0.05411078
12	0xba63b7bc	-0.00086867413
13	0xbba5d6b8	-0.005060997
14	0x3e43ad63	0.1910911
15	0xbb061021	-0.002045639
16	0xbaa578e2	-0.0012624527
17	0xba785c72	-0.00094742246
18	0x3c19690f	0.009363427
19	0x3d2874a7	0.041126873
20	0xba909210	-0.0011029858
21	0xbaf863cd	-0.0018950641
22	0x3e112b07	0.1417657
23	0xb9aa5c11	-0.00032493522
24	0xbbbf24a4	-0.0058332253
25	0xbae1260f	-0.001717748
26	0xbc9d0c80	-0.019171
27	0xba5254c8	-0.00080234976
28	0xba7c35de	-0.0009621064
29	0x3c16a7ae	0.009195251
30	0x3eca9a45	0.39570823
31	0xbb06b542	-0.0020554815
32	0xbb2dbf0d	-0.002651158
33	0xba7add9c	-0.00095697655
34	0xb9d84882	-0.00041252753
35	0xbb1f206f	-0.0024280807
36	0xb9e8e5f2	-0.0004442181
37	0xb9e344c9	-0.00043348063
38	0xba12e031	-0.0005602865
39	0x3df2572e	0.118330345
40	0xba2e1b39	-0.000664163
41	0xbaa67751	-0.0012700354
42	0xbb2d9c4b	-0.0026490863
43	0xbad83bea	-0.0016497348
44	0xbabe2a4a	-0.0014508453
45	0xbb3d3368	-0.0028869752
46	0xbb3f1e58	-0.0029162373
47	0xbbfa39fd	-0.0076363073
48	0xb9dd9403	-0.00042262682
49	0x3c25471d	0.0100877555
50	0x3deb1938	0.114794195
51	0xbb57c402	-0.0032923226
52	0x3e9d197e	0.30683511
53	0xbb6151b7	-0.0034380981
54	0xbac6c9ab	-0.0015166303
55	0x39c5640b	0.00037649306
56	0xb9f6df8b	-0.0004708733
57	0x3c7af595	0.01531734
58	0x3d0e3993	0.034722876
59	0x3d44e8fb	0.04807375
60	0xbaec72ed	-0.0018039622
61	0xb9625778	-0.00021585624
62	0xbb313658	-0.0027040448
63	0xba4c4398	-0.00077920547
64	0x3f08b30c	0.53398204
65	0xba0afc8d	-0.0005301915
66	0xbbca6e4f	-0.0061777006
67	0xba9e8877	-0.0012095113
68	0xbb835748	-0.0040082075
69	0x3dbe2b5f	0.09285616
70	0xb9a71935	-0.00031871503
71	0xb9347631	-0.00017210167
72	0xbad67088	-0.0016360441
73	0xbab9d018	-0.0014176397
74	0xbb0f2fa4	-0.0021848464
75	0xbbba66c2	-0.005688519
76	0x3ca33057	0.019920511
77	0xbadf68f3	-0.0017044827
78	0xbae7bb74	-0.0017679767
79	0xba9c09be	-0.0011904759
80	0xba9b1a7f	-0.0011833458
81	0xbb0827f0	-0.0020775758
82	0xba050a68	-0.0005075098
83	0x3dab4d5e	0.08364366
84	0x3e2da6c3	0.16958146
85	0xbb59792c	-0.0033183796
86	0xbb57b952	-0.0032916856
87	0xbafeb663	-0.0019433018
88	0xba38b06a	-0.0007045331
89	0xbad2716e	-0.0016055533
90	0xba9bd248	-0.001188823
91	0xb9d85ac6	-0.00041266362
92	0xba2a3dbe	-0.00064941857
93	0xbb74cfa0	-0.00373552
94	0xbb3b0e27	-0.002854237
95	0x3dd30038	0.10302776
96	0xba8f942d	-0.0010954194
97	0xbb9480fc	-0.0045319777
98	0xba9da3e9	-0.0012026998
99	0x3f0c5ec6	0.5483211
100	0x3d171126	0.03688159
101	0xba2aa00e	-0.00065088354
102	0xba552734	-0.0008131147
103	0xba1cceaa	-0.0005981723
104	0x3ebfe073	0.3747593
105	0xba1eed2f	-0.0006062565
106	0x3e6ea535	0.23305209
107	0xba9e6ec0	-0.001208745
108	0xba2f31d2	-0.0006683144
109	0xbae901f1	-0.0017777068
110	0xbac5e692	-0.0015098623
111	0xba5aeba9	-0.0008351156
112	0xbaf93f19	-0.0019015997
113	0xba788477	-0.0009480188
114	0xb9d79c95	-0.00041124658
115	0xba509724	-0.0007957092
116	0xbb76431c	-0.0037576621
117	0xba95a994	-0.0011418336
118	0x3e2dd993	0.16977529
119	0xb9e2210e	-0.00043130707
120	0x3e8faba2	0.28060633
121	0x3d153f3e	0.036437266
122	0xbabc11d7	-0.0014348578
123	0xbb820fac	-0.0039691534
124	0xb964f1d8	-0.00021833868
125	0x3e76a1fe	0.24085233
126	0xbb91248c	-0.0044294056
127	0x3c81244a	0.015764374
128	0x381043ca	3.439541e-05
129	0x3b843b23	0.00403537
130	0x3b16e739	0.0023026003
131	0x39f5bc71	0.0004687044
132	0xbeaec3bc	-0.34133708
133	0x3a11a851	0.0005556392
134	0xbeb54801	-0.35406497
135	0x3a96c0f5	0.0011501597
136	0xbf19fa79	-0.60147816
137	0xbdd2f0bf	-0.10299825
138	0xbebc184f	-0.36737296
139	0xbef55f26	-0.47924155
140	0x39cd1ff5	0.00039124457
141	0x3b540368	0.0032350663
142	0xbbbffc2d	-0.005858919
143	0x3a96ce13	0.0011505507
144	0x3a939e50	0.0011262391
145	0xb8a9bc94	-8.0936734e-05
146	0xbdc1d9cd	-0.0946537
147	0xbf05fd3c	-0.5233953
148	0x38919716	6.942281e-05
149	0x3a51eaf4	0.0008007728
150	0xbf0d2740	-0.55138016
151	0x38fd867b	0.00012089029
152	0x3b894756	0.004189412
153	0x3a127c5a	0.0005587988
154	0xbecc477e	-0.39898294
155	0x3a216fba	0.0006158311
156	0x3a9b2c4a	0.0011838761
157	0xbd0cb89e	-0.034355752
158	0xbf36def6	-0.7143396
159	0x39ef07dd	0.0004559149
160	0x3ac4fb49	0.0015028502
161	0x38e8f750	0.000111086876
162	0x39168136	0.0001435325
163	0x3ad3c17c	0.0016155685
164	0x379c50fd	1.8634362e-05
165	0x3a6eba5a	0.0009106748
166	0x3a4d4b7e	0.00078313786
167	0xbf517d01	-0.81831366
168	0x3a6e8ae0	0.00090996735
169	0x3a91f037	0.0011134212
170	0xba11cc88	-0.00055617886
171	0x389dfa3a	7.532952e-05
172	0x3a3e1d81	0.0007252321
173	0x3b0a4dce	0.0021103504
174	0x3a4e9ec3	0.00078819337
175	0x3af1bd9e	0.0018443351
176	0x39d94c80	0.00041446462
177	0xbe11f81f	-0.14254807
178	0xbf00e45a	-0.50348437
179	0x3ad5b859	0.001630555
180	0xbf314477	-0.69245094
181	0xb959549f	-0.00020726256
182	0x39f0f5f5	0.0004595962
183	0xbc339b7e	-0.010962365
184	0x39bf1995	0.0003644942
185	0xbd8efbf2	-0.069816485
186	0xbe46138f	-0.19343399
187	0xbe065070	-0.13116622
188	0xb9997a59	-0.0002927359
189	0x39b956a8	0.00035350514
190	0x3ab1594c	0.0013530641
191	0x3a1d9f88	0.0006012847
192	0xbf56d844	-0.83923745
193	0x3a182067	0.0005803168
194	0xba376295	-0.0006995586
195	0x3a767fd6	0.00094032043
196	0x3a811d66	0.000985068
197	0xbdd9590a	-0.10612686
198	0x3854111c	5.0560673e-05
199	0xb902f28e	-0.00012488125
200	0x3ab5e52e	0.0013877505
201	0x3a29d162	0.0006478039
202	0x3aa5e3d3	0.0012656398
203	0x3b879fda	0.004138929
204	0xbd919f45	-0.071104564
205	0x3a173967	0.00057687465
206	0x3b05f311	0.0020439068
207	0x3a7b3951	0.0009583431
208	0x36c3c8bc	5.8348214e-06
209	0x3a9b37ec	0.0011842228
210	0xb9850b7e	-0.000253763
211	0xbec382c9	-0.3818572
212	0xbf28f07c	-0.6599195
213	0xba0318ac	-0.000500093
214	0xb91788e8	-0.00014451484
215	0x393b9634	0.00017889665
216	0x3a109881	0.0005515889
217	0x3ab994b7	0.00141587
218	0x3a8219e6	0.0009925931
219	0xb8985e8c	-7.2655355e-05
220	0x3a77ba2f	0.0009450046
221	0x3b04fee0	0.002029352
222	0x39205e09	0.0001529382
223	0xbea6c917	-0.32575294
224	0x3a0cf421	0.0005376954
225	0xbd6ad7cd	-0.05733471
226	0x3aa7d38f	0.0012804138
227	0xbf6e932b	-0.9319331
228	0xbe5e39c8	-0.2170173
229	0x3a6593fd	0.0008757709
230	0xbc0701b0	-0.008240148
231	0x3a07d3ef	0.0005181422
232	0xbf4b5d14	-0.794389
233	0x3a09beb2	0.0005254551
234	0xbf30f7dd	-0.6912821
235	0x3a92d50c	0.0011202409
236	0x39653e73	0.00021862406
237	0x3ac23f55	0.00148199
238	0x3ab5f4fb	0.0013882214
239	0x3a79c25f	0.000952756
240	0x3a962971	0.0011456442
241	0x3a007f7f	0.0004901811
242	0x386fe56c	5.7195706e-05
243	0x3a427284	0.0007417577
244	0x3ae3ea57	0.0017388564
245	0x3a8b1047	0.001060971
246	0xbf00ffc1	-0.5039025
247	0x39d5669f	0.00040702985
248	0xbf51c520	-0.81941414
249	0xbe14e2ac	-0.14539593
250	0x3a3be6ba	0.0007167865
251	0xbb0466c2	-0.002020285
252	0x3a133176	0.0005614975
253	0xbf1ef1f7	-0.6208796
254	0x3b7c7c42	0.0038526212
255	0xbe994970	-0.2993884

gru.weight_ih_l1 f4 [384, 128]
0	0xb98d77a4	-0.00026982755
1	0x3a49b54e	0.0007694558
2	0xb89b7a70	-7.413782e-05
3	0xb9d7820a	-0.00041104882
4	0x3a03c191	0.0005026097
5	0x39a73bac	0.0003189718
6	0xb89ed2f8	-7.573323e-05
7	0x3a0556fe	0.000508651
8	0x39d80d8c	0.00041208824
9	0x393367cd	0.00017109439
10	0xbaaf80f9	-0.0013389877
11	0xb97e9746	-0.00024279681
12	0x39f97ac6	0.00047584454
13	0xba3a4d8d	-0.0007106893
14	0x3a930598	0.0011216877
15	0xb9e60551	-0.0004387298
16	0xb98bcb06	-0.0002666341
17	0x37abe094	2.0489366e-05
18	0xba1fb926	-0.0006092958
19	0xb98a81ac	-0.00026418024
20	0x399d19a7	0.00029964486
21	0x3a0c8ca2	0.0005361532
22	0x38a97173	8.0796795e-05
23	0x39f971c3	0.0004757774
24	0xb80b6102	-3.3230528e-05
25	0xb995295b	-0.00028450307
26	0x3a9e5f82	0.0012082907
27	0x396840ba	0.00022149357
28	0xb8888d9e	-6.5113636e-05
29	0xb8ed2fb5	-0.00011309927
30	0xb959ffb1	-0.00020789985
31	0x39816842	0.00024682475
32	0x3a2775dd	0.00063881074
33	0xb91628af	-0.0001432027
34	0x38f15de1	0.00011509262
35	0x39dfc92c	0.0004268376
36	0x393eba27	0.00018189159
37	0xb9b4ebeb	-0.00034508048
38	0xb91b8f07	-0.00014835234
39	0xb9b7bc61	-0.00035044833
40	0xb95848f2	-0.0002062654
41	0x389b0415	7.391736e-05
42	0x39ca95bb	0.0003864
43	0xb9e8858b	-0.00044349986
44	0x3990eeea	0.00027643825
45	0xb9a56c86	-0.0003155211
46	0xb9181356	-0.00014503053
47	0xba0f2655	-0.0005460729
48	0x39986f30	0.0002907454
49	0xb9bf4489	-0.00036481422
50	0x39eb55bc	0.0004488657
51	0x3a08da87	0.00052205514
52	0xba13c082	-0.0005636291
53	0xb9d83112	-0.0004123529
54	0x39d3b469	0.00040379472
55	0xb900b40d	-0.00012274105
56	0x3909c3c3	0.00013138265
57	0x39dbeeeb	0.00041948943
58	0xb912b77f	-0.00013992003
59	0xb964a53c	-0.00021805329
60	0xb91e61f0	-0.00015104539
61	0xb8a75372	-7.9787234e-05
62	0xb8bcc35b	-9.0009264e-05
63	0x38278c50	3.994658e-05
64	0x3970c578	0.00022961746
65	0x3992e6ec	0.0002801934
66	0x39d4024b	0.000404375
67	0x391122ce	0.00013841243
68	0xba4b7667	-0.0007761479
69	0xb92fe5d0	-0.00016774912
70	0x3892e53d	7.0045215e-05
71	0x37e51521	2.7308766e-05
72	0x3912aa0a	0.0001398699
73	0x389fb8b7	7.6161166e-05
74	0x39b839da	0.00035138318
75	0xb87125df	-5.7494148e-05
76	0xb91c1d1d	-0.00014888165
77	0x3a07280d	0.00051558093
78	0x37a0aaab	1.915296e-05
79	0xb94285c5	-0.00018551115
80	0xb979cc40	-0.0002382258
81	0xb9dbd708	-0.00041931146
82	0xb99efafb	-0.00030323103
83	0xb9a1b7ed	-0.00030845348
84	0x3a474750	0.0007601874
85	0x3984b50f	0.000253119
86	0xba600010	-0.0008544931
87	0x3900653e	0.00012244747
88	0x38854b9a	6.356016e-05
89	0xb89f2286	-7.588141e-05
90	0x39f2fe67	0.0004634738
91	0xb8b6f957	-8.7248794e-05
92	0xb965431a	-0.00021864139
93	0xb8a08989	-7.6550125e-05
94	0x3895c01e	7.140658e-05
95	0x3b20c2d2	0.0024530184
96	0xba00a9ca	-0.0004908113
97	0xba036ff4	-0.0005013936
98	0xb98bc6ba	-0.0002666021
99	0xba4175e6	-0.0007379934
100	0xb981978a	-0.00024717703
101	0xb754cde5	-1.2684123e-05
102	0x38f4610c	0.00011652903
103	0xb80f0f49	-3.4108092e-05
104	0x3aa197bf	0.0012328549
105	0x398ed8ec	0.0002724597
106	0x3998940d	0.00029102006
107	0x3818bcd8	3.64155e-05
108	0x3972fc76	0.00023172967
109	0x39be56ac	0.000363042
110	0x394d3997	0.00019571777
111	0x3936b99e	0.0001742602
112	0x362e2a9a	2.5952818e-06
113	0x39f55ca6	0.0004679907
114	0x36dccc16	6.5802697e-06
115	0x3916c40d	0.0001437815
116	0xb9d1cf64	-0.00040018104
117	0x3a3be4fd	0.0007167606
118	0x39a3aec1	0.00031219985
119	0xb924fe8a	-0.00015735082
120	0x3a0488ad	0.00050557667
121	0x3801f9ad	3.0988525e-05
122	0xb90eca06	-0.00013617435
123	0x3a201ca0	0.0006107781
124	0xb97ca3c1	-0.00024093596
125	0xb8115f41	-3.4659406e-05
126	0x38998e1c	7.3220785e-05
127	0xba114671	-0.00055418076
128	0xb9727a07	-0.00023124377
129	0x3a0d819e	0.00053980376
130	0x3802e3af	3.1206462e-05
131	0xba25a9b5	-0.0006319539
132	0x3be3ad01	0.006948114
133	0x39cf6146	0.0003955459
134	0xbb75fe10	-0.0037535466
135	0x3a1af91e	0.0005911755
136	0x3ba1fec7	0.004943702
137	0x39b04da9	0.00033627197
138	0xbb2a9b9c	-0.0026032692
139	0xbc195998	-0.00935974
140	0x3a1104c9	0.0005532024
141	0xba51d147	-0.0008003902
142	0xbc533fb3	-0.012893605
143	0xba5092d0	-0.0007956447
144	0xb9f051a3	-0.0004583719
145	0x38083622	3.2475342e-05
146	0x3b6e3d41	0.0036352428
147	0x3c1bfd1d	0.009520796
148	0x397ccddd	0.00024109283
149	0x399aee9f	0.00029550956
150	0x3be41f56	0.0069617433
151	0x39c770a4	0.00038040162
152	0xb9eb8908	-0.0004492479
153	0xba085809	-0.00052011065
154	0x3b98b8e9	0.004660715
155	0x39a12ba1	0.0003074082
156	0xb8418eef	-4.6147903e-05
157	0xba829b7c	-0.0009964551
158	0xbc32f100	-0.010921717
159	0x39b470fb	0.00034416452
160	0x3a20a4a8	0.00061280513
161	0xb97ec26b	-0.00024295754
162	0x3922b1cf	0.00015515763
163	0x3968ed88	0.00022213731
164	0x397b1c65	0.00023947803
165	0xb9ec5574	-0.00045077095
166	0xb98097d4	-0.00024527183
167	0xbccc02fa	-0.024903763
168	0xb90a6068	-0.0001319662
169	0x38c7ad47	9.521335e-05
170	0x3a50d41e	0.0007966178
171	0xba1046c3	-0.00055037084
172	0x39374991	0.00017479646
173	0xb8f90ff4	-0.00011876217
174	0xb9617232	-0.00021500213
175	0xb8b84d69	-8.7882225e-05
176	0x37284442	1.0029473e-05
177	0x3aec17a8	0.0018012421
178	0x3c03ec6f	0.008051976
179	0x3a21ccf5	0.00061722036
180	0x3b626925	0.0034547534
181	0xb997c740	-0.00028949417
182	0x39f498ca	0.00046653143
183	0xb9fd608c	-0.00048327853
184	0x3942fdaa	0.00018595779
185	0xb9825d98	-0.00024865265
186	0x3b94d633	0.004542136
187	0xba98d35c	-0.001165967
188	0xb8981ced	-7.253313e-05
189	0xb86b24e6	-5.606273e-05
190	0xb9b07ace	-0.00033660833
191	0x385ce902	5.2669093e-05
192	0xb82750de	-3.9891216e-05
193	0x39d06a91	0.0003975225
194	0x3a98d73a	0.0011660822
195	0x394d0529	0.00019552246
196	0xba03537d	-0.0005009694
197	0x3b162bb6	0.0022914237
198	0x38873037	6.446282e-05
199	0xb5ca0dc5	-1.505418e-06
200	0xb88b62ed	-6.646463e-05
201	0x395126de	0.00019946272
202	0x3a1f8de8	0.00060865143
203	0xb9c1d85e	-0.00036973035
204	0x3b9f2c38	0.004857566
205	0x39638f4f	0.00021701794
206	0xb92fa470	-0.00016750558
207	0xb8933e67	-7.0211296e-05
208	0xb94d8c51	-0.00019602595
209	0xba4e8548	-0.0007878137
210	0xb987f7a7	-0.00025933722
211	0xbb87cfa7	-0.004144627
212	0x3bc500cf	0.0060120593
213	0x3984d663	0.00025336733
214	0xba02dec2	-0.00049923
215	0x39f788e7	0.0004721351
216	0x37d97c99	2.5926436e-05
217	0xb9439b1f	-0.00018654436
218	0x3a0109eb	0.00049224374
219	0xb4b47506	-3.3612758e-07
220	0x37d3066a	2.5156147e-05
221	0x389ccb28	7.4765005e-05
222	0x3a0a0499	0.00052649673
223	0xbb79d0ed	-0.0038118914
224	0xba0436d2	-0.0005043569
225	0xb9a3bef1	-0.00031232045
226	0xb9e1415e	-0.00042964047
227	0x3c50a41d	0.01273444
228	0xbb4c332c	-0.003115843
229	0xb78968f7	-1.638055e-05
230	0x3a373fc7	0.00069903996
231	0xb83a2c8e	-4.438735e-05
232	0xbc55b1a2	-0.013042839
233	0x39946c32	0.00028309372
234	0xbc6568ee	-0.014002068
235	0xb82a3c1c	-4.058714e-05
236	0x39be0640	0.0003624428
237	0x3a0fc5d8	0.0005484498
238	0x3a282941	0.0006414839
239	0x35c4c787	1.4661208e-06
240	0xb823b1c9	-3.9027804e-05
241	0x39ef5189	0.0004564638
242	0xb75c8b93	-1.3145519e-05
243	0x37a7c295	1.999856e-05
244	0xba5edd10	-0.0008501569
245	0x3a5c8b8a	0.0008413127
246	0xbade3323	-0.0016952496
247	0xb78d49a8	-1.6842809e-05
248	0x3ca9c4f8	0.020723805
249	0x3a68427d	0.0008860005
250	0xb8b0c3b7	-8.428789e-05
251	0x3a6a37a1	0.0008934681
252	0xb9a2bd10	-0.0003103991
253	0x3988bb91	0.0002607969
254	0x39a2924e	0.00031008053
255	0xbbf85c22	-0.0075793425

gru.weight_hh_l1 f4 [384, 128]
0	0xbb87f762	-0.0041493634
1	0xbbbb256e	-0.005711249
2	0x3c6e437b	0.014542456
3	0x3b8a5cb9	0.004222479
4	0x3b87e78b	0.004147475
5	0xbc87da3c	-0.016583554
6	0xbc395bde	-0.011313407
7	0x3b89262c	0.0041854586
8	0xbb928749	-0.0044716937
9	0x3c8c03d3	0.017091667
10	0x3c87cc4a	0.016576905
11	0x3b91f433	0.0044541596
12	0xbc799a11	-0.015234486
13	0x3b8e57a7	0.004343945
14	0x3b86f84e	0.0041189557
15	0x3b85fd1c	0.004089011
16	0xbb89b4b4	-0.0042024497
17	0x3bb71421	0.0055871163
18	0xbcaedafb	-0.021344652
19	0xbbb553f0	-0.005533688
20	0x3b97d0ee	0.0046330607
21	0x3bbd4fdb	0.005777342
22	0xbbc1d8bb	-0.005915729
23	0xbc7e9351	-0.015538053
24	0xbb95199a	-0.004550171
25	0xbbb9c7c5	-0.0056695663
26	0xbbb3c24e	-0.0054858094
27	0x3baa1584	0.005190553
28	0xbc8964d5	-0.016771713
29	0x3b8f050d	0.004364616
30	0x3a79c3e3	0.00095277856
31	0xbc2ee260	-0.010674089
32	0x3c54ef7f	0.012996553
33	0x3c85bc2f	0.016325084
34	0xbb9197f4	-0.004443163
35	0x3bb765b3	0.0055968403
36	0xbb90d771	-0.004420214
37	0x3c7fb60e	0.01560737
38	0x3b877e40	0.004134923
39	0xbbae8e89	-0.00532705
40	0x3bcb3d2b	0.00620236
41	0x3b9c277e	0.00476545
42	0xbb8fb023	-0.004385011
43	0x3b899214	0.004198322
44	0xbc6c7210	-0.0144314915
45	0xbb4d02d6	-0.0031282208
46	0xbc431432	-0.01190667
47	0x3bc2a4bd	0.0059400485
48	0xbb9882b4	-0.004654253
49	0x3b8618f5	0.0040923306
50	0x3c927e76	0.017882567
51	0xbbbde7a0	-0.005795434
52	0x3b877f80	0.004135072
53	0x3b152f8b	0.0022763934
54	0xbc9da381	-0.019243004
55	0xbbcfe3ea	-0.006344308
56	0x3b8c5b6b	0.004283359
57	0x3bc70091	0.0060730656
58	0x3c6fd087	0.014637119
59	0xbc7895b9	-0.015172415
60	0x3b8f5131	0.0043736924
61	0x3b9e0b5d	0.004823132
62	0xbbab34a1	-0.0052247797
63	0x3b34e907	0.0027604715
64	0xbb954a06	-0.0045559434
65	0x3b8f0b4a	0.0043653594
66	0x3bb3e157	0.005489509
67	0x3b87197b	0.0041229106
68	0x3be392c8	0.006944988
69	0xbb242ee6	-0.0025052368
70	0xbbc886d6	-0.0061195893
71	0xbb835367	-0.004007745
72	0xbb95cc6f	-0.0045714895
73	0x3b8859e8	0.0041611083
74	0xbbb6befe	-0.0055769673
75	0xbb86be77	-0.0041120606
76	0xbc6efa2d	-0.014586014
77	0xbb86b3be	-0.0041107824
78	0xbbb2a9c3	-0.005452366
79	0x3c85f627	0.016352726
80	0xbc853281	-0.016259434
81	0x3bc76b28	0.006085772
82	0x3b87951a	0.0041376473
83	0xbbc00289	-0.005859677
84	0xbba6d2f9	-0.005091068
85	0x3b97b745	0.0046300017
86	0x3bade162	0.0053064087
87	0xbc862c2c	-0.016378485
88	0xbb8696f7	-0.004107352
89	0x3b8c4f56	0.0042819185
90	0x3bb65106	0.005563858
91	0xbb6561a1	-0.0035000818
92	0x3bc162d2	0.005901673
93	0x3c87f4e4	0.016596265
94	0x3b897577	0.004194911
95	0x3ba803ea	0.0051274197
96	0xbb8edbb9	-0.004359689
97	0xbb57bb2f	-0.0032917967
98	0x3be85e39	0.0070913103
99	0xbc942101	-0.018082144
100	0xbb5f180f	-0.003404144
101	0x3aa226ba	0.001237116
102	0xbc652165	-0.013985013
103	0x3c6395bb	0.013890679
104	0x3b9f18d2	0.0048552537
105	0x3baeeda0	0.0053383857
106	0x3b86ca6d	0.0041134865
107	0x3c6230ec	0.013805609
108	0xbc84762c	-0.01616963
109	0xbbce79f7	-0.0063011604
110	0x3bbb3558	0.005713146
111	0x3ba23bb6	0.0049509658
112	0xbb2956d5	-0.002583911
113	0xbcb04ab9	-0.021520006
114	0xbba57219	-0.005049002
115	0x3b86e704	0.0041168947
116	0x3ba8b754	0.0051488075
117	0x3b875177	0.0041295844
118	0xbc88f5b1	-0.016718717
119	0x3b887d0d	0.004165298
120	0xbbfca3ea	-0.0077099698
121	0xbb973840	-0.00461486
122	0xbc6e8af3	-0.014559495
123	0x3c5cda09	0.013479718
124	0x3c7cb2d6	0.015423497
125	0xbb8a1081	-0.004213393
126	0xbbaf283f	-0.005345374
127	0x3b8e0db0	0.004335128
128	0xbcabf711	-0.020991834
129	0xbb8b11e0	-0.004244074
130	0x3d871946	0.065966174
131	0x3caa0fbc	0.020759456
132	0x3cababdc	0.020955972
133	0xbd8f9736	-0.07011263
134	0xbc5cb68a	-0.013471255
135	0x3cabb454	0.02096001
136	0xbcab455b	-0.020907095
137	0x3d8a81a0	0.06763005
138	0x3d8fd4cd	0.070230104
139	0x3cab594c	0.020916604
140	0xbd8a7e85	-0.06762413
141	0x3cab5411	0.02091411
142	0x3caf248f	0.021379737
143	0x3c442eee	0.01197408
144	0xbcabae2e	-0.020957079
145	0x3c79bb57	0.015242419
146	0xbd38cf6d	-0.04511969
147	0xbca05ba4	-0.019574948
148	0x3cab5fd8	0.020919725
149	0x3b93d102	0.0045109997
150	0xbbc710ba	-0.006074992
151	0xbd92c398	-0.07166213
152	0xbcab562d	-0.020915115
153	0xbc859995	-0.016308585
154	0xbca4e822	-0.02013022
155	0x3cc42877	0.023945076
156	0xbd94b169	-0.07260401
157	0x3cae33e8	0.021264985
158	0xbaa2efeb	-0.001243112
159	0xbd12f63a	-0.03587935
160	0x3d727d4c	0.059201524
161	0x3d8f0d25	0.06984929
162	0xbcab4ae3	-0.020909732
163	0x3c886a43	0.016652232
164	0xbcab44c0	-0.020906806
165	0x3d8e2eb5	0.069425024
166	0x3cabe87a	0.020984877
167	0xbca98338	-0.020692453
168	0x3c1388c4	0.009004775
169	0x3cab3310	0.020898372
170	0xbcab7538	-0.020929918
171	0x3cabaeaa	0.02095731
172	0xbd863f1a	-0.065550044
173	0xbd11b215	-0.035570223
174	0xbd471482	-0.048603542
175	0x3bc83d43	0.0061108186
176	0xbcab653f	-0.020922301
177	0x3cad26db	0.021136692
178	0x3d8d0235	0.068851866
179	0xbce26b5e	-0.027639087
180	0x3cac87f7	0.021060927
181	0x3d0e3107	0.034714725
182	0xbd80c654	-0.06287828
183	0xbc2815b3	-0.01025908
184	0x3cab5e08	0.020918861
185	0x3be6d2e3	0.0070441826
186	0x3d87c4cc	0.06629333
187	0xbd898e68	-0.06716615
188	0x3cad10f3	0.021126246
189	0xbc44d2e0	-0.012013167
190	0xbca9fc7c	-0.020750277
191	0xbc54f7a0	-0.0129984915
192	0xbcc3fb7d	-0.02392363
193	0x3cab6055	0.020919958
194	0x3c8b58a9	0.01701005
195	0x3cac42dc	0.021027975
196	0x3d51502a	0.05110184
197	0xbcaa51a8	-0.02079089
198	0xbc083a9f	-0.008314758
199	0xbd3f12ec	-0.046648905
200	0xbcab3ee9	-0.020904021
201	0x3cab6b97	0.020925326
202	0xbc9d78a1	-0.01922256
203	0xbcab66bd	-0.020923013
204	0xbd8765e2	-0.066112295
205	0xbbbb6664	-0.005718993
206	0xbce61220	-0.028084815
207	0x3d8f22c0	0.0698905
208	0xbd8e767b	-0.06956192
209	0x3c02ab80	0.007975459
210	0x3cac0988	0.021000639
211	0xbc43d9a6	-0.011953747
212	0xbc0634d2	-0.008191304
213	0x3cab3307	0.020898355
214	0x3b907238	0.004408147
215	0xbd8f7f95	-0.07006756
216	0xbcabbe13	-0.020964658
217	0x3cab598f	0.020916728
218	0x3c8ba012	0.0170441
219	0x3c175cf4	0.00923847
220	0x3bc9ed53	0.0061623245
221	0x3d8f697c	0.070025414
222	0x3caba4ee	0.020952668
223	0x3c423173	0.01185261
224	0xbcab51f1	-0.020913096
225	0xbd1a2bea	-0.037639536
226	0x3ccdf8fd	0.02514314
227	0xbda7bcc4	-0.08190301
228	0xbbb9c80d	-0.0056696
229	0x3cd23183	0.025658375
230	0xbd82d88b	-0.063889585
231	0x3d81ff73	0.06347551
232	0x3b1c3075	0.0023832594
233	0x3cb42b78	0.021993384
234	0x3caed912	0.021343742
235	0x3d812aa0	0.06306958
236	0xbd8eb883	-0.069687866
237	0xbc1b4e2d	-0.009479088
238	0x3c7df53e	0.015500365
239	0x3caaae08	0.020834938
240	0xbcce2472	-0.025163863
241	0xbd00f120	-0.031479955
242	0xbcaab6ce	-0.020839121
243	0x3cad9487	0.021188987
244	0x3cabc1a4	0.020966358
245	0x3cac983c	0.021068685
246	0xbd915243	-0.07095768
247	0x3cabc683	0.020968681
248	0xbd103c79	-0.03521392
249	0xbcab3c86	-0.020902883
250	0xbd873caa	-0.066033676
251	0x3d04f371	0.032458726
252	0x3d8b8f6a	0.068144634
253	0xbcaaec96	-0.020864766
254	0xbcccfa0a	-0.025021572
255	0x3caa6a52	0.02080265

gru.bias_ih_l1 f4 [384]
0	0x3c88dbb0	0.016706318
1	0x3d5ed77c	0.05440472
2	0xbbc634df	-0.006048783
3	0x3c915f5b	0.017745664
4	0x3c88f896	0.016720098
5	0xbb810a72	-0.0039380128
6	0x3e8bca0f	0.27302596
7	0x3c8cc3c3	0.01718319
8	0x3ca73852	0.020412598
9	0x3d4357ce	0.04769116
10	0xbb9e4bd2	-0.004830816
11	0x3ca546a3	0.020175284
12	0xbc454879	-0.012041205
13	0x3c9b6a45	0.018971572
14	0x3c7e204a	0.015510628
15	0x3e9dd807	0.30828878
16	0x3c8e5c8c	0.017378114
17	0x3d32735e	0.043567054
18	0x3e99812e	0.2998137
19	0x3d121b4b	0.03567056
20	0x3cb59815	0.022167245
21	0x3d5e438c	0.054263636
22	0x3d568e68	0.052381903
23	0xbaced57d	-0.0015780177
24	0x3caeaedc	0.021323614
25	0x3d2ff0c6	0.04295423
26	0x3d0c0862	0.034187682
27	0x3cc87723	0.024470871
28	0x3b2c471d	0.0026287504
29	0x3c92c77f	0.017917393
30	0x3de2b2d1	0.11069263
31	0x3d0f09ab	0.03492133
32	0x3b3d6b2a	0.0028902986
33	0xbc0851e4	-0.0083203055
34	0x3ca497c7	0.020091904
35	0x3d2b421f	0.041811105
36	0x3ca2b785	0.0198629
37	0xbbfb50ac	-0.007669529
38	0x3c87b2cb	0.016564747
39	0x3cfe8dfc	0.031073563
40	0x3d4c4ec7	0.049879815
41	0x3cc35e6e	0.023848739
42	0x3c9f0f93	0.019416606
43	0x3c8df5a5	0.017329047
44	0xbba7dac0	-0.0051225126
45	0x3d849eb1	0.064755805
46	0x3c950778	0.018192038
47	0x3d564805	0.052314777
48	0x3cb78c32	0.022405718
49	0x3c8122d7	0.015763683
50	0x3d14efb9	0.03636143
51	0x3cdbbfa8	0.026824787
52	0x3c8685a7	0.016421152
53	0x3e06acf7	0.13151918
54	0x3e25de69	0.16198124
55	0x3d4797e5	0.048728842
56	0x3c960231	0.018311592
57	0x3d53d9af	0.05172127
58	0xbbe1e985	-0.006894293
59	0xbc4ccb56	-0.012499651
60	0x3c971266	0.01844139
61	0x3e81211b	0.2522057
62	0x3cf3b22f	0.02974805
63	0x3d2c5ba0	0.042079568
64	0x3c634dc6	0.013873523
65	0x3c9d83db	0.019227913
66	0x3d2285a5	0.039678235
67	0x3c85f5b7	0.016352518
68	0x3e5ee402	0.21766666
69	0xbc777180	-0.015102744
70	0x3d4e6d4a	0.050397195
71	0x3e21137a	0.15730086
72	0x3cb0a14c	0.021561287
73	0x3c8b0987	0.016972316
74	0x3d17ef3c	0.037093386
75	0x3c86a65a	0.016436744
76	0xbbd1bb45	-0.006400498
77	0x3d117f44	0.03552176
78	0x3c8e8355	0.017396608
79	0xbc07f21d	-0.00829747
80	0xbc15146f	-0.00909911
81	0x3d4f6b5c	0.050639495
82	0x3c87bfb3	0.016570901
83	0x3d4094a7	0.047016766
84	0x3d3c5371	0.045978013
85	0x3cb67202	0.02227116
86	0x3d51c8c6	0.051216863
87	0xbc0389de	-0.008028476
88	0x3c85770b	0.016292116
89	0x3c95bfe4	0.018279977
90	0x3d26e8eb	0.04074947
91	0x3dd0ba8c	0.10191831
92	0x3d55356b	0.052052896
93	0xbbaf407b	-0.005348263
94	0x3c8daa3d	0.01729309
95	0x3d2def41	0.0424645
96	0x3c9ce2ec	0.019151174
97	0xbd79d616	-0.060995184
98	0x3ea75f55	0.3268992
99	0x3d2c2ff3	0.042037915
100	0x3e017a5c	0.12644333
101	0x3dc65ce8	0.09685689
102	0xbacbe37e	-0.0015555469
103	0xba75f45a	-0.00093824195
104	0x3d38a995	0.0450836
105	0x3cec132e	0.02881774
106	0x3c7e7fd1	0.0155334035
107	0xb9d30b16	-0.00040253316
108	0xbc4f7080	-0.012661099
109	0x3d4ac696	0.049505793
110	0x3d348a9e	0.04407751
111	0x3cd72964	0.026264854
112	0x3e031261	0.1279998
113	0x3e26883a	0.16262904
114	0x3ce09e6c	0.027419291
115	0x3c827066	0.015922736
116	0x3ce74bb1	0.028234335
117	0x3c85d4e6	0.01633687
118	0xbac722d8	-0.0015192879
119	0x3c8ace3f	0.016944049
120	0x3be9e810	0.0071382597
121	0x3cb4d71c	0.022075228
122	0xbbcb2ec0	-0.0062006414
123	0xbd7e1909	-0.062035594
124	0xbc1ae1b2	-0.009453224
125	0x3c905483	0.017618423
126	0x3cc7e64c	0.024401806
127	0x3c9b3ad2	0.018948946
128	0xbd09fd97	-0.033689108
129	0xbdbf2786	-0.0933371
130	0x3c1274a7	0.008938945
131	0xbd0e423b	-0.03473113
132	0xbd0a0d07	-0.03370383
133	0x3c879322	0.01654965
134	0x3e9f4ec8	0.31114793
135	0xbd0cd648	-0.034384042
136	0xbd1fa600	-0.03897667
137	0xbdf74846	-0.12074332
138	0x3c85d164	0.016335197
139	0xbd1e50da	-0.038651325
140	0x3c2af841	0.010435165
141	0xbd1763d6	-0.036960445
142	0xbd034300	-0.032046318
143	0xbe929f3d	-0.28637114
144	0xbd0e0948	-0.03467682
145	0xbd93caef	-0.07216441
146	0xbded316c	-0.11581692
147	0xbd6ee5d6	-0.058324657
148	0xbd28dc2a	-0.04122559
149	0xbdbf3077	-0.09335416
150	0xbdba4db9	-0.09096856
151	0xbb8ada75	-0.004237468
152	0xbd24e830	-0.040260494
153	0xbd91fa66	-0.07127838
154	0xbd683e9e	-0.05670034
155	0xbd2780e1	-0.040894393
156	0x3c8e48be	0.01736867
157	0xbd0e6785	-0.034766693
158	0xbe796e9d	-0.24358602
159	0x3d735ec5	0.05941655
160	0xbaab3ee7	-0.0013065011
161	0x3c790504	0.01519895
162	0xbd1dd1f9	-0.038530324
163	0xbd8c5c9e	-0.06853603
164	0xbd1c8b53	-0.038218807
165	0x3c68e1fd	0.014214036
166	0xbd091fba	-0.033477522
167	0xbd570bed	-0.052501608
168	0xbdb61c2b	-0.08892091
169	0xbd3259ac	-0.04354255
170	0xbd1a11ff	-0.03761482
171	0xbd0db68d	-0.034597922
172	0x3c02ce33	0.007983732
173	0xbeefbbde	-0.4682302
174	0xbd3aff10	-0.045653403
175	0xbdb8d785	-0.09025482
176	0xbd2a0ac1	-0.041514162
177	0xbd046aed	-0.032328535
178	0x3d3f8374	0.046756223
179	0xbd380801	-0.044929508
180	0xbd08519c	-0.033280954
181	0xbe280d16	-0.16411242
182	0x3dffc4de	0.12488721
183	0xbdb51dff	-0.08843612
184	0xbd138a30	-0.036020458
185	0xbdb8d30c	-0.09024629
186	0x3c210b0a	0.009829292
187	0x3c327b17	0.010893605
188	0xbd115587	-0.035481956
189	0xbe26841b	-0.16261332
190	0xbd50e7be	-0.051002257
191	0x3d03acf6	0.03214737
192	0xbcfea56a	-0.031084735
193	0xbd18eda1	-0.037335996
194	0xbd842daa	-0.06454022
195	0xbd07db09	-0.033167873
196	0xbe3f3e72	-0.18676165
197	0xbeadfc14	-0.33981383
198	0xbdb682d0	-0.08911669
199	0x3ec309e3	0.3809348
200	0xbd2606d5	-0.04053386
201	0xbd0b7efb	-0.034056645
202	0xbd78412a	-0.06060902
203	0xbd0838de	-0.033257358
204	0x3c17a443	0.009255472
205	0xbd834cd6	-0.0641114
206	0xbd026689	-0.031836066
207	0x3c6e9f3e	0.0145643335
208	0x3c6ed5bf	0.014577328
209	0xbdb6a105	-0.08917431
210	0xbd092c18	-0.033489317
211	0xbda83538	-0.08213276
212	0xbd9e5a7b	-0.077321015
213	0xbd29fc8d	-0.041500617
214	0xbdb33d7e	-0.08751963
215	0x3c6e6559	0.01455053
216	0xbd0769f4	-0.03306003
217	0xbd1356eb	-0.035971563
218	0xbd88151b	-0.066446505
219	0xbe02833a	-0.12745371
220	0xbdb819c7	-0.08989292
221	0x3c81a120	0.0158239
222	0xbd0d7f92	-0.03454549
223	0xbd8fe311	-0.07025731
224	0xbd186efd	-0.03721522
225	0xbed75959	-0.42060354
226	0x3e5bebf0	0.21476722
227	0x3cbdf1a2	0.023186509
228	0xbd80c256	-0.06287067
229	0x3d3e88f7	0.04651734
230	0x3bb2f2f6	0.005461092
231	0x3b9e8c05	0.004838469
232	0xbda96beb	-0.08272537
233	0xbd45fd5c	-0.048337325
234	0xbd035769	-0.032065783
235	0x3b86a3c4	0.004108878
236	0x3c6770b4	0.014125992
237	0xbdb673a4	-0.089087754
238	0xbd977c8f	-0.073968045
239	0xbd3f2d82	-0.04667426
240	0xbee7857a	-0.45219022
241	0xbe58cad9	-0.2117113
242	0xbd44ffb6	-0.048095427
243	0xbd057378	-0.032580823
244	0xbd47b95f	-0.048760768
245	0xbd07cea5	-0.033156056
246	0x3c8e0819	0.017337846
247	0xbd0b656d	-0.034032274
248	0x3cec9a75	0.028882245
249	0xbd28e746	-0.041236185
250	0x3c15b084	0.009136323
251	0x3d12d169	0.03584424
252	0x3c729cac	0.014807861
253	0xbd0f33b1	-0.034961406
254	0xbd263d8c	-0.04058604
255	0xbd162512	-0.036656447
