datasets/Spirit/model/chronological_student.pth (torch, 3299 bytes, 6 tensors)

gru.weight_ih_l0 f4 [12, 30]
0	0x3ff5c205	1.9199835
1	0x4004e4f1	2.0764735
2	0x3fb99898	1.4499693
3	0x3fee13f8	1.8599844
4	0x3ffa43f6	1.955199
5	0x3ffeff7b	1.9921716
6	0x3fa1b362	1.2632868
7	0x3e0f158a	0.1397306
8	0xc04dbd34	-3.214673
9	0x400168c0	2.0220184
10	0x40b1f69c	5.5613537
11	0x3f531e99	0.82468563
12	0x3fa0378e	1.2516954
13	0x409acf6f	4.8378215
14	0xc03d1db8	-2.954939
15	0xbfd6bb2d	-1.6775872
16	0x3f007526	0.50178754
17	0xc024ff09	-2.578066
18	0xbf7267bf	-0.94689554
19	0xc02f302a	-2.7373147
20	0xc10d59ee	-8.8344555
21	0xc0738939	-3.8052504
22	0xbeab9b74	-0.3351704
23	0x401ebbaa	2.480204
24	0xbf7563f2	-0.9585563
25	0xc0978d28	-4.735981
26	0x409f3481	4.975159
27	0x405d71ea	3.4600778
28	0xbedb83d5	-0.42874017
29	0x3f76b639	0.963718
30	0xbf6cec58	-0.9254813
31	0xbf406871	-0.75159365
32	0xbf86db92	-1.0535758
33	0xbeef28b3	-0.4671074
34	0xbf5970e6	-0.84937894
35	0xbf0f7806	-0.56042516
36	0xbf1b77bd	-0.6072958
37	0x3f6cbfe8	0.92480326
38	0xc013fec1	-2.312424
39	0xc001c31c	-2.0275335
40	0xc0666eda	-3.6005158
41	0xc100b525	-8.044225
42	0xbf9f55d7	-1.2448071
43	0xc032f8a8	-2.7964268
44	0x3ed7f3dd	0.4217824
45	0x401fa917	2.4946954
46	0x3f74c3ed	0.9561146
47	0x3ecaac76	0.39584702
48	0x4094b034	4.646509
49	0xbea042e9	-0.31301048
50	0x405232db	3.284354
51	0xbd9b49a2	-0.07582404
52	0x40ea0a9f	7.3137965
53	0xbfca3ac1	-1.579918
54	0x3ee4da61	0.4469786
55	0xbebc586d	-0.36786214
56	0xc043d201	-3.0596926
57	0x401a3a81	2.4098208
58	0xbec7ceaa	-0.3902486
59	0xbc36aa82	-0.011149051
60	0xbf878b1a	-1.0589325
61	0xbf8aa6ee	-1.0832193
62	0xbf4fd743	-0.8118784
63	0xbf7a1ebc	-0.97703147
64	0xbef6baeb	-0.48189482
65	0xbf7fde59	-0.9994865
66	0xbec4aa17	-0.38411018
67	0x40a6837c	5.2035503
68	0xc0284394	-2.6291246
69	0x3faff9ed	1.3748146
70	0xbf13eb9a	-0.57781374
71	0x3f810984	1.0081029
72	0xc018b8b7	-2.386274
73	0xbfc76520	-1.5577736
74	0x3fa3333a	1.2750008
75	0xbea76f77	-0.32702228
76	0x4099be16	4.804454
77	0xbf8b3350	-1.0875034
78	0x4084acf6	4.1461134
79	0x40d57b72	6.671319
80	0x40933552	4.600259
81	0xbf13ef51	-0.5778704
82	0x40b066a9	5.5125318
83	0xc01ed52e	-2.4817615
84	0x4080ec89	4.028874
85	0xc08c1c14	-4.3784275
86	0xbfa684a3	-1.3009228
87	0x3f96cf53	1.178202
88	0xc00affe8	-2.1718693
89	0xbd2b9df3	-0.04189868
90	0xbf4647a8	-0.7745309
91	0xbf405f6d	-0.7514561
92	0xbf93ebd4	-1.1556344
93	0xbf969022	-1.1762736
94	0xbfb4cf3a	-1.412574
95	0xbfa1a660	-1.2628899
96	0xbf8088fe	-1.0041807
97	0x400ae765	2.1703732
98	0xbf1dc797	-0.61632675
99	0x3fc24e25	1.5180098
100	0xbf841305	-1.0318304
101	0xbdfacf9e	-0.12246631
102	0xbfab5eae	-1.3388269
103	0xbfc1d7d3	-1.5143989
104	0xbeff28b5	-0.49835745
105	0x3f65e83e	0.898075
106	0xbf92630c	-1.1436477
107	0x3f83c5bc	1.0294719
108	0x3e94b2ff	0.29042813
109	0xbf3dc3d9	-0.74126965
110	0x4020a358	2.5099697
111	0xc015aecf	-2.3387945
112	0x407d82a9	3.9610999
113	0x400972d8	2.1476345
114	0x3f5c60ab	0.86085004
115	0x401c9e7b	2.4471729
116	0xbfcd8461	-1.6056024
117	0x3fac1640	1.344429
118	0xbfc1c052	-1.5136817
119	0x3f934e0d	1.1508194
120	0x3f15e576	0.58553255
121	0x3f2da047	0.6782269
122	0x3f9ff69a	1.2497132
123	0x3f9eb626	1.2399337
124	0x3fa24e54	1.2680154
125	0x3fc09a6c	1.5047126
126	0x3f300a71	0.6876593
127	0xc058a3a7	-3.3849885
128	0xbe61b29f	-0.22040795
129	0x404b6da9	3.1785681
130	0x3f1334be	0.57502353
131	0xc0c06acf	-6.013038
132	0xbed71193	-0.42005596
133	0x407fee61	3.9989245
134	0x407db3ff	3.964111
135	0x405a5d9c	3.4119635
136	0x402cc3d9	2.6994536
137	0xc07ff724	-3.9994593
138	0x3dda9ae7	0.106740765
139	0xbfbeaac8	-1.4895868
140	0xc036465d	-2.8480446
141	0xc0cb2bf4	-6.3491154
142	0x41014700	8.079834
143	0x40a08a00	5.0168457
144	0x3ffeddc9	1.9911433
145	0xc07835cd	-3.8782837
146	0xc0c026c9	-6.0047345
147	0x3f7d753e	0.9900702
148	0x3efff598	0.4999206
149	0xc08c6b86	-4.3881254
150	0x3f339434	0.70148015
151	0xbd26ac87	-0.04069188
152	0x3ee77925	0.45209613
153	0x3f6f16f3	0.9339439
154	0x3ec8af47	0.39196226
155	0x3f4fdc2b	0.81195325
156	0x3e103485	0.14082535
157	0x3ebe2a81	0.37141803
158	0xc0147dd6	-2.3201804
159	0x402cfbbc	2.7028646
160	0xbf4485c2	-0.767666
161	0xbfb11079	-1.3833152
162	0x3e54b7cc	0.20773238
163	0x3eed0151	0.46290067
164	0xbfc41f54	-1.532206
165	0xbfbc784f	-1.4724215
166	0xc1106b63	-9.026217
167	0xc02a2af7	-2.6588724
168	0xc0ae806a	-5.4531755
169	0xc060fa31	-3.5152705
170	0xc04e7ded	-3.226436
171	0x4087d7a5	4.245074
172	0xc0eb2af4	-7.3489933
173	0x40542e39	3.3153212
174	0xc0288146	-2.6328902
175	0x412bc06f	10.734481
176	0x40e984f5	7.29748
177	0xc0be3c82	-5.944886
178	0x400fe69c	2.2484503
179	0x40b4f6fc	5.6551495
180	0x3fa2b855	1.2712504
181	0x3f58c61d	0.84677297
182	0x3fc36a2a	1.5266774
183	0x3f6e53a9	0.93096405
184	0x3fb492b8	1.4107275
185	0x3fad3cb6	1.3534153
186	0x3f74cf99	0.9562927
187	0xc0c6672f	-6.2000957
188	0xc01bc2f5	-2.4337742
189	0x4084396e	4.1320105
190	0x40daff43	6.84366
191	0xbfb7918c	-1.4341292
192	0x4091937e	4.5492544
193	0x3faa2656	1.3292949
194	0x3fbb5c86	1.4637611
195	0x40399e76	2.9002967
196	0x404939d3	3.1441543
197	0xc0e330d2	-7.0997095
198	0xc077a501	-3.869446
199	0x3f82b3ce	1.0211122
200	0xc0b108d5	-5.532328
201	0xbf982211	-1.1885396
202	0x4083ac7d	4.1148057
203	0x40250c83	2.5788887
204	0x3fe62413	1.7979759
205	0xc02ae879	-2.670439
206	0x3fe192a5	1.7622877
207	0xbff22867	-1.891858
208	0xbb7157ee	-0.0036826092
209	0xbf2d8b93	-0.677911
210	0x3ef9d534	0.48795474
211	0x3fa7d0c1	1.3110582
212	0x3facb1c2	1.3491747
213	0x3f1a8835	0.60364085
214	0x3f330f40	0.69945145
215	0x3f1683ee	0.5879506
216	0x3fa0a2d4	1.2549691
217	0x3f17adc4	0.5924952
218	0xc0c50409	-6.1567426
219	0x4035443c	2.8322897
220	0x3ecf3ab4	0.40474474
221	0xc0913378	-4.537533
222	0xbfd3b378	-1.6539145
223	0x3fd4fd3c	1.6639781
224	0x40a921cf	5.285377
225	0x3fff927c	1.9966578
226	0x4090ca0b	4.5246634
227	0xc09638b3	-4.6944213
228	0xc0d1e3f5	-6.559077
229	0x406351d5	3.5518696
230	0x3f753ea2	0.95798695
231	0x3f112341	0.5669442
232	0xbd65d615	-0.056112368
233	0x3fdec6d6	1.740443
234	0x40f986f0	7.797722
235	0x3fcd32c3	1.6031116
236	0x3fe76604	1.8078008
237	0xc0715d44	-3.7713175
238	0x405ae1d9	3.4200346
239	0x4027f080	2.624054
240	0x3e71f162	0.23627236
241	0x3ea05a8f	0.3131909
242	0x3eeb0f99	0.45910338
243	0xbe24f1fe	-0.16107938
244	0xbec77bee	-0.38961738
245	0xbe906b6d	-0.2820696
246	0xbd14b2f6	-0.036303483
247	0x3f9cee14	1.2260156
248	0x3fb58dc0	1.4183884
249	0xbf8e7c9e	-1.113178
250	0x3f374e9c	0.71604323
251	0x3fd4d7a0	1.6628304
252	0xc005dd39	-2.0916274
253	0xbfc9431f	-1.5723609
254	0x3f305788	0.6888356
255	0xbfbd101c	-1.4770541

gru.weight_hh_l0 f4 [12, 4]
0	0xbf9cef70	-1.226057
1	0x3f295d6c	0.66158175
2	0xbf2dc988	-0.6788564
3	0x3ca272b5	0.019830087
4	0x3f69ca7a	0.9132458
5	0xbf7710ab	-0.9650981
6	0xbf5cd617	-0.86264175
7	0x3e7549c7	0.23953925
8	0x3fbff8ee	1.4997842
9	0x3e18877f	0.14895438
10	0x4030caa8	2.7623692
11	0xbeafb371	-0.3431659
12	0x3eeabe74	0.4584843
13	0x3ffba109	1.9658519
14	0x3fd5aab8	1.6692724
15	0xbf010ab0	-0.5040693
16	0x400dd34f	2.2160223
17	0xbfe8c8b8	-1.8186255
18	0x3f136b93	0.5758602
19	0xbfc1a02f	-1.5127009
20	0xbff52052	-1.9150488
21	0xc028f797	-2.6401117
22	0xbfe45f0e	-1.7841508
23	0xbe8cb8c2	-0.2748471
24	0xc01d09d5	-2.453725
25	0xbf7d08e8	-0.98841715
26	0xbf78c616	-0.97177255
27	0x3f298b9a	0.6622864
28	0xbf736bcd	-0.95086366
29	0x3db3c60a	0.08778007
30	0xc0211018	-2.5166073
31	0xbec95265	-0.39320675
32	0x3f8c81f0	1.0977154
33	0xbfafbf58	-1.3730268
34	0xbf9a7cbb	-1.2069315
35	0x4002496c	2.0357313
36	0xc0051a99	-2.0797484
37	0x400d8a39	2.2115614
38	0xbed41097	-0.41418907
39	0x3ec5abaf	0.38607547
40	0x4030065e	2.7503886
41	0xbf73aaed	-0.9518269
42	0x40430ed1	3.0477793
43	0x3ec60c02	0.38681036
44	0xc00da94c	-2.213458
45	0x404fb6b7	3.245527
46	0xbf722be4	-0.9459822
47	0x3e8f9160	0.280406

gru.bias_ih_l0 f4 [12]
0	0xbe2e2a2a	-0.17008272
1	0xbf050c9a	-0.51972353
2	0xbf2e9d99	-0.68209225
3	0xbdd0b792	-0.10191263
4	0xbeaab68a	-0.3334239
5	0x3fb1b25c	1.3882556
6	0xbeda854b	-0.4267982
7	0xbf51c4f8	-0.81941175
8	0x3d4809ff	0.048837658
9	0x3f2ff87a	0.6873852
10	0xbf028630	-0.50986004
11	0xbed4c898	-0.4155929

gru.bias_hh_l0 f4 [12]
0	0xbddeb773	-0.10874834
1	0x3c1399b0	0.00900881
2	0xbf63d859	-0.89001995
3	0x3e0e3ae4	0.13889652
4	0x3d80c74a	0.06288011
5	0x3fe7a5b1	1.809744
6	0xbf1742a4	-0.5908606
7	0xbf385c60	-0.72015953
8	0xbf1e1bb7	-0.6176104
9	0xbec5ede4	-0.3865806
10	0xbf11ba01	-0.56924444
11	0x3e2fcdd1	0.17168356

fc.weight f4 [2, 4]
0	0xc1280b22	-10.502718
1	0x418f420d	17.907251
2	0xc145aa8b	-12.354136
3	0x41d004d2	26.002354
4	0x4124f9bf	10.310973
5	0xc1918b0d	-18.192896
6	0x4141c0c5	12.109563
7	0xc1d30e62	-26.382023

fc.bias f4 [2]
0	0xc098a354	-4.7699375
1	0x409e88e3	4.95421
