datasets/Spirit/model/chronological_noKD(281022).pth (torch, 3671 bytes, 6 tensors)

gru.weight_ih_l0 f4 [12, 30]
00000000: 1a83 a5b2 2683 a5b2 1783 a5b2 1683 a5b2
00000010: 2983 a5b2 1183 a5b2 2883 a5b2 a4d0 5a3e
00000020: 83a8 44bf 00a3 3cbe 7d58 f63e 1177 d2be
00000030: 3937 1dbf 25e8 153f 8308 b53e 99b5 80be
00000040: 73b1 a9be f7b5 93bd 3bfc a73e 3698 063e
00000050: 77d6 6abc cff6 fdbd d3c5 2ebf 46be 1fbf
00000060: 7b3c 183f d424 cfbe 9178 b6bd c006 d0be
00000070: 4d49 40bf a7f7 99bd 0501 2fba 0501 2fba
00000080: 0501 2fba 0501 2fba 0501 2fba 0501 2fba
00000090: 0501 2fba cb62 233f c4b7 9bbf c450 e43d
000000a0: a18d c63e d2e3 0bbf c863 88be 1489 823f
000000b0: 1048 ee3d b2f9 eebe 6d96 0dbf 47d3 8bbe
000000c0: 0a49 4a3e 0cc8 1bbe cb2e 833d 8e52 093d
000000d0: dade 3fbf 8747 36bf ae1b e63e da25 76bf
000000e0: dec5 d7be b065 7fbe abea 41bf 560b 1b3e
000000f0: 0515 4c3c 0515 4c3c 0515 4c3c 0515 4c3c
00000100: 0515 4c3c 0515 4c3c 0515 4c3c 03ca 64bc
00000110: 32eb 9b3e 70e1 2abd c27f a0be 2884 923d
00000120: 18cf 953e 7616 93be 68c9 d3be bd14 0c3e
00000130: 80a1 913e b376 e53c 793d 9ebe d6a6 b6bd
00000140: 3351 c3bd 2b1c 613e cf38 093f ed12 763e
00000150: b785 06bf 2f44 163f 34e6 a6be 8a4f 533e
00000160: c66a 113f 4116 0ebe 0d7d 45bb 0d7d 45bb
00000170: 0d7d 45bb 0d7d 45bb 0d7d 45bb 0d7d 45bb
00000180: 0d7d 45bb b9ea bf3d 578a 05bf 5934 aabd
00000190: e935 12be 1401 a9bf 76e2 58be bef7 a63f
000001a0: c179 9a3c 8805 18bf a022 a8bd e9a8 4dbf
000001b0: 04f9 c63e ec50 5f3f 1b25 a93e c2a0 b5be
000001c0: d725 6ebf 2104 87bf aad2 6f3d 329e 8b3e
000001d0: f860 1dbf 32ff 93be 5ece 49bf 301a 68be
000001e0: 819f ad3a 819f ad3a 819f ad3a 819f ad3a
000001f0: 819f ad3a 819f ad3a 819f ad3a b602 adbf
00000200: 7a5f bebf cba1 6e3f 882c ebbe 2614 cdbf
00000210: 60a5 18bd 699b 743e 8825 cfbe 6577 01bf
00000220: 8b4a 593f 83d0 3bbe 5cc9 0b3f ecf4 1d3f
00000230: 0b3a 41bf 8ff9 9cbf 4ebc f6be 59c8 4fbf
00000240: 27a0 793e 4ef1 b73e 336a 58bf 60d4 c23d
00000250: 53df 5cbe 62be 3b3e 5d75 9a39 5d75 9a39
00000260: 5d75 9a39 5d75 9a39 5d75 9a39 5d75 9a39
00000270: 5d75 9a39 4670 633d 9119 4dbd f5d6 553d
00000280: 11fc 343d 30e5 1f3b f3f5 153d cbc8 0bbc
00000290: 9adc e23b 4fc1 2c3b b6d4 3bbd 6855 cd3c
000002a0: b789 d53c 5188 fdbc edc1 813c db57 ad3c
000002b0: e191 d13c 0bda 4a3d 8622 ec3b 9ad8 f3bc
000002c0: 9857 e43b 4966 883c 24e7 d83c 1e77 3f3d
000002d0: 603d 56bc 326e 6dbc 9105 94bc d7be 6ebc
000002e0: f5ff 6abc 442c 6cbc b91a c0bc 3cba 20bf
000002f0: be70 3abf 5752 f73e 5862 3e3e 06c0 23bf
00000300: 15c4 bdbc ef6f 993e e6ff 8b3c ae68 b4bd
00000310: 5c61 103e e37b b03e bcb4 063f 0e98 8c3e
00000320: 39a7 d6bd 1d3b d3be 8def 243e 4533 24bf
00000330: 1702 17bd 33bd 823e a2aa d8be 2d62 2b3e
00000340: ac9a 19be ca7d c43e af8f 29be 7c85 44be
00000350: 2648 2abe 6b5a 2abe 9130 28be be82 29be
00000360: cfab 3dbe c6df cc3f ae0f ad3e 9d7e 8abf
00000370: c184 c93e 2ba0 983f ba25 893e ed24 35bf
00000380: 34d0 8b3e b910 debc 846d d4bf 90a6 ccbe
00000390: b47b ddbe cc27 92bf b8e6 953f 35a5 e73f
000003a0: 9656 253f 7cc5 653e aca9 74bf b8a1 87bf
000003b0: c7b5 3e3f 69fa 623d 3345 7ebe c52d a3be
000003c0: 6acc 23b5 8ecc 23b5 59cc 23b5 66cc 23b5
000003d0: 9fcc 23b5 3ccc 23b5 d0cc 23b5 3261 eebe
000003e0: b49d 25bf f2f5 5c3f 5331 e4bd e46b 65bf
000003f0: a053 0abf 3ac4 483f e91e 0a3e 571c 4dbf
-1.9268146e-08 -1.9268168e-08 -1.926814e-08 -1.9268139e-08 -1.9268173e-08 -1.926813e-08 -1.9268171e-08 0.21368653
-0.7681963 -0.18421555 0.48114386 -0.41106465 -0.6141239 0.5855735 0.35358056 -0.25138548
-0.33143196 -0.072124414 0.32809624 0.13144001 -0.014333359 -0.12400591 -0.68270606 -0.6239971
0.59467286 -0.40457785 -0.08909715 -0.4063015 -0.7511185 -0.07517939 -0.0006675872 -0.0006675872
-0.0006675872 -0.0006675872 -0.0006675872 -0.0006675872 -0.0006675872 0.6382262 -1.2165456 0.11148217
0.3877993 -0.546445 -0.26638627 1.0198083 0.116348386 -0.46674877 -0.55307657 -0.2730963
0.19754425 -0.1521303 0.064054094 0.033525996 -0.7494942 -0.7120289 0.44942993 -0.96151507
-0.42143148 -0.24941134 -0.757487 0.15141043 0.012456183 0.012456183 0.012456183 0.012456183
0.012456183 0.012456183 0.012456183 -0.013964179 0.30452877 -0.0417189 -0.3134747 0.07154113
0.29259562 -0.28728074 -0.41364598 0.13679786 0.28443527 0.028010702 -0.30906275 -0.0891854
-0.09536972 0.21983401 0.5360231 0.24030657 -0.5254778 0.5869779 -0.32597506 0.2063581
0.5680355 -0.13875677 -0.003013435 -0.003013435 -0.003013435 -0.003013435 -0.003013435 -0.003013435
-0.003013435 0.09370942 -0.52164215 -0.08310766 -0.14278378 -1.3203454 -0.21180138 1.3044355
0.018856885 -0.5938344 -0.08209729 -0.8033586 0.3886186 0.8723285 0.33036122 -0.3547421
-0.9302649 -1.0548135 0.058550514 0.2726913 -0.6147609 -0.28905636 -0.78830516 -0.2266624
0.0013246388 0.0013246388 0.0013246388 0.0013246388 0.0013246388 0.0013246388 0.0013246388 -1.3516452
-1.4872887 0.93215626 -0.45932412 -1.6021774 -0.03726709 0.2388741 -0.40458322 -0.50572807
0.8487937 -0.1834126 0.54604125 0.61701846 -0.7547919 -1.2263659 -0.4819054 -0.8116508
0.243775 0.35926288 -0.8453705 0.095131636 -0.21569566 0.18334344 0.0002946061 0.0002946061
0.0002946061 0.0002946061 0.0002946061 0.0002946061 0.0002946061 0.055526994 -0.05007321 0.052206952
0.0441857 0.002439808 0.03661151 -0.0085317595 0.0069232704 0.0026360338 -0.045857154 0.025065139
0.026066644 -0.03094879 0.015839541 0.021160057 0.025582256 0.04952435 0.007206264 -0.02976637
0.00696845 0.016650336 0.026477404 0.04674446 -0.013076156 -0.014491605 -0.01806906 -0.014571867
-0.0143432515 -0.014414851 -0.023450242 -0.6278417 -0.7282828 0.48305008 0.18592203 -0.6396488
-0.023164788 0.2996821 0.017089795 -0.088090286 0.1409964 0.34469518 0.5261953 0.2745976
-0.10481114 -0.41256037 0.16107006 -0.6414073 -0.036867227 0.25534973 -0.42317683 0.1673667
-0.15000409 0.3837722 -0.16558717 -0.19191545 -0.16629085 -0.16636054 -0.16424777 -0.1655378
-0.18522571 1.600579 0.33801025 -1.0819889 0.39359096 1.1923879 0.26786596 -0.7075947
0.27307284 -0.027107583 -1.6595922 -0.39970827 -0.4325844 -1.1418395 1.1711035 1.8097292
0.64585245 0.22438616 -0.955714 -1.0596228 0.7449612 0.05541459 -0.24831085 -0.31870857
-6.1019693e-07 -6.10199e-07 -6.1019597e-07 -6.101967e-07 -6.1019995e-07 -6.101943e-07 -6.1020273e-07 -0.4655853
-0.6469376 0.8631278 -0.1114222 -0.89617753 -0.5403385 0.7842442 0.13488354 -0.8012137

gru.weight_hh_l0 f4 [12, 4]
00000000: 7b8e 06be c21b c03f 1808 20be 4ad5 12bf
00000010: d5e7 513f 9a2c ad3e 6670 59bd 9786 60bf
00000020: 458a aebe 0211 c3be 60ec 6c3e 2355 1c3e
00000030: abd7 b33c 8896 7c3e 368b 833e ad9e 95bf
00000040: 12cf eebf 97b6 193f a89a 923e 359b 343f
00000050: 24b9 c5bd 566c a73d 0a78 43bf a1ea 88be
00000060: 1679 05bf 3484 f93f 0eac 963f 8a8e e8bf
00000070: bba2 2b3f c467 5f3f 1ff3 9abf a0d4 6bbf
00000080: c98a 123e 50c7 8f3d 8f32 6fbe 31ee 9c3f
00000090: 556e 8ebf 6b57 4e3f 47ba 0f3f 8a19 99bf
000000a0: 7281 79bd 1404 5dbf 17c9 2e3e 8485 563e
000000b0: 59ca 273f f665 35bf 2924 14bf b50c 823f
-0.1314029 1.5008471 -0.15628088 -0.57356703 0.8199437 0.3382309 -0.053085707 -0.8770537
-0.34089866 -0.38098913 0.23137045 0.15266852 0.021953424 0.24666798 0.25692147 -1.1689049
-1.8656943 0.60044235 0.28633618 0.7054933 -0.096544534 0.0817496 -0.7635504 -0.26741508
-0.5213789 1.949347 1.1771257 -1.81685 0.6704518 0.8726771 -1.2105445 -0.92121315
0.14310755 0.07020438 -0.2335913 1.226019 -1.1127421 0.8060214 0.5614361 -1.1960919
-0.060914464 -0.8633435 0.17068897 0.2094937 0.65543133 -0.70858705 -0.57867676 1.0160128

gru.bias_ih_l0 f4 [12]
00000000: 970a dd3e 7c41 3f3e 8fd8 f1bd 94ce a83e
00000010: 7c9a 07bf f3fc a1bf 375f 583e b7e9 b5be
00000020: 13bf 813e a130 893e d798 b43d 4e78 ae3e
0.43172142 0.18677324 -0.118088834 0.32970107 -0.529701 -1.2655319 0.21130072 -0.35529873
0.2534109 0.26794913 0.088182144 0.3407616

gru.bias_hh_l0 f4 [12]
00000000: a049 5a3e 43ff 3d3f 75f2 29bd 215c 8dbe
00000010: 7161 c43d 8415 b4bf 97ea dd3e a466 72be
00000020: d6bc 433e 1fb8 7bbe df6e 8a3e 2cc3 a6be
0.21317148 0.74217623 -0.04149099 -0.2760935 0.09588898 -1.4069066 0.4334304 -0.23671967
0.19115004 -0.24581955 0.27037713 -0.3257078

fc.weight f4 [2, 4]
00000000: f6f8 ce3f efb4 43c0 f70c b4bf de2c 3b40
00000010: 5548 a2bf 39b7 2d40 f99b bb3f 87cb 0ec0
1.6169727 -3.0579183 -1.4066457 2.9246135 -1.2678324 2.714308 1.4656974 -2.2311723

fc.bias f4 [2]
00000000: bd2e 18bf 6a9a 713f
-0.59446317 0.9437624
