datasets/Spirit/model/newgenwithfasttext_lightlog.pth (torch, 10007 bytes, 22 tensors)

resblock1.conv1.weight f4 [3, 20, 3]
000000 30 4c 00 be 6e 4b 0b bd 25 bc 94 3d a6 01 91 bd
       -0.12529063 -0.034007482 0.07262448 -0.070803925
000010 cd 6d 03 3d 45 b5 a3 3d 92 8b 6a bd af 9a 0c bd
       0.032087136 0.07993559 -0.05726201 -0.034327205
000020 8a 02 ea bd d5 3d bf 3d fc af be bc dd 00 fa 3d
       -0.114262655 0.093379654 -0.023277275 0.12207196
000030 5e 0a f0 bc 8c 77 87 bd 71 84 e3 bd ff 3f eb 3d
       -0.029301818 -0.06614599 -0.111092456 0.11486816
000040 24 0a 04 be 41 82 ed bd 34 d3 93 bd db 94 0b bc
       -0.12894493 -0.115971096 -0.07218018 -0.008519377
000050 8b 4b 00 bd 61 6b 01 3d d4 95 1c 3e ed 84 c8 3c
       -0.031322043 0.031596545 0.1529153 0.024477446
000060 20 fd b0 be cc e1 15 3d a3 37 e2 3e 46 f1 3c bd
       -0.3456812 0.03659229 0.44183072 -0.046128534
000070 70 46 49 3c 1b 83 a7 bc 3e 8a 8b be d2 d6 64 3e
       0.01228486 -0.020448258 -0.27253908 0.22347572
000080 2b 3d 01 3c 4a 88 97 be ad 2b ca bd d1 85 c5 3e
       0.007888119 -0.29596168 -0.09871612 0.38578656
000090 28 79 78 3c 57 11 1e 3d 7e c6 f4 3e ab 83 48 3e
       0.015165605 0.038590755 0.47807688 0.19581477
0000a0 b9 ed c6 bd f4 4d 1f bf 40 41 26 be 86 a9 13 bd
       -0.09713311 -0.6222832 -0.16235828 -0.036050342
0000b0 af b2 40 3e ca 46 f8 bd ee c5 96 3e f5 cb de 3e
       0.18818162 -0.12122877 0.29447883 0.43514982
0000c0 7c 01 52 be 35 67 6f be 75 6a 3a 3e 5f 81 44 3d
       -0.20508379 -0.23379214 0.18204673 0.04797494
0000d0 5e d5 4b 3a fc 0c 83 bd a8 5e 13 3e e4 64 59 3e
       0.00077756296 -0.06398961 0.14391577 0.21229893
0000e0 04 f0 b0 bd 34 8f 16 3f 2e cb ec 3d 88 40 f1 bd
       -0.08639529 0.5881226 0.11562191 -0.117798865
0000f0 bc 17 f7 3d dd 7d c6 3c 1c 95 c8 3c 0e e6 b1 3c
       0.12065074 0.024229938 0.024485163 0.021716144
000100 d8 4b 82 3c e3 46 4b bd 24 46 fa 3d 34 11 c2 3d
       0.015905306 -0.04962815 0.122204095 0.094759375
000110 6a 8e af bd d4 5c 59 3c c0 6a f6 bd 53 88 cd 3d
       -0.08572085 0.013266761 -0.1203208 0.100357674
000120 8a e9 c6 3d ca b5 bf 3d 77 c3 bb 3d aa 39 e4 bd
       0.09712513 0.093608454 0.09168141 -0.11143811
000130 f8 c9 e3 bd 60 c9 c1 bd b0 7b f3 bd 87 92 b8 3d
       -0.11122507 -0.09462237 -0.11888826 0.09012323
000140 0c d3 54 bd 37 82 aa be 29 06 1b be e9 06 85 be
       -0.051959082 -0.3330247 -0.15139069 -0.25981835
000150 2f c3 5e 3e 21 c6 e4 3e 04 3f 2c 3e 7e 5a ca bc
       0.21754144 0.4468241 0.16820914 -0.024701353
000160 b3 56 c1 be 14 9e d5 bd 57 79 cb be 10 8b 96 be
       -0.3776146 -0.10430542 -0.39741012 -0.2940297
000170 86 19 3a be 0b 29 1c bf 2f 90 a6 bc 43 e6 a4 be
       -0.18173799 -0.61000127 -0.020332424 -0.32206926
000180 2f 01 11 3c 82 5b 29 3d cb 72 98 be e7 da 44 3d
       0.00885038 0.041347034 -0.2977508 0.048060324
000190 dd 66 a6 3e 1f 32 f1 3e 10 80 42 bc 20 9c d8 3d
       0.32500353 0.47108552 -0.011871353 0.105766535
0001a0 07 b8 08 bd c2 b8 07 bf 2b 1b 1e 3e af b8 c4 bd
       -0.033378627 -0.53016293 0.15440051 -0.09605538
0001b0 1d 86 07 3f 05 b3 12 3e f9 f6 78 bc 4e 0e bd be
       0.52939016 0.14326103 -0.015195602 -0.36924976
0001c0 d7 e9 76 be 31 a4 c8 bd d6 01 d8 3e 77 4c 15 3e
       -0.2411264 -0.09796942 0.421889 0.1457995
0001d0 05 55 c0 3e b8 e2 13 bf 85 21 b5 be 64 d1 c7 be
       0.37564865 -0.5776782 -0.35377136 -0.3902694
0001e0 bf 6b 00 be bd 8c cb bd 57 95 9f bd 0c 27 83 bd
       -0.12541102 -0.09938953 -0.07792156 -0.06403932
0001f0 9f 00 70 3d 21 ee 8c 3b e3 2a c6 bc 17 06 d3 bd
       0.058594342 0.004300848 -0.024190372 -0.10303896
000200 bd 4f cd 3c 2e 6c ce 3c 59 47 cd bb 3f ba 4d bd
       0.025062436 0.025198068 -0.006264609 -0.050226446
000210 ed b8 8a 3d dc ce 33 3d 58 ea fd bb d7 42 f8 bd
       0.06773553 0.04389845 -0.007748883 -0.12122124
000220 7a 5c 7c bd 9d e8 33 3c 19 53 ec ba 8c 6c 90 3d
       -0.06161163 0.010980752 -0.0018030136 0.07051954
000230 91 5d ed bd 3d 81 88 3e cc dc c8 3d fa ce df bd
       -0.11590112 0.266611 0.09807739 -0.109281495
000240 92 5e 17 3e 0c cc c9 3e 6b 2d bf 3e 59 70 5f be
       0.1478217 0.39413488 0.3733934 -0.21820201
000250 c6 1b 80 be fe 1d 23 be bd ef 26 be 4b 42 be be
       -0.2502119 -0.1592941 -0.1630239 -0.37159953
000260 00 db 98 be 3d c5 60 3e 0e df 35 3e a8 79 fb be
       -0.29854584 0.2195024 0.1776087 -0.49116254
000270 ff 23 5c 3e 85 28 69 3e cd 26 40 3d 9e 83 24 3e
       0.21498106 0.22769363 0.046912003 0.16065833
000280 56 2b bb 3e f3 8b f0 3e af 15 b2 3d c3 cc 68 bc
       0.365565 0.46981773 0.08695542 -0.014208975
000290 47 4b 9f bd 30 7f 69 3e 07 9b 6e 3e e7 ed ae 3c
       -0.0777803 0.22802424 0.23301326 0.021353675
0002a0 3a a9 f7 3d 4d 28 f1 3e 71 e3 15 3f a0 e4 d6 bc
       0.12092824 0.4710106 0.58550173 -0.026232064
0002b0 5d 6a 5b be 3d 69 4b be 0b 76 56 be 02 37 a5 be
       -0.21427293 -0.19864364 -0.20943467 -0.3226853
0002c0 b6 c0 67 bd 4c b8 5c 3d 2e 0d 12 bf 8e 86 38 bf
       -0.056580268 0.053886697 -0.5705136 -0.72080314

resblock1.conv1.bias f4 [3]
000000 58 02 23 bd 8a ca 04 be 3a e7 2e be
       -0.039797157 -0.12967888 -0.17080393

resblock1.conv2.weight f4 [1, 3, 3]
000000 70 c7 c5 be 81 63 81 bf 36 d3 70 bf a3 58 9a bf
       -0.3862872 -1.0108491 -0.9407228 -1.20583
000010 64 23 62 bf 94 f9 00 3e 5e f8 25 bf 64 ab 52 bf
       -0.8833525 0.12595206 -0.64832103 -0.8229277
000020 20 38 83 be
       -0.25628757

resblock1.conv3.weight f4 [3, 20, 3]
000000 66 48 a9 bd 68 92 02 3e 7f 1b 97 bd 4f fd 29 bd
       -0.08265762 0.12751162 -0.07378291 -0.04150134
000010 e6 07 51 3d c5 9b bb bd bd 60 c3 ba c1 b2 ab 3d
       0.051032923 -0.0916057 -0.001490615 0.08383704
000020 99 ec 4d 3c b2 cc 8e 3d 2b 53 34 3d 71 62 26 bd
       0.012568616 0.06972636 0.044024628 -0.040621225
000030 c7 8d f5 3d 88 de c7 3c 14 7a e6 3d f4 7d 9a bd
       0.119899325 0.024398103 0.11253753 -0.07543555
000040 ec e0 d7 3c c3 d2 d9 3d c6 04 11 bd 49 29 cd bd
       0.026352368 0.10635903 -0.035404943 -0.1001764
000050 12 f0 4a bc 27 29 89 3f d7 b5 66 3f a5 f3 0d 3f
       -0.012386339 1.0715684 0.90121216 0.554499
000060 a1 d8 c7 3e 53 45 6f 3e e3 aa b8 b9 77 b1 35 bf
       0.39032462 0.23366289 -0.00035222535 -0.70973915
000070 1d 15 93 be 1e 29 43 be fc f8 2b bf a8 69 86 bf
       -0.28727046 -0.19058654 -0.67176795 -1.0500994
000080 4e e9 30 bf be 3a f7 3e 07 cd 9f 3e 77 e0 82 3c
       -0.69105995 0.48287004 0.3121111 0.015976174
000090 41 ec ad 3e 8e dd ed 3e fc de 5d 3d a1 01 82 bf
       0.3396931 0.46458095 0.054167733 -1.0156747
0000a0 9b 26 e7 be 05 c4 09 bd 4b 01 79 bf 57 6c 23 bf
       -0.4514664 -0.033634204 -0.972676 -0.6383719
0000b0 1b e4 08 bf 99 01 59 bf ba f2 5c bf d3 8f 75 be
       -0.5347306 -0.8476806 -0.8630787 -0.23980646
0000c0 c4 10 52 bf 92 32 73 bf 3b 9c f5 be ba 16 ee 3b
       -0.8205683 -0.9499904 -0.47970757 0.007265893
0000d0 c2 2e 2a 3e bb 5c 11 3f 32 71 f8 be 2b 4b 44 bf
       0.16619399 0.5678212 -0.4852386 -0.766772
0000e0 46 28 0a bf cb b3 b6 3d 31 80 f9 bc de a6 3b 3e
       -0.539677 0.089210115 -0.030456634 0.18325374
0000f0 f8 9d 12 3d c9 6a f3 bd be 31 dd bd 67 95 f7 bc
       0.035795182 -0.11885602 -0.10800503 -0.030222608
000100 70 ba f8 bd 14 c1 85 bd 2d 0e b1 3d 35 51 4d bd
       -0.12144935 -0.06530967 0.08645282 -0.050126273
000110 46 09 c9 3d 5a fc 95 3d 05 89 bc bc 27 e1 0b 3d
       0.09816222 0.07323523 -0.023014555 0.03415027
000120 50 35 d2 bd 9b c7 54 3d ee bb f8 3d 73 12 a6 bd
       -0.10264075 0.05194817 0.1214522 -0.08108988
000130 20 7a 1d bd ee 6d ef 3d 8e ed b0 3d 5e ee 41 3d
       -0.038446546 0.11690889 0.0863906 0.047346465
000140 74 91 92 bd 2b 30 78 3e 67 51 2a 3e 00 e9 e1 3d
       -0.07156649 0.24237125 0.16632615 0.11030769
000150 36 98 ae 3e 90 b9 2d 3d 63 27 49 3d a1 bf cf 3d
       0.34100503 0.042413294 0.049109828 0.10143972
000160 29 03 df 3d d1 29 1b bd 32 f9 86 bc 02 30 04 bd
       0.108892746 -0.037881676 -0.016476247 -0.032272346
000170 8a 67 ab be 75 05 25 3e 56 54 7e be 14 c7 17 be
       -0.33477432 0.16115363 -0.24836859 -0.14822036
000180 d2 24 5e bd 2b 03 67 bd 2b a9 e3 be 20 33 bb be
       -0.054234333 -0.056399506 -0.44465002 -0.36562443
000190 40 07 5c be 51 fb c3 be 4c 3c 0d 3e 36 05 cc 3e
       -0.2148714 -0.38277677 0.13792533 0.39847726
0001a0 3c 6d de 3e 9b af b2 3e 12 88 0b 3e cc f5 76 3c
       0.43442714 0.348996 0.13626125 0.015073251
0001b0 e3 79 98 3e b8 e1 1b be 12 cd bf be 00 30 bc bc
       0.29780492 -0.15222824 -0.37461144 -0.022972107
0001c0 85 50 b9 be 17 08 6f bf 04 41 14 3e 27 8f 44 3d
       -0.36194244 -0.9337172 0.14477926 0.047988083
0001d0 28 4d 83 3d be 38 32 3e eb 40 41 3e 85 e8 92 3e
       0.06411201 0.17404458 0.1887242 0.28693023
0001e0 aa d9 aa 3c dd 99 c6 3d 55 d6 4e bd 65 96 8b 3d
       0.020855743 0.09697316 -0.05049737 0.06815795
0001f0 7d 39 e1 bc 9a 03 85 bd 8a bb 8c 3d f0 48 ae 3d
       -0.027493233 -0.064948276 0.06871708 0.085100055
000200 a1 64 03 be 74 b6 7f bc ce 5b ff 3d b8 b1 0e bd
       -0.12831356 -0.015607465 0.12468682 -0.034837455
000210 e9 6a 81 3d 7a e8 50 3c d9 52 c6 bd e1 bd 2b 3d
       0.063192196 0.012750739 -0.09683771 0.04192913
000220 cf 66 06 3d 84 ed 08 bd 16 a9 4b bd db 18 84 bc
       0.03281289 -0.033429638 -0.0497218 -0.016125133
000230 0a 58 df bd 47 4f ed bd 38 f2 83 be 14 b4 53 be
       -0.10905464 -0.115873866 -0.25770736 -0.20674163
000240 f3 c5 80 3e 46 ed 89 3d 2f b8 30 be cb f6 b7 3d
       0.25151023 0.067347094 -0.1725776 0.08982619
000250 5d f9 39 3e 14 de 46 be 78 13 3a 3e 66 a4 93 3e
       0.18161531 -0.19420654 0.18171489 0.28836364
000260 9e 6e a4 bc d0 49 27 3e e6 a0 70 3e ac 9a 28 3e
       -0.020072278 0.16336751 0.23498878 0.16465253
000270 06 57 09 3e 0c 33 80 3e 3d 46 22 3e fd 19 87 3e
       0.13412103 0.25038946 0.15847106 0.26387015
000280 a2 9f bc 3e 71 ca 26 3f e8 46 2e bc b7 96 e7 3d
       0.3684054 0.6515265 -0.010637023 0.113080435
000290 b7 a9 54 3e 92 ac 8d 3e 0a e5 98 3d 88 6b 88 3d
       0.20767866 0.27670723 0.07465561 0.06661135
0002a0 e0 1b 02 3f d1 fa 70 3e 42 0c c8 3e 43 0f 14 3f
       0.50823784 0.23533179 0.39071852 0.5783579
0002b0 f0 a0 59 3f 60 33 2f bd 47 9f a9 3d 7a 60 fb 3d
       0.85011196 -0.042773604 0.08282333 0.12274261
0002c0 fe f2 aa 3d c6 90 95 3d f4 75 5f be c5 36 cb bd
       0.08347128 0.07303004 -0.2182234 -0.09922556

resblock1.conv3.bias f4 [3]
000000 f0 19 43 3e c7 a3 87 3c f9 09 b7 bc
       0.19052863 0.016557587 -0.022343623

resblock2.conv1.weight f4 [3, 3, 3]
000000 a9 00 bb 3e 9c 5c 36 be 08 68 0d be 33 17 59 bf
       0.3652394 -0.17808765 -0.13809216 -0.84801024
000010 e5 c4 45 bf 82 13 b0 be c5 7c 4b bf 9b a7 0d bf
       -0.7725356 -0.34389883 -0.7948726 -0.5533387
000020 b2 71 13 bf f1 70 d6 3c 7e c4 cd 3d 86 72 34 3e
       -0.5759536 0.026176902 0.100472435 0.17621812
000030 0c 14 1d 3f 86 e1 28 3e 1e 10 fd 3e 26 c8 26 3f
       0.61358714 0.1649228 0.4942636 0.6514915
000040 bb d0 31 3f 64 9d 12 3f 8f b3 90 bd 1e 8f bf 3d
       0.6945912 0.5727141 -0.07065498 0.09353469
000050 85 37 9d bd 16 08 13 3d 93 eb 33 be 72 b1 4f bd
       -0.07676605 0.035896383 -0.17570333 -0.050706334
000060 c0 f6 ed bd c0 ae 41 bd d9 92 04 3e
       -0.116193295 -0.047285795 0.12946643

resblock2.conv1.bias f4 [3]
000000 3d ba a0 3e 4c c6 06 3d 04 5b fa bd
       0.3139209 0.032903954 -0.12224391

resblock2.conv2.weight f4 [1, 3, 3]
000000 ac 3f 96 bf c1 80 22 bf e0 35 a2 bf be 66 ca 3e
       -1.1738181 -0.6347771 -1.2672691 0.3953151
000010 a5 e3 20 3f a8 f8 d3 3e b3 80 f0 3d 47 c3 9a 3e
       0.6284736 0.41400647 0.117432974 0.3022711
000020 6e 54 05 3e
       0.13020489

resblock2.conv3.weight f4 [3, 3, 3]
000000 b3 73 9c 3e 6b fe 93 bd b0 af 8f 3e eb ea 65 3e
       0.30557021 -0.07226261 0.28063726 0.22452895
000010 ab ea 61 3d 93 ff 90 be b4 02 94 be 6e 0f 95 be
       0.055155437 -0.28319988 -0.28908312 -0.29113334
000020 50 e7 76 be 00 e3 35 be a0 b5 2f bd 0b 8f 87 3e
       -0.24111676 -0.17762375 -0.04289782 0.2647632
000030 86 42 62 be 16 92 90 bc 22 d3 8f be bb b6 f6 bd
       -0.22095689 -0.017647784 -0.2809077 -0.12046572
000040 03 06 a1 be 33 2a 10 be 50 96 35 3e 88 1d 16 3e
       -0.314499 -0.14078598 0.17733121 0.14659703
000050 f6 96 19 3e 5b b3 c9 3d 4b 5d 91 be 56 40 0b 3c
       0.14998993 0.098486625 -0.2839149 0.008499226
000060 c6 4c 62 be 4e dc 2e 3e a6 e4 b6 3d
       -0.22099599 0.17076227 0.0893033

resblock2.conv3.bias f4 [3]
000000 7b e6 c1 bd 46 9d 34 3e 2f d1 a4 3e
       -0.09467789 0.1763812 0.32190844

resblock3.conv1.weight f4 [3, 3, 3]
000000 56 67 53 3f ea 29 82 3e 84 1e 80 3e 63 20 23 3f
       0.82579553 0.25422603 0.25023282 0.63721293
000010 ab 80 b1 3e 26 6e 86 be 8e 95 98 3e 82 05 ca 3c
       0.34668478 -0.26255912 0.298016 0.02466083
000020 c0 e6 41 be 67 69 8a bd 6a 5e 9b be 73 77 98 be
       -0.1893568 -0.06758385 -0.3034547 -0.29778633
000030 58 ae 20 3b fc f5 88 3e 10 a7 84 3e a1 53 0a be
       0.002451798 0.2675017 0.2590871 -0.13508464
000040 f2 d7 0b 3e 7b f7 98 be 4f 14 00 3f e7 2c 23 3e
       0.13656595 -0.29876313 0.5003099 0.15935098
000050 f1 70 7c be b6 e7 10 3f 35 0a 47 be 22 c7 81 bf
       -0.24652459 0.5660356 -0.19437487 -1.0138896
000060 bd ed 25 3e bf dd 93 be 40 e2 65 bf
       0.16203971 -0.28880116 -0.89798355

resblock3.conv1.bias f4 [3]
000000 44 1c 42 be 07 3f c2 be 47 fb 6b 3e
       -0.18956095 -0.3793871 0.23045073

resblock3.conv2.weight f4 [1, 3, 3]
000000 07 6f ba 3e 6d d7 47 3e 27 21 f3 be eb e0 e5 3d
       0.36412832 0.19515772 -0.4748623 0.1122454
000010 9e 70 ab be 5a 0a 9a 3e 35 07 57 bf fb 60 77 bf
       -0.33484358 0.30086023 -0.8399537 -0.96632355
000020 27 31 b0 bf
       -1.3765

resblock3.conv3.weight f4 [3, 3, 3]
000000 83 e2 9d 3e 96 01 8a 3e 18 1c 97 be 16 67 ad bc
       0.30836877 0.26954335 -0.2951362 -0.02116732
000010 0b 1a 4f 3d 80 4c 74 be ab 18 18 3b a3 1a 91 be
       0.050561946 -0.23857307 0.0023208063 -0.28340635
000020 40 52 a7 3c 2b 23 0d 3e cb 6a 6c 3e 38 8e 78 3e
       0.020424962 0.13782947 0.23087613 0.24273002
000030 f6 d8 56 3d 30 01 a1 bd e8 fb 19 be c4 bb 83 3e
       0.052453004 -0.078615546 -0.15037501 0.2572919
000040 eb 0c a1 be 4b 80 df bd de 1c 36 3e ae 8a 44 be
       -0.31455168 -0.10913142 0.1778445 -0.19193527
000050 96 1c 68 bd db cf 14 be 56 4d 1f 3c 08 bd 6d be
       -0.056667887 -0.14532416 0.009723028 -0.23216641
000060 a6 a2 1d 3e e0 84 34 3d 93 1f 95 be
       0.15394077 0.044072032 -0.29125652

resblock3.conv3.bias f4 [3]
000000 20 44 d8 bd b6 ea d7 bd 30 9e fe bd
       -0.10559869 -0.105428144 -0.124325156

resblock4.conv1.weight f4 [3, 3, 3]
000000 b1 86 b2 3e ec c5 7a bc b2 e7 54 be 31 2f 4d 3f
       0.34868386 -0.015305977 -0.2079151 0.80150133
000010 ba 3d 27 3f e8 af 26 3c 20 7e 12 3f dd 3f 75 3e
       0.6532856 0.010173775 0.572237 0.23950143
000020 d2 b2 9a 3e 56 16 9c 3e ee 13 39 3d 0c ac f7 bd
       0.30214554 0.3048579 0.045185022 -0.12093362
000030 80 2c 21 3f b7 dd 48 3d 3a 10 08 3f ad aa 05 3e
       0.62958527 0.04903957 0.5314976 0.13053389
000040 83 6b 0a 3d 30 13 77 3e 50 cc 3f 3f b5 e8 1b bf
       0.033793937 0.24128413 0.7492113 -0.6090196
000050 39 ad bc 3e 3f 2b 0c 3e 1c 63 37 bf b2 20 5f 3e
       0.36850908 0.13688372 -0.71635604 0.21789816
000060 d6 4e 93 3d 09 3e 9c bf 5d 26 c1 be
       0.07192771 -1.2206432 -0.3772458

resblock4.conv1.bias f4 [3]
000000 14 b3 76 be ff 32 50 be fd 98 58 3f
       -0.2409175 -0.20331953 0.8460844

resblock4.conv2.weight f4 [1, 3, 3]
000000 78 55 1a 3f 62 62 28 be 29 e1 e3 3d 19 5a f7 3e
       0.60286665 -0.1644378 0.1112693 0.48310927
000010 8f aa 8a 3e b8 74 48 3e 20 32 f9 bf b4 84 ac bf
       0.2708325 0.19575775 -1.9468422 -1.3477998
000020 09 0f 20 c0
       -2.5009177

resblock4.conv3.weight f4 [3, 3, 3]
000000 2e d1 59 be 20 35 a1 3d cb 1f 6b be a8 03 79 3e
       -0.21271202 0.07871461 -0.22961347 0.24317801
000010 9e bf 26 3e a8 47 50 be 18 6d a9 be 1e 4a 9c be
       0.16284034 -0.20339835 -0.33091044 -0.30525297
000020 80 4e 3f 3d db ab 7c 3e 3e 17 37 be a0 9a 3f 3e
       0.046705723 0.24674933 -0.1787996 0.18711329
000030 f6 f3 41 be f0 d6 f0 bd 8c bc a8 be 08 72 9f 3e
       -0.1894072 -0.11759746 -0.3295635 0.31141686
000040 eb 0e 0c 3e 00 79 c3 3d 4b 09 0b 3d 46 ff 92 3d
       0.13677566 0.09544563 0.03394441 0.07177596
000050 d6 5b 41 be 53 cb 80 be 33 ae 7d 3e 13 d8 40 3e
       -0.18882689 -0.25155124 0.24773483 0.18832426
000060 ab 43 80 bc 63 3b 58 be 6b 19 8e 3d
       -0.015657267 -0.21116404 0.06938442

resblock4.conv3.bias f4 [3]
000000 96 53 d3 bc 47 86 88 be 63 d6 4d be
       -0.025796693 -0.26664945 -0.20101313

fc.weight f4 [2, 3]
000000 78 a1 12 3f cc 9c 7f 3f 07 28 43 3e 42 3a 2f 3e
       0.5727763 0.9984863 0.19058238 0.17112067
000010 58 df 0d bf e5 10 4d bf
       -0.5541892 -0.80103904

fc.bias f4 [2]
000000 30 5e 18 c0 c3 0a 58 40
       -2.3807487 3.3756568
