datasets/Spirit/model/no-attention-teacher.pth (torch, 644963 bytes, 10 tensors)

gru.weight_ih_l0 f4 [384, 30]
-0.00027588036 -0.00027588036 -0.00027588036 -0.00027588036 -0.00027588036 -0.00027588036 -0.00027588036 -0.03040564
0.046619546 0.02750078 0.030235121 0.0003927623 -0.0013353807 -0.05160291 0.03431456 -0.019685261
-0.021601912 0.01672217 0.005488206 0.030353304 -0.027601304 -0.047129694 -0.027236635 0.012939068
-0.011000555 -0.04402171 -0.020275936 0.015185695 0.0056019016 0.00979371 -4.331195e-07 -4.331195e-07
-4.331195e-07 -4.331195e-07 -4.331195e-07 -4.331195e-07 -4.331195e-07 0.0009688274 -0.00021443152 0.00060555415
0.00070024456 0.0011897733 -0.000520629 -2.7446944e-05 0.000415565 0.00051159685 -0.0004804425 -0.00028761273
0.0012869624 0.0006626087 0.00062567106 0.0004376894 0.00017050645 -0.00018299904 -0.00013512623 -0.0004326844
0.00012570267 0.00019886851 0.00038702766 -0.00054112356 -1.36931385e-05 -1.36931385e-05 -1.36931385e-05 -1.36931385e-05
-1.36931385e-05 -1.36931385e-05 -1.36931385e-05 0.0016460863 -0.00757444 -0.00039405713 -0.011131944 0.009093499
-0.0049464568 0.001121292 -0.012840229 -0.008429024 0.007408621 0.007455719 0.0060801446 0.011910428
-0.0013211047 -0.002947726 -0.0045459955 0.0027584343 0.004186257 0.0005145513 -0.0013264247 0.0013011904
-0.00377248 0.0050674723 0.0017365465 0.0017365465 0.0017365465 0.0017365465 0.0017365465 0.0017365465
0.0017365465 -0.020574974 0.007841364 0.0018191342 -0.013024058 -0.00606385 0.01335831 -0.014737372
0.014805614 0.0072081517 8.456089e-06 0.003821482 -0.003058189 0.013333828 -0.007286849 -0.017091053
0.012117423 0.0037290386 0.012699844 -0.00091998046 0.0032221677 -0.0011002274 -0.00552439 0.0018124962
0.0004237505 0.0004237505 0.0004237505 0.0004237505 0.0004237505 0.0004237505 0.0004237505 -0.027914086
0.011148076 -0.0077258795 -0.013995453 -0.007956257 0.017273085 -0.0041433945 0.022483047 0.010426787
0.00070705847 0.005294693 -0.008400217 0.01016303 -0.012044739 -0.010889258 0.015270649 0.003386197
-0.0025644542 -0.0032485838 -0.0012368417 -0.013473998 -0.00265877 0.0033589457 -4.5274473e-06 -4.5274473e-06
-4.5274473e-06 -4.5274473e-06 -4.5274473e-06 -4.5274473e-06 -4.5274473e-06 0.00018771952 -2.9477946e-05 6.851076e-05
0.00046470843 -4.309784e-06 -0.0001365379 -2.8532268e-05 1.3788725e-05 6.735589e-05 -9.619666e-06 8.474474e-05
4.1847175e-05 -0.000117929856 0.00012655584 4.4902135e-05 0.0002832672 1.5279336e-05 -0.000112965565 -3.0984775e-05
-2.4320265e-05 0.00014572119 0.00017656111 3.5765577e-06 -2.4493577e-06 -2.4493577e-06 -2.4493577e-06 -2.4493577e-06
-2.4493577e-06 -2.4493577e-06 -2.4493577e-06 0.00094805524 -0.0003309964 0.00050946645 0.0008634237 0.0011208148
-0.00062960136 -7.373407e-05 0.0005102701 0.0005885335 -0.0006468364 -6.847672e-05 0.0014163086 0.00052986084
0.0007273154 0.00040086836 0.00048866856 -9.224993e-05 -0.0003252941 -0.00050374435 0.0001433865 0.00022357558
0.0005069809 -0.00045205245 -4.3752934e-06 -4.3752934e-06 -4.3752934e-06 -4.3752934e-06 -4.3752934e-06 -4.3752934e-06
-4.3752934e-06 0.0008581386 -0.00024611157 0.00023613614 0.0013114937 0.0008120675 -0.0007250276 -0.00033623347
0.00017597186 0.00039243035 -0.00038138812 7.491613e-05 0.001060762 -0.00010799211 0.00071751483 0.00012540574
0.0010783284 4.3426095e-05 -0.00021423929 -0.00029299254 -0.000168342 0.0005240268 0.00070933515 -0.00011423861
-0.0002396983 -0.0002396983 -0.0002396983 -0.0002396983 -0.0002396983 -0.0002396983 -0.0002396983 -0.023609588
0.053426627 0.033412844 0.04077651 0.0038390327 -0.0032241412 -0.056044593 0.03074817 -0.030243848
00000000: 09a4 90b9 09a4 90b9 09a4 90b9 09a4 90b9
00000010: 09a4 90b9 09a4 90b9 09a4 90b9 4015 f9bc
00000020: 23f4 3e3d 5149 e13c a5af f73c aaeb cd39
00000030: f107 afba 935d 53bd 6d8d 0c3d fc42 a1bc
00000040: 7ef6 b0bc effc 883c 69d6 b33b 7ea7 f83c
00000050: 211c e2bc 110b 41bd 5d1f dfbc 62fe 533c
00000060: ac3b 34bc 1c50 34bd b819 a6bc 6ccd 783c
00000070: 2890 b73b cc75 203c 7e87 e8b4 7e87 e8b4
00000080: 7e87 e8b4 7e87 e8b4 7e87 e8b4 7e87 e8b4
00000090: 7e87 e8b4 e8f8 7d3a 06d9 60b9 0dbe 1e3a
000000a0: 9e90 373a 2bf2 9b3a d27a 08ba dd3d e6b7
000000b0: 31e0 d939 af1c 063a e7e3 fbb9 baca 96b9
000000c0: 4baf a83a ebb2 2d3a 1304 243a ad79 e539
000000d0: fac9 3239 6ee3 3fb9 acb0 0db9 ebd9 e2b9
000000e0: 0ecf 0339 5c87 5039 f9e9 ca39 30da 0dba
000000f0: 95bb 65b7 95bb 65b7 95bb 65b7 95bb 65b7
00000100: 95bb 65b7 95bb 65b7 95bb 65b7 7ec1 d73a
00000110: 0233 f8bb 7499 ceb9 c262 36bc e6fc 143c
00000120: e315 a2bb 51f8 923a d35f 52bc e419 0abc
00000130: 04c4 f23b 1b4f f43b f33b c73b f523 433c
00000140: eb28 adba a32e 41bb 93f6 94bb d9c6 343b
00000150: de2c 893b f4e2 063a 6ddb adba b48c aa3a
00000160: b63b 77bb 0a0d a63b d59c e33a d59c e33a
00000170: d59c e33a d59c e33a d59c e33a d59c e33a
00000180: d59c e33a d98c a8bc 1079 003c 0470 ee3a
00000190: dc62 55bc 43b3 c6bb d0dc 5a3c 0575 71bc
000001a0: 3f93 723c 5c32 ec3b a0de 0d37 d471 7a3b
000001b0: e66b 48bb 2176 5a3c 85c6 eebb 8902 8cbc
000001c0: 2888 463c e362 743b 0213 503c d82a 71ba
000001d0: 012b 533b 8135 90ba f105 b5bb 4891 ed3a
000001e0: d42a de39 d42a de39 d42a de39 d42a de39
000001f0: d42a de39 d42a de39 d42a de39 15ac e4bc
00000200: 6ba6 363c 6029 fdbb 2f4d 65bc f65a 02bc
00000210: 4980 8d3c 50c5 87bb 5e2e b83c 1dd5 2a3c
00000220: e459 393a 1b7f ad3b 10a1 09bc d682 263c
00000230: 4c57 45bc dc68 32bc bf31 7a3c f5ea 5d3b
00000240: 6710 28bb 31e6 54bb 851d a2ba 0bc2 5cbc
00000250: c23e 2ebb c221 5c3b 7aea 97b6 7aea 97b6
00000260: 7aea 97b6 7aea 97b6 7aea 97b6 7aea 97b6
00000270: 7aea 97b6 93d6 4439 6847 f7b7 6fad 8f38
00000280: 1ca4 f339 c39c 90b6 9d2b 0fb9 9458 efb7
00000290: 1f56 6737 6b41 8d38 2764 21b7 fcb8 b138
000002a0: 1085 2f38 1c51 f7b8 13b4 0439 4d55 3c38
000002b0: 7b83 9439 202c 8037 ede7 ecb8 a6f5 01b8
000002c0: 5f03 ccb7 bccc 1839 4323 3939 cb04 7036
000002d0: a55f 24b6 a55f 24b6 a55f 24b6 a55f 24b6
000002e0: a55f 24b6 a55f 24b6 a55f 24b6 e986 783a
000002f0: 9689 adb9 b78d 053a 6257 623a 4ee8 923a
00000300: d50b 25ba ada1 9ab8 a6c3 053a d147 1a3a
00000310: 7590 29ba 299b 8fb8 6ea3 b93a 5ce6 0a3a
00000320: 4fa9 3e3a a42b d239 fe19 003a 4e76 c1b8
00000330: 3c8c aab9 b60d 04ba 055a 1639 9d6f 6a39
00000340: eae6 043a 7401 edb9 7ccf 92b6 7ccf 92b6
00000350: 7ccf 92b6 7ccf 92b6 7ccf 92b6 7ccf 92b6
00000360: 7ccf 92b6 b5f4 603a 8908 81b9 509b 7739
00000370: 6de6 ab3a ede0 543a c70f 3eba 7e48 b0b9
00000380: 1685 3839 1cbf cd39 0cf5 c7b9 4b1c 9d38
00000390: 4409 8b3a d379 e2b8 9b17 3c3a 597f 0339
000003a0: b256 8d3a 6a24 3638 6ca5 60b9 cb9c 99b9
000003b0: f684 30b9 d85e 093a adf2 393a 6393 efb8
000003c0: 8657 7bb9 8657 7bb9 8657 7bb9 8657 7bb9
000003d0: 8657 7bb9 8657 7bb9 8657 7bb9 e568 c1bc
000003e0: e1d5 5a3d e8db 083d 4505 273d 4898 7b3b
000003f0: 1d4c 53bb 048f 65bd 96e3 fb3c f2c1 f7bc

gru.weight_hh_l0 f4 [384, 128]
0.09206761 0.009290697 0.0003451165 0.00616302 0.003555767 -0.005750196 0.011473872 -0.0100750495
0.08483119 -0.0008853912 -0.033744756 -0.007868223 0.010700551 0.000584626 0.010719905 -0.0067982613
-0.028226463 -0.009291146 -0.009980329 0.0069118813 0.007938376 -0.0013721995 0.008621594 -0.010707227
-0.0049675507 -0.0118765645 0.008951976 0.0030052722 -0.005495556 -0.008110413 0.008112933 0.0002351941
-0.035783947 -0.010006808 0.0046791183 -0.008967374 0.009588821 0.005744857 -0.010120522 -0.048327398
0.013649783 0.008692622 -0.00047404593 -0.0048674215 0.0068033407 0.0042931084 0.0083847055 -0.03733846
0.038059626 -0.0066546598 0.00354356 -0.007083671 0.028364949 -0.00065695384 -0.0076861307 -0.0001928657
-0.010233255 -0.008980587 -6.243559e-05 -0.003080702 0.0077355825 0.00023517081 -0.007278581 0.008454239
-0.009065281 0.005835338 0.009459202 0.06105099 0.008964951 -0.0043554376 0.0020541027 -0.010263795
-0.012398676 0.005944233 0.003487106 -0.007638587 0.0012332788 -0.007941893 0.0344518 -0.009239059
-0.010329462 -0.008170955 -0.0016134534 0.0086071575 -0.0060047354 0.002451645 0.009076817 -0.0065491977
0.0015372012 0.0036349823 0.011105557 0.05277091 -0.007715291 -0.004618276 0.0100535955 0.015142476
-0.09855257 0.008138776 0.009003487 0.0017049321 -0.0024026032 0.008198561 0.050706185 -0.0077754506
0.0009897734 -0.004832281 -0.035034698 -0.056410827 -0.001725789 -0.008720827 0.010128911 0.0103761535
0.047797743 -0.038233943 -0.008774746 0.008807019 0.022630623 0.009230783 -0.021481527 0.024686519
-0.0008500287 0.0039186333 -0.007448512 0.0004070732 -0.009997976 0.0024314695 0.008675789 -0.014424602
0.0003866429 -0.00016319193 0.0013473482 -0.0006418509 -0.000817132 -5.0596263e-05 -0.00012455578 8.5689084e-05
0.00078111055 -7.350657e-05 0.0004078592 5.7730365e-05 -0.00017076098 0.00011578349 -0.00013528155 3.7491696e-05
4.3109594e-05 6.0753224e-05 5.0363175e-05 8.819385e-06 4.8490114e-05 -0.00010108011 -9.478005e-05 8.41788e-05
4.691257e-05 0.00012685863 -3.7313846e-05 5.8495378e-05 -0.0004211821 4.5449422e-05 7.746647e-05 6.7141636e-06
8.7771834e-05 7.55919e-05 9.86225e-05 -1.8669247e-05 -7.3598065e-05 2.6265603e-05 0.00011758913 0.00042270415
-0.0006376639 -1.2909535e-05 3.9149032e-05 -7.81979e-05 3.559498e-05 0.0005629441 -1.1902484e-05 0.00029911543
0.0007127014 -2.7622284e-05 -7.323374e-06 -4.426799e-05 -0.00033630588 -1.1157722e-06 4.8805605e-06 8.479727e-05
3.399598e-05 2.1322103e-05 -4.072523e-05 -3.3693686e-05 -1.7834043e-05 3.1036047e-06 -7.448575e-05 -0.0001305423
-0.00016844923 -9.201606e-05 -2.7371074e-05 0.000704218 -7.7841705e-06 1.44374635e-05 6.0596787e-05 1.489821e-05
-0.00019920012 -7.478198e-05 -0.00012738435 9.014717e-05 4.1772237e-05 4.4988567e-05 -0.0009144822 7.3352685e-06
0.00010637643 -2.9137393e-05 -7.695791e-05 -4.6764024e-05 -7.8299956e-05 7.3892224e-06 -0.00012684686 0.00011394139
-1.5960128e-05 7.4708376e-05 0.0002250237 0.00018824899 -6.819884e-05 7.095315e-05 8.876641e-05 0.00092299486
-0.0004444189 -1.5914507e-05 -1.3464305e-05 -2.0966114e-05 0.00011048508 -5.8481866e-05 -0.0020249658 4.279843e-05
2.5315387e-06 4.2266965e-05 0.00040532654 -0.00022685196 -6.9348807e-06 -3.828772e-06 -3.0519896e-05 -7.6820535e-05
2.298743e-05 0.00048745095 1.7937615e-05 -4.6429952e-05 -0.00017088669 -7.1561044e-05 -7.795485e-06 -0.0002786057
-6.966154e-05 -6.934608e-05 -6.545353e-05 -3.2030657e-05 0.000106662315 0.00010387478 -8.10332e-05 0.0011851102
00000000: f18d bc3d 0238 183c c1f0 b439 29f3 c93b
00000010: df07 693b 246c bcbb e8fc 3b3c d211 25bc
00000020: fabb ad3d 9919 68ba f137 0abd b8e9 00bc
00000030: 5d51 2f3c 9641 193a 8aa2 2f3c f3c3 debb
00000040: 2f3b e7bc e439 18bc 8984 23bc 107d e23b
00000050: f60f 023c 60db b3ba 9641 0d3c 5d6d 2fbc
00000060: d6c6 a2bb ec95 42bc 4fab 123c 1af4 443b
00000070: 1114 b4bb 8ae1 04bc 1bec 043c 6f9e 7639
00000080: 3092 12bd 98f3 23bc 4a53 993b e5eb 12bc
00000090: 6e1a 1d3c 5a3f bc3b 8cd0 25bc f3f2 45bd
000000a0: 57a3 5f3c 806b 0e3c 5e89 f8b9 e47e 9fbb
000000b0: 8fee de3b 34ad 8c3b 0160 093c 37f0 18bd
000000c0: 69e4 1b3d 550f dabb 123b 683b 241e e8bb
000000d0: 9c5d e83c 6d37 2cba f0db fbbb fe3b 4ab9
000000e0: 62a9 27bc 5023 13bc daef 82b8 9ae5 49bb
000000f0: c57a fd3b 2f98 7639 2a81 eebb a683 0a3c
00000100: 8b86 14bc 5d36 bf3b c5fa 1a3c 9a10 7a3d
00000110: bbe1 123c 0fb8 8ebb 209e 063b 7a29 28bc
00000120: d123 4bbc d7c7 c23b ee87 643b 1d4d fabb
00000130: f8a5 a13a b71e 02bc 551d 0d3d 6c5f 17bc
00000140: e73c 29bc 78df 05bc 837a d3ba 0905 0d3c
00000150: 5fc3 c4bb c7ab 203b eeb6 143c a79a d6bb
00000160: ea7b c93a e238 6e3b 15f4 353c 4f26 583d
00000170: 8dd0 fcbb e854 97bb d6b7 243c 2618 783c
00000180: eed5 c9bd 8058 053c 5d83 133c 0778 df3a
00000190: fe74 1dbb 4253 063c 4ab1 4f3d 35c9 febb
000001a0: 49bb 813a 1c58 9ebb 8b80 0fbd 0a0f 67bd
000001b0: df33 e2ba cde1 0ebc bbf3 253c be00 2a3c
000001c0: 91c7 433d 329b 1cbd f4c3 0fbc 514b 103c
000001d0: db63 b93c b63c 173c 07fa afbc 623b ca3c
000001e0: 76d4 5eba e167 803b a612 f4bb 716c d539
000001f0: 8dce 23bc 4a59 1f3b e624 0e3c 2a55 6cbc
00000200: 55b6 ca39 801e 2bb9 8199 b03a e241 28ba
00000210: cd34 56ba 5337 54b8 309b 02b9 fab3 b338
00000220: 71c3 4c3a 8a27 9ab8 efd5 d539 8223 7238
00000230: 4d0e 33b9 cad0 f238 5dda 0db9 6740 1d38
00000240: 93d0 3438 47d1 7e38 0c3d 5338 f8f6 1337
00000250: dd61 4b38 f9fa d3b8 a7c4 c6b8 2689 b038
00000260: fdc3 4438 5b05 0539 7081 1cb8 ef58 7538
00000270: 1bd2 dcb9 f2a0 3e38 7f75 a238 3a4a e136
00000280: 2512 b838 1887 9e38 8dd3 ce38 e79b 9cb7
00000290: a958 9ab8 f454 dc37 2f9a f638 649e dd39
000002a0: e628 27ba 0896 58b7 f433 2438 2efe a3b8
000002b0: d24b 1538 8a92 133a c8b0 47b7 98d2 9c39
000002c0: 95d4 3a3a 67b6 e7b7 4ebb f5b6 64ac 39b8
000002d0: 3652 b0b9 a4c1 95b5 b2c3 a336 30d5 b138
000002e0: e896 0e38 dedc b237 62d0 2ab8 5252 0db8
000002f0: 519a 95b7 8647 5036 3c35 9cb8 2fe2 08b9
00000300: bfa1 30b9 bff8 c0b8 ef9a e5b7 459b 383a
00000310: c298 02b7 6f38 7237 4e29 7e38 53f3 7937
00000320: 60e0 50b9 45d4 9cb8 7a92 05b9 650d bd38
00000330: 9934 2f38 1bb2 3c38 ddb9 6fba 7a21 f636
00000340: 6916 df38 136c f4b7 7764 a1b8 7d24 44b8
00000350: f834 a4b8 f0f0 f736 3202 05b9 d1f3 ee38
00000360: 1de2 85b7 c1ac 9c38 57f4 6b39 b464 4539
00000370: f905 8fb8 afcc 9438 1a28 ba38 23f5 713a
00000380: e500 e9b9 2580 85b7 c0e4 61b7 63e0 afb7
00000390: 3ab4 e738 6d4a 75b8 4ab5 04bb 7782 3338
000003a0: 81e3 2936 cf47 3138 0282 d439 1cdf 6db9
000003b0: 2cb2 e8b6 e778 80b6 7d02 00b8 b61a a1b8
000003c0: 21d5 c037 8f90 ff39 bc78 9637 c8bd 42b8
000003d0: 0c30 33b9 0b13 96b8 5ac9 02b7 d311 92b9
000003e0: 4117 92b8 e56d 91b8 1944 89b8 a858 06b8
000003f0: e5af df38 59d7 d938 5ef0 a9b8 b355 9b3a

gru.bias_ih_l0 f4 [384]
-0.08715094 -0.0035334288 0.013631501 0.023398817 0.0244779 -0.0031729261 -0.0041533024 -0.0014108893
-0.09397369 -0.0022479934 0.0058242683 -0.0031287558 -0.0040320153 -0.0028011359 -0.0024017552 -0.0021448184
-0.0057503707 -0.0024957035 -0.0042146216 -0.0020050993 -0.0038771266 -0.00034425172 -0.002134866 -0.0043093776
-0.0019276133 -0.0048660818 -0.0032025988 -0.0018186534 0.06196637 -0.003367368 -0.010070467 -0.0021017033
0.00825629 -0.004146968 -0.002286035 -0.0050810617 -0.003657793 -0.0022619495 -0.0027048443 0.0473526
0.21629106 -0.002512271 -0.0026570314 -0.0036582276 -0.0037197703 0.029589184 -0.0033972547 0.009261702
-0.021397596 -0.004460169 -0.0024713671 -0.0033052329 0.010271393 -0.0050846827 -0.0029747593 -0.002853908
-0.00402426 -0.0026001693 -0.0013657395 -0.0017440886 -0.0033760923 0.20447214 -0.0050334977 -0.0024274765
0.007868387 -0.0027352488 -0.0041204644 0.050818335 -0.0038182642 -0.0028325128 -0.0021426277 -0.006757988
-0.0052761165 -0.00478931 -0.0018992113 -0.0023890808 -0.0006237354 -0.0046133418 0.04667298 -0.007343372
-0.0028424405 -0.0052082827 -0.004076279 -0.002859291 -0.002940744 -0.0013938604 -0.0012931289 -0.0008981393
-0.0026965595 -0.002145415 0.015838008 0.08719277 -0.004296291 -0.0024255689 -0.0071019074 0.01802778
-0.08809978 -0.0022546053 -0.0037715677 -0.0016103131 -0.0035194485 -0.0037514528 0.01939491 -0.0023084565
-0.0016596457 -0.0032603622 -0.002569398 -0.06100018 -0.0031101988 -0.004132259 -0.0041535823 -0.0036285564
0.028082225 0.022637371 -0.0041182255 -0.003856284 -0.01714554 -0.0024721024 0.00464962 0.02083753
-0.0013086713 -0.0033999486 -0.0035315673 -0.004687064 -0.0032759374 -0.0013682087 -0.005523646 -0.006617633
-0.29826307 -0.0004287861 -0.14272855 -0.19214724 -0.19598356 -0.003941965 8.5946514e-05 -0.0030114045
-0.36327472 -0.0051457416 -0.43650126 -0.0032190408 0.0001993489 -0.008490697 -0.004246341 -0.004396348
-0.49592197 -0.005389895 -0.005076448 -0.007034528 -0.0058608116 -0.0056003327 -0.00072456105 -0.0036506688
-0.0047489633 -0.002295494 -0.009050537 -0.0033498667 -0.39514437 -0.0068164794 -0.010297493 -0.005411412
-0.04692129 -0.0046862364 -0.0083849365 -0.0072695166 -0.005533949 -0.0039561572 -0.00035487243 -0.5305137
-0.7955516 -0.0043664705 -0.0079457015 -0.00245443 -0.010284664 -0.11519899 -0.005466548 -0.60003114
-0.2945228 -0.005548978 -0.0076459227 -0.005907936 -0.09669068 -0.01318118 -0.0021274134 -0.0076799043
-0.0029858754 -0.0038488896 -0.006679715 -0.0027580454 -0.0055218176 -0.6852722 -0.0058990177 -0.0049529136
-0.09955048 -0.004367688 -0.0063162763 -0.11967176 -0.002472176 -0.008982798 -0.0036680666 -0.015567619
-0.0420021 -0.0018960511 -0.011136583 -0.0039344467 -0.016480083 -0.0065470394 -0.22583283 -0.0077168797
-0.002390611 -0.010900436 -0.0074968175 -0.0033904265 -0.0048958347 -0.005189158 -0.002128954 -0.006089815
-0.008188114 -0.0043577626 -0.10707906 -0.16786733 -0.0035421494 -0.007021672 -0.0076403674 -0.32916385
-0.25386006 -0.0019734837 -0.004556849 -0.0026652478 -0.015380547 -0.0039872425 -0.30381438 -0.0074395766
-0.0049419915 -0.009665437 -0.4003015 -0.27314705 -0.005743746 -0.0050912085 -0.006534157 -0.010081052
-0.38350075 -0.3141687 -0.005661379 -0.0035698293 -0.65465677 -0.0013323734 -0.08293572 -0.5812752
-0.005736355 -0.010090833 -0.004610408 -0.009035235 0.0015468705 -0.0055110883 -0.011629544 -0.090823784
00000000: 317c b2bd 1991 67bb a956 5f3c e0ae bf3c
00000010: e085 c83c def0 4fbb 6d18 88bb 97ed b8ba
00000020: 4775 c0bd 1253 13bb 81d9 be3b d00b 4dbb
00000030: ff1e 84bb 4393 37bb c466 1dbb 1590 0cbb
00000040: 9b6d bcbb f58e 23bb cf1a 8abb fc67 03bb
00000050: 6417 7ebb af7c b4b9 1ce9 0bbb ae35 8dbb
00000060: f8a7 fcba a773 9fbb b1e2 51bb e25f eeba
00000070: 73d0 7d3d 0faf 5cbb 9afe 24bc bbbc 09bb
00000080: 6445 073c 4ae3 87bb 4ed1 15bb 097f a6bb
00000090: 95b7 6fbb 373d 14bb c243 31bb cdf4 413d
000000a0: 677b 5d3e eaa4 24bb 9721 2ebb e0be 6fbb
000000b0: 64c7 73bb 0465 f23c 7aa4 5ebb 65be 173c
000000c0: 034a afbc 9c26 92bb a9f6 21bb 9b9c 58bb
000000d0: 5849 283c 699d a6bb 2ef4 42bb a208 3bbb
000000e0: f1dd 83bb 9a67 2abb 9d02 b3ba e799 e4ba
000000f0: 6e41 5dbb 2561 513e 0af0 a4bb 4c16 1fbb
00000100: 68ea 003c dc41 33bb f604 87bb e326 503d
00000110: d83b 7abb aea1 39bb 546b 0cbb 1d72 ddbb
00000120: 46e3 acbb a5ef 9cbb f5ee f8ba 2092 1cbb
00000130: 2d82 23ba 842b 97bb 2b2c 3f3d aba0 f0bb
00000140: 3d48 3abb 3eaa aabb 4e92 85bb f162 3bbb
00000150: 7fb9 40bb 32b2 b6ba 357e a9ba 1c71 6bba
00000160: c3b8 30bb 179a 0cbb b6be 813c 1f92 b23d
00000170: e7c7 8cbb 4bf6 1ebb 1eb7 e8bb ffae 933c
00000180: a86d b4bd 00c2 13bb 682c 77bb 2411 d3ba
00000190: 8ca6 66bb efda 75bb 13e2 9e3c 7949 17bb
000001a0: 7888 d9ba cdab 55bb 5863 28bb 53db 79bd
000001b0: 7ad4 4bbb e767 87bb c61a 88bb 13cd 6dbb
000001c0: b20c e63c 0272 b93c 2ef2 86bb b6b9 7cbb
000001d0: ce74 8cbc ff02 22bb d75b 983b 78b3 aa3c
000001e0: b987 abba acd1 5ebb de71 67bb f195 99bb
000001f0: 1cb1 56bb 7755 b3ba b3ff b4bb bbd8 d8bb
00000200: f0b5 98be b2ce e0b9 6f27 12be 3fc2 44be
00000210: eaaf 48be 992b 81bb 2f3e b438 fc5a 45bb
00000220: 25ff b9be 9c9d a8bb 187d dfbe 8bf6 52bb
00000230: 5008 5139 901c 0bbc e424 8bbb 3d0f 90bb
00000240: 7ce9 fdbe b79d b0bb 5558 a6bb e681 e6bb
00000250: 0d0c c0bb ff82 b7bb 78f0 3dba 0f40 6fbb
00000260: 319d 9bbb 0070 16bb b448 14bc 7089 5bbb
00000270: 5d50 cabe c65c dfbb d1b6 28bc 3752 b1bb
00000280: 8a30 40bd 008f 99bb f960 09bc 2035 eebb
00000290: 2156 b5bb a7a2 81bb 2c0e bab9 bfcf 07bf
000002a0: 45a9 4bbf 9c14 8fbb b02e 02bc 81da 20bb
000002b0: 0281 28bc 73ed ebbd ba20 b3bb a49b 19bf
000002c0: b1cb 96be 34d4 b5bb a68a fabb 5c97 c1bb
000002d0: c305 c6bd e0f5 57bc 136c 0bbb b5a7 fbbb
000002e0: adae 43bb a73d 7cbb 83e1 dabb 53c0 34bb
000002f0: 5df0 b4bb 006e 2fbf 8c4c c1bb 0d4c a2bb
00000300: 1fe1 cbbd d31e 8fbb c4f8 cebb 7816 f5bd
00000310: 3b04 22bb 962c 13bc f263 70bb 540f 7fbc
00000320: 650a 2cbd eb84 f8ba 3776 36bc 88ec 80bb
00000330: 3d01 87bc 8c88 d6bb b940 67be e1dd fcbb
00000340: ccab 1cbb be97 32bc dda7 f5bb eb31 5ebb
00000350: 3d6d a0bb d009 aabb ec85 0bbb 128d c7bb
00000360: 7027 06bc 90cb 8ebb 444c dbbd 6ae5 2bbe
00000370: 6823 68bb 0e16 e6bb 0c5c fabb 2a88 a8be
00000380: f2f9 81be 9055 01bb 9f51 95bb 70ab 2ebb
00000390: b1fe 7bbc 6aa7 82bb 8f8d 9bbe b1c7 f3bb
000003a0: 6ef0 a1bb c85b 1ebc 51f4 ccbe eed9 8bbe
000003b0: 0936 bcbb 27d4 a6bb 7b1c d6bb ff2a 25bc
000003c0: 365a c4be b8da a0be 1783 b9bb ccf3 69bb
000003d0: 9697 27bf 08a3 aeba 34da a9bd 74ce 14bf
000003e0: 09f8 bbbb 0554 25bc e812 97bb 8608 14bc
000003f0: 5cc0 ca3a 5c96 b4bb d889 3ebc d201 babd

gru.bias_hh_l0 f4 [384]
-0.08701409 -0.0035334288 0.013631501 0.023398815 0.0244779 -0.0031729261 -0.0041533024 -0.0014108893
-0.09406368 -0.0022479934 0.0058242683 -0.0031287558 -0.0040320153 -0.0028011359 -0.0024017552 -0.0021448184
-0.0057503707 -0.0024957035 -0.0042146216 -0.0020050993 -0.0038771266 -0.00034425172 -0.002134866 -0.0043093776
-0.0019276133 -0.0048660818 -0.0032025988 -0.0018186534 0.06196637 -0.003367368 -0.010070467 -0.0021017033
0.00825629 -0.004146968 -0.002286035 -0.0050810617 -0.003657793 -0.0022619495 -0.0027048443 0.0473526
0.21629103 -0.002512271 -0.0026570314 -0.0036582276 -0.0037197703 0.029589184 -0.0033972547 0.009261795
-0.021397563 -0.004460169 -0.0024713671 -0.0033052329 0.010271393 -0.0050846827 -0.0029747593 -0.002853908
-0.00402426 -0.0026001693 -0.0013657395 -0.0017440886 -0.0033760923 0.20447214 -0.0050334977 -0.0024274765
0.007868387 -0.0027352488 -0.0041204644 0.050818365 -0.0038182642 -0.0028325128 -0.0021426277 -0.006757988
-0.0052761165 -0.00478931 -0.0018992113 -0.0023890808 -0.0006237354 -0.0046133418 0.04667298 -0.007343372
-0.0028424405 -0.0052082827 -0.004076279 -0.002859291 -0.002940744 -0.0013938604 -0.0012931289 -0.0008981393
-0.0026965595 -0.002145415 0.015838008 0.08719277 -0.004296291 -0.0024255689 -0.0071019074 0.01802778
-0.08820654 -0.0022546053 -0.0037715677 -0.0016103131 -0.0035194485 -0.0037514528 0.01939491 -0.0023084565
-0.0016596457 -0.0032603622 -0.002569398 -0.061000053 -0.0031101988 -0.004132259 -0.0041535823 -0.0036285564
0.028082225 0.022637371 -0.0041182255 -0.003856284 -0.017145565 -0.0024721024 0.00464962 0.02083753
-0.0013086713 -0.0033999486 -0.0035315673 -0.004687064 -0.0032759374 -0.0013682087 -0.005523646 -0.006617633
-0.2982553 -0.0004287861 -0.14272855 -0.19214752 -0.1959835 -0.003941965 8.5946514e-05 -0.0030114045
-0.36327273 -0.0051457416 -0.4365058 -0.0032190408 0.0001993489 -0.008490697 -0.004246341 -0.004396348
-0.4959047 -0.005389895 -0.005076448 -0.007034528 -0.0058608116 -0.0056003327 -0.00072456105 -0.0036506688
-0.0047489633 -0.002295494 -0.009050537 -0.0033498667 -0.39514273 -0.0068164794 -0.010297493 -0.005411412
-0.04692129 -0.0046862364 -0.0083849365 -0.0072695166 -0.005533949 -0.0039561572 -0.00035487243 -0.530516
-0.79556954 -0.0043664705 -0.0079457015 -0.00245443 -0.010284664 -0.11519898 -0.005466548 -0.59997445
-0.2945225 -0.005548978 -0.0076459227 -0.005907936 -0.096690685 -0.01318118 -0.0021274134 -0.0076799043
-0.0029858754 -0.0038488896 -0.006679715 -0.0027580454 -0.0055218176 -0.6852713 -0.0058990177 -0.0049529136
-0.09955043 -0.004367688 -0.0063162763 -0.11967176 -0.002472176 -0.008982798 -0.0036680666 -0.015567619
-0.0420021 -0.0018960511 -0.011136583 -0.0039344467 -0.016480083 -0.0065470394 -0.2258328 -0.0077168797
-0.002390611 -0.010900436 -0.0074968175 -0.0033904265 -0.0048958347 -0.005189158 -0.002128954 -0.006089815
-0.008188114 -0.0043577626 -0.107079096 -0.16786733 -0.0035421494 -0.007021672 -0.0076403674 -0.3291648
-0.25382537 -0.0019734837 -0.004556849 -0.0026652478 -0.015380547 -0.0039872425 -0.30381438 -0.0074395766
-0.0049419915 -0.009665437 -0.40030226 -0.27316067 -0.005743746 -0.0050912085 -0.006534157 -0.010081052
-0.38350263 -0.31416935 -0.005661379 -0.0035698293 -0.6547241 -0.0013323734 -0.08293572 -0.58128285
-0.005736355 -0.010090833 -0.004610408 -0.009035235 0.0015468705 -0.0055110883 -0.011629544 -0.090823784
00000000: 7134 b2bd 1991 67bb a956 5f3c dfae bf3c
00000010: e085 c83c def0 4fbb 6d18 88bb 97ed b8ba
00000020: 75a4 c0bd 1253 13bb 81d9 be3b d00b 4dbb
00000030: ff1e 84bb 4393 37bb c466 1dbb 1590 0cbb
00000040: 9b6d bcbb f58e 23bb cf1a 8abb fc67 03bb
00000050: 6417 7ebb af7c b4b9 1ce9 0bbb ae35 8dbb
00000060: f8a7 fcba a773 9fbb b1e2 51bb e25f eeba
00000070: 73d0 7d3d 0faf 5cbb 9afe 24bc bbbc 09bb
00000080: 6445 073c 4ae3 87bb 4ed1 15bb 097f a6bb
00000090: 95b7 6fbb 373d 14bb c243 31bb cdf4 413d
000000a0: 657b 5d3e eaa4 24bb 9721 2ebb e0be 6fbb
000000b0: 64c7 73bb 0465 f23c 7aa4 5ebb c9be 173c
000000c0: f149 afbc 9c26 92bb a9f6 21bb 9b9c 58bb
000000d0: 5849 283c 699d a6bb 2ef4 42bb a208 3bbb
000000e0: f1dd 83bb 9a67 2abb 9d02 b3ba e799 e4ba
000000f0: 6e41 5dbb 2561 513e 0af0 a4bb 4c16 1fbb
00000100: 68ea 003c dc41 33bb f604 87bb eb26 503d
00000110: d83b 7abb aea1 39bb 546b 0cbb 1d72 ddbb
00000120: 46e3 acbb a5ef 9cbb f5ee f8ba 2092 1cbb
00000130: 2d82 23ba 842b 97bb 2b2c 3f3d aba0 f0bb
00000140: 3d48 3abb 3eaa aabb 4e92 85bb f162 3bbb
00000150: 7fb9 40bb 32b2 b6ba 357e a9ba 1c71 6bba
00000160: c3b8 30bb 179a 0cbb b6be 813c 1f92 b23d
00000170: e7c7 8cbb 4bf6 1ebb 1eb7 e8bb ffae 933c
00000180: a1a5 b4bd 00c2 13bb 682c 77bb 2411 d3ba
00000190: 8ca6 66bb efda 75bb 13e2 9e3c 7949 17bb
000001a0: 7888 d9ba cdab 55bb 5863 28bb 31db 79bd
000001b0: 7ad4 4bbb e767 87bb c61a 88bb 13cd 6dbb
000001c0: b20c e63c 0272 b93c 2ef2 86bb b6b9 7cbb
000001d0: db74 8cbc ff02 22bb d75b 983b 78b3 aa3c
000001e0: b987 abba acd1 5ebb de71 67bb f195 99bb
000001f0: 1cb1 56bb 7755 b3ba b3ff b4bb bbd8 d8bb
00000200: ebb4 98be b2ce e0b9 6f27 12be 52c2 44be
00000210: e6af 48be 992b 81bb 2f3e b438 fc5a 45bb
00000220: e2fe b9be 9c9d a8bb b07d dfbe 8bf6 52bb
00000230: 5008 5139 901c 0bbc e424 8bbb 3d0f 90bb
00000240: 39e7 fdbe b79d b0bb 5558 a6bb e681 e6bb
00000250: 0d0c c0bb ff82 b7bb 78f0 3dba 0f40 6fbb
00000260: 319d 9bbb 0070 16bb b448 14bc 7089 5bbb
00000270: 2650 cabe c65c dfbb d1b6 28bc 3752 b1bb
00000280: 8a30 40bd 008f 99bb f960 09bc 2035 eebb
00000290: 2156 b5bb a7a2 81bb 2c0e bab9 e6cf 07bf
000002a0: 72aa 4bbf 9c14 8fbb b02e 02bc 81da 20bb
000002b0: 0281 28bc 71ed ebbd ba20 b3bb ed97 19bf
000002c0: a7cb 96be 34d4 b5bb a68a fabb 5c97 c1bb
000002d0: c405 c6bd e0f5 57bc 136c 0bbb b5a7 fbbb
000002e0: adae 43bb a73d 7cbb 83e1 dabb 53c0 34bb
000002f0: 5df0 b4bb f16d 2fbf 8c4c c1bb 0d4c a2bb
00000300: 19e1 cbbd d31e 8fbb c4f8 cebb 7816 f5bd
00000310: 3b04 22bb 962c 13bc f263 70bb 540f 7fbc
00000320: 650a 2cbd eb84 f8ba 3776 36bc 88ec 80bb
00000330: 3d01 87bc 8c88 d6bb b740 67be e1dd fcbb
00000340: ccab 1cbb be97 32bc dda7 f5bb eb31 5ebb
00000350: 3d6d a0bb d009 aabb ec85 0bbb 128d c7bb
00000360: 7027 06bc 90cb 8ebb 494c dbbd 6ae5 2bbe
00000370: 6823 68bb 0e16 e6bb 0c5c fabb 4a88 a8be
00000380: 66f5 81be 9055 01bb 9f51 95bb 70ab 2ebb
00000390: b1fe 7bbc 6aa7 82bb 8f8d 9bbe b1c7 f3bb
000003a0: 6ef0 a1bb c85b 1ebc 6bf4 ccbe b7db 8bbe
000003b0: 0936 bcbb 27d4 a6bb 7b1c d6bb ff2a 25bc
000003c0: 755a c4be ceda a0be 1783 b9bb ccf3 69bb
000003d0: 009c 27bf 08a3 aeba 34da a9bd f4ce 14bf
000003e0: 09f8 bbbb 0554 25bc e812 97bb 8608 14bc
000003f0: 5cc0 ca3a 5c96 b4bb d889 3ebc d201 babd

gru.weight_ih_l1 f4 [384, 128]
-3.65836e-05 6.747729e-06 -5.5082677e-05 5.660637e-05 7.509254e-05 8.731253e-06 2.5383108e-06 3.554188e-06
-1.6120044e-05 -1.7828763e-05 -3.9683735e-05 -1.9468794e-06 1.1892916e-05 -1.636487e-06 6.4569886e-06 -9.915098e-06
-2.9535036e-05 -3.2605728e-06 -6.3561936e-07 3.7984857e-06 -1.0364839e-06 1.1918413e-05 1.00566085e-05 -8.459194e-06
-1.3298454e-05 -7.693265e-06 6.0393086e-06 -1.0004152e-05 -0.00012292627 -4.161395e-06 -1.25116585e-05 4.8320026e-06
-4.1391497e-05 -5.256121e-06 -1.2902567e-05 -2.1047667e-06 1.3899533e-05 -3.497258e-07 -1.3900708e-05 -9.109044e-05
-6.81892e-05 5.544934e-06 -9.6903e-06 -3.331488e-06 -1.3923802e-06 -6.2047875e-05 1.8260051e-06 -0.0001225895
5.2762753e-05 4.631135e-06 -1.1921592e-05 -1.1587958e-05 7.2174524e-05 6.9134676e-06 -7.0979877e-06 -9.264658e-06
-1.401904e-05 4.0047544e-06 1.7197738e-06 1.5171278e-05 1.3313353e-06 3.0913047e-06 -2.9250643e-06 2.4697383e-05
4.7073027e-05 1.5348049e-05 3.4527516e-06 -5.0880604e-05 3.262082e-06 -8.907107e-06 -2.471056e-06 -3.239975e-06
2.770883e-05 -1.6472829e-06 3.3356602e-05 -1.0158113e-05 -2.4218889e-05 -1.04710225e-05 0.000116556905 -6.4841684e-06
-2.0156476e-05 -6.6115144e-06 8.547445e-06 4.012096e-06 -7.932815e-06 3.5815788e-06 1.7722316e-05 -1.4766724e-05
-9.0592806e-07 -1.0979964e-05 -4.0547824e-05 1.5337764e-05 3.1587788e-06 -1.1794624e-05 -6.292411e-06 -8.3558545e-05
9.975581e-06 5.973547e-06 6.203473e-06 5.676295e-06 2.4197593e-06 7.840839e-06 0.00013402666 -1.730244e-05
-8.097436e-06 -1.2390952e-06 -2.3313733e-05 -0.00010094436 -2.2768795e-06 -1.2293917e-05 9.276537e-06 -2.7301505e-06
1.1705582e-05 -4.7808016e-06 -8.015381e-06 2.2258828e-06 0.00015255588 1.2084457e-05 -4.5438355e-06 4.3493852e-05
2.1901215e-07 1.0940039e-06 2.333902e-06 5.641797e-06 -3.2450935e-06 -7.5568605e-06 1.2866326e-05 -7.4516916e-05
0.043928444 0.00030194884 -0.0017976407 0.02686042 0.018107602 0.0017634446 -0.00029231847 0.00014902858
0.050708886 -0.0033878477 0.023991054 -0.004272287 0.0008308998 -0.0026897327 0.001380441 -0.0037335423
0.035053868 -0.0014769678 -0.00041829664 0.0010203002 0.0013985093 -0.0015798428 0.0010007494 0.0006937978
-0.0043552844 0.0011536385 0.0012273777 0.00046163483 -0.016301695 0.0009913465 0.0006244117 0.0015574136
-0.0006279958 -0.0023293246 0.0017312752 -0.0020688428 0.0015586029 0.0012526345 -0.0020283172 0.042988688
-0.04925065 0.0022139144 -0.0026515159 -0.000654767 0.001087627 -0.014115477 0.0016024581 0.046337053
0.036872804 -0.0005405058 -0.0013345617 -0.0012976812 -0.002362633 0.0038283383 -0.0041058813 -0.0010979149
-0.0027707762 -0.0012621324 -0.001137575 -0.00027465523 0.00054067775 0.014183165 0.0013030854 0.004427698
0.005757849 0.0036797042 0.0014231452 0.0019404785 0.0039134882 -0.004382477 -0.002809941 0.0025709267
-0.0029690235 -0.0005753286 0.0057528745 -0.0044253627 0.00020657734 -0.00040555783 -0.0035207414 -0.0025509922
-0.0001366611 -0.0005519971 0.0021730145 0.0020184934 -0.0032760114 0.0011626782 0.0029995553 -0.0038142228
-0.0024647857 -0.00058375613 0.0009479421 -0.01258151 -0.0005750985 -0.004685446 0.0003818666 0.009489551
-0.030339625 0.0014163621 0.001279198 -0.0005182962 -0.0054561463 0.0019088788 -0.018233305 -0.0047556576
-0.00096557965 -0.0054097883 0.026759883 -0.03286201 0.0023867192 -0.0009219018 0.0020870874 0.001919392
-0.023640983 0.022486255 -0.0010855104 0.0021405665 -0.050253127 0.0011592536 -7.931869e-06 -0.035513286
-0.00072496413 0.00419825 -0.003188869 0.0023385452 -5.3426584e-06 -0.0010568834 0.00066632114 -0.0024945566
00000000: 5771 19b8 8d6a e236 9308 67b8 a16c 6d38
00000010: 007b 9d38 727c 1237 d957 2a36 7c84 6e36
00000020: 8839 87b7 fa8e 95b7 1672 26b8 22a7 02b6
00000030: af87 4737 44a5 dbb5 1ca9 d836 0659 26b7
00000040: 02c2 f7b7 37d0 5ab6 6e9f 2ab5 7de9 7e36
00000050: 511d 8bb5 32f5 4737 ceb8 2837 f6eb 0db7
00000060: 6d1c 5fb7 5212 01b7 44a5 ca36 81d7 27b7
00000070: c5e5 00b9 1ca2 8bb6 2ae9 51b7 9622 a236
00000080: c89b 2db8 bc5d b0b6 1a78 58b7 9e3f 0db6
00000090: 0a32 6937 f3c1 bbb4 1637 69b7 cf07 bfb8
000000a0: cc00 8fb8 9f0e ba36 8693 22b7 8792 5fb6
000000b0: d2e1 bab5 b31f 82b8 0f15 f535 5e8b 00b9
000000c0: 934d 5d38 2665 9b36 d902 48b7 e769 42b7
000000d0: 675c 9738 3cfa e736 402b eeb6 676f 1bb7
000000e0: 5133 6bb7 9460 8636 fad2 e635 2588 7e37
000000f0: 55b0 b235 3674 4f36 394c 44b6 3a2d cf37
00000100: 4770 4538 afbf 8037 d2b5 6736 a268 55b8
00000110: 24ea 5a36 bc6f 15b7 6bd4 25b6 596e 59b6
00000120: 4270 e837 3618 ddb5 61e8 0b38 c36c 2ab7
00000130: ab29 cbb7 b3ac 2fb7 0370 f438 9592 d9b6
00000140: b415 a9b7 7ad8 ddb6 ff66 0f37 a49f 8636
00000150: 2e17 05b7 0e5b 7036 62aa 9437 99be 77b7
00000160: e72e 73b5 9636 38b7 e511 2ab8 99a9 8037
00000170: 68fb 5336 86e1 45b7 6623 d3b6 273c afb8
00000180: cb5c 2737 6170 c836 6d27 d036 0177 be36
00000190: 2663 2236 268c 0337 8289 0c39 b524 91b7
000001a0: 39da 07b7 fd4e a6b5 dc91 c3b7 17b2 d3b8
000001b0: 7ecc 18b6 f941 4eb7 6ca2 1b37 a137 37b6
000001c0: 1863 4437 c66a a0b6 cd79 06b7 6060 1536
000001d0: 68f7 1f39 59be 4a37 4077 98b6 2b6d 3638
000001e0: 9a29 6b34 b0d5 9235 22a0 1c36 ab4e bd36
000001f0: 48c6 59b6 f090 fdb6 73dc 5737 f745 9cb8
00000200: 50ee 333d e34e 9e39 d09e ebba 620a dc3c
00000210: 6556 943c 6223 e73a 5242 99b9 8e44 1c39
00000220: 1fb4 4f3d a706 5ebb e388 c43c 8afe 8bbb
00000230: bed0 593a 3a46 30bb eaef b43a 72ae 74bb
00000240: a594 0f3d d196 c1ba d34e dbb9 98bb 853a
00000250: 2f4e b73a ba12 cfba 942b 833a fbdf 353a
00000260: c6b6 8ebb af35 973a f6df a03a 9407 f239
00000270: 228b 85bc 12f0 813a 8faf 233a 2122 cc3a
00000280: 16a0 24ba 95a7 18bb f5eb e23a 6c95 07bb
00000290: 094a cc3a 702f a43a 84ed 04bb e814 303d
000002a0: 0dbb 49bd 5217 113b 0ec5 2dbb aba4 2bba
000002b0: b58e 8e3a 9a44 67bc 9209 d23a eccb 3d3d
000002c0: f007 173d bbb0 0dba 76ec aeba f516 aaba
000002d0: 67d6 1abb dce4 7a3b a18a 86bb e9e7 8fba
000002e0: e995 35bb 236e a5ba af1a 95ba 9aff 8fb9
000002f0: 45bc 0d3a 8160 683c 4acc aa3a 3916 913b
00000300: 57ac bc3b 3127 713b d488 ba3a a757 fe3a
00000310: b83c 803b e29a 8fbb fd26 38bb fe7c 283b
00000320: f393 42bb a6d1 16ba 9c82 bc3b a202 91bb
00000330: af9c 5839 0da1 d4b9 3dbc 66bb 8c2e 27bb
00000340: af4c 0fb9 e6b3 10ba 2269 0e3b b348 043b
00000350: 5ab2 56bb 0265 983a 3094 443b 0af8 79bb
00000360: 3e88 21bb 3607 19ba 517f 783a ad22 4ebc
00000370: 35c2 16ba 5f88 99bb 4435 c839 107a 1b3c
00000380: ce8a f8bc 3aa5 b93a c3aa a73a 45de 07ba
00000390: 79c9 b2bb 5833 fa3a 035e 95bc 59d5 9bbb
000003a0: f41e 7dba 9844 b1bb 8b37 db3c 519a 06bd
000003b0: 816a 1c3b c8ab 71ba 84c7 083b 1c94 fb3a
000003c0: bcaa c1bc 1835 b83c af47 8eba bf48 0c3b
000003d0: 39d6 4dbd 19f2 973a 1e13 05b7 6176 11bd
000003e0: 850b 3eba 7991 893b 58fc 50bb 4742 193b
000003f0: 1645 b3b6 1f87 8aba 0eac 2e3a b77b 23bb

gru.weight_hh_l1 f4 [384, 128]
-4.330875e-06 0.0009142565 7.65683e-05 -7.784592e-06 -6.5948807e-06 6.155296e-05 -4.745711e-06 3.2887297e-06
-4.811191e-06 6.2730596e-06 -5.147809e-06 -2.8278605e-06 2.872537e-05 4.919922e-06 -7.487403e-06 -6.909979e-06
-4.3545942e-06 -5.457989e-06 -7.016208e-06 8.261264e-06 -0.00050645386 4.4025696e-06 7.130523e-06 9.101428e-05
-3.595615e-06 1.46821595e-08 4.0499363e-06 1.9010648e-05 0.00045724533 7.029111e-06 -5.7574425e-06 5.1188877e-06
-4.926142e-06 6.9756065e-06 -5.8802684e-06 5.5744094e-06 5.591384e-06 -4.3382956e-06 4.741642e-06 0.00093047915
0.0011158016 -0.00071472133 6.090807e-06 -5.8761593e-06 7.605789e-06 0.0022899797 7.866201e-06 0.00031274513
-7.491677e-06 -6.3086422e-06 -7.3130414e-06 6.270935e-06 5.2234464e-06 -7.5762623e-06 -7.737726e-06 -4.0274736e-06
6.584234e-06 -5.4139396e-06 -0.0016122346 -3.3115434e-06 4.2982238e-06 -0.00033614173 -4.1739827e-06 4.0964856e-06
7.324068e-06 3.905856e-06 3.7346717e-06 -0.0013818506 -5.0279623e-06 5.2566415e-06 -0.00043532174 3.7223679e-06
2.1384812e-05 6.325805e-06 -6.666528e-06 6.0427733e-06 -6.2228823e-06 2.2433646e-06 -7.842137e-06 7.628462e-06
-4.663656e-06 -0.00062509865 -4.8985853e-06 -0.002216812 -6.1637597e-06 -7.806214e-05 2.1984088e-06 7.3183623e-06
5.3348604e-06 7.704146e-06 4.6594637e-06 -0.00045488568 5.549343e-06 5.9699023e-06 -6.3130306e-06 5.660244e-06
-0.0024858327 -7.025197e-06 4.109187e-06 6.9689245e-06 0.0026889816 -4.1228536e-06 7.687675e-06 0.00012431196
-2.4322218e-05 5.4758443e-06 -0.00015768207 4.1818685e-06 0.00071045436 -3.074602e-06 -6.2637578e-06 0.0014951752
0.00072199485 -0.0020598609 -4.568582e-06 -5.439486e-06 -7.6110905e-06 6.393606e-06 -6.6203197e-06 5.4879715e-06
-1.3031843e-06 1.2178498e-06 -5.6059057e-06 0.002346839 3.537664e-06 0.0006282055 -0.000104972 -5.7065035e-06
0.00246608 -0.103881836 0.0127884215 0.003363476 0.003768159 0.004344632 0.0029316577 -0.002032434
0.00292668 -0.0031106665 -0.0012362357 0.0018247036 0.028930295 -0.0027143327 0.0037947474 0.003209919
0.00246635 0.0028463488 0.0032529887 -0.0036736524 0.06306339 -0.0026259236 -0.0032396915 0.000677636
0.0022925045 -0.0017286682 -0.0023369258 0.0017138562 0.10303907 -0.0033655884 0.0032462764 -0.0027977605
0.002879198 -0.0034447033 0.0030775045 -0.003303205 -0.0029945564 0.0024625808 -0.002590698 -0.08248701
-0.24738975 0.057717748 -0.0033347234 0.003471046 -0.0032295298 -0.09772992 -0.0033687528 0.08438738
0.0035287447 0.0029138064 0.0030990231 -0.003123902 -0.0028410656 0.0040778276 0.0032772818 0.0023269944
-0.0037519813 0.002905491 0.026604902 0.0021541764 -0.002410338 -0.017606704 0.0023686546 -0.002197307
-0.003117982 -0.00228698 -0.0022086634 -0.03795023 0.0027329 -0.0031437357 0.06010716 -0.0023704574
-0.0028831726 -0.0033670873 0.0035278045 -0.0030965775 0.0032878094 -0.0026121456 0.003411216 -0.003907591
0.002565449 -0.0013452894 0.002670128 -0.03764546 0.00318885 0.0032338286 -0.0026455903 -0.0030908068
-0.002871968 -0.0032812625 -0.0028934113 0.08806761 -0.0029394072 -0.0031324949 0.0031298292 -0.003021615
0.081273615 0.003872241 -0.0024832052 -0.0031799348 -0.051253423 0.0023615975 -0.0032844166 -0.055874124
-0.11179077 -0.0028183633 -0.015657447 -0.0023723547 -0.07392641 0.0020273714 0.003308064 0.08912106
-0.08553438 -0.2385306 0.0025622218 0.0032622227 0.0033175985 -0.0029273452 0.003256967 -0.0029173568
0.0016448582 -0.001936518 0.0030002778 -0.10590852 -0.0021063662 -0.07012531 -0.0028315978 0.0029265294
00000000: ef51 91b6 b7aa 6f3a 4b93 a038 919a 02b7
00000010: 9849 ddb6 fe15 8138 593d 9fb6 f2b3 5c36
00000020: d16f a1b6 2c7d d236 58bb acb6 46c6 3db6
00000030: 43f7 f037 cf15 a536 4d3c fbb6 45dc e7b6
00000040: ae1d 92b6 c523 b7b6 c56c ebb6 dc99 0a37
00000050: 8bc3 04ba c9b9 9336 ba42 ef36 ebde be38
00000060: 324c 71b6 d23c 7c32 b0e4 8736 0e79 9f37
00000070: 6eba ef39 9bdb eb36 0e30 c1b6 e9c2 ab36
00000080: 3d4b a5b6 0110 ea36 1f4f c5b6 d00b bb36
00000090: 9f9d bb36 ad91 91b6 651a 9f36 66eb 733a
000000a0: 1740 923a 235c 3bba a25f cc36 d32b c5b6
000000b0: 3b35 ff36 7c13 163b 13f9 0337 f1f7 a339
000000c0: 0461 fbb6 d3ae d3b6 8c62 f5b6 ec6a d236
000000d0: 1045 af36 9937 feb6 48d1 01b7 bc23 87b6
000000e0: 24ee dc36 63a9 b5b6 9e51 d3ba e23b 5eb6
000000f0: 7639 9036 2e3c b0b9 3d0e 8cb6 8b74 8936
00000100: 44c1 f536 0c0f 8336 2ca1 7a36 361f b5ba
00000110: deb5 a8b6 3562 b036 e53b e4b9 cbcd 7936
00000120: 8963 b337 4042 d436 0ab1 dfb6 07c3 ca36
00000130: 27ce d0b6 b68c 1636 b991 03b7 fdf7 ff36
00000140: 807c 9cb6 a9dd 23ba 875e a4b6 ef47 11bb
00000150: 4bd2 ceb6 4bb5 a3b8 6088 1336 4190 f536
00000160: 1a02 b336 0e41 0137 7d58 9c36 b97d eeb9
00000170: 7e34 ba36 1251 c836 85d4 d3b6 20ed bd36
00000180: 5ae9 22bb fcb9 ebb6 a6e1 8936 9bd6 e936
00000190: a039 303b 0b57 8ab6 50fa 0037 bd59 0239
000001a0: 9107 ccb7 25bd b736 7557 25b9 fa51 8c36
000001b0: c93d 3a3a 4355 4eb6 452d d2b6 c1f9 c33a
000001c0: 4144 3d3a bbfe 06bb d24b 99b6 d484 b6b6
000001d0: c562 ffb6 a888 d636 1d24 deb6 5125 b836
000001e0: 12e9 aeb5 0075 a335 5d1a bcb6 6dcd 193b
000001f0: 9b68 6d36 28ae 243a 6a24 dcb8 7e7a bfb6
00000200: f59d 213b 00c0 d4bd 8786 513c c36d 5c3b
00000210: 38f3 763b 6a5d 8e3b 0e21 403b 9632 05bb
00000220: 8bcd 3f3b 53dc 4bbb 3009 a2ba e52a ef3a
00000230: 3aff ec3c f2e2 31bb 4cb1 783b 815d 523b
00000240: 7da2 213b cf89 3a3b 1830 553b a9c1 70bb
00000250: 6127 813d b017 2cbb 0151 54bb 62a3 313a
00000260: d83d 163b 7b94 e2ba 1c27 19bb 79a3 e03a
00000270: 2606 d33d 3491 5cbb 7bbf 543b a25a 37bb
00000280: edb0 3c3b 88c0 61bb f5af 493b 957a 58bb
00000290: 5240 44bb 4063 213b b3c8 29bb f3ee a8bd
000002a0: bd53 7dbe 7269 6c3d 608b 5abb 7d7a 633b
000002b0: 85a6 53bb a026 c8bd 4bc6 5cbb 4ad3 ac3d
000002c0: 8342 673b 8ff5 3e3b fb18 4b3b 61ba 4cbb
000002d0: 2c31 3abb 4c9f 853b aac7 563b 7d80 183b
000002e0: cde3 75bb 0d6a 3e3b 86f2 d93c 152d 0d3b
000002f0: c3f6 1dbb ef3b 90bc 6e3b 1b3b b200 10bb
00000300: 0f57 4cbb 28e1 15bb 39bf 10bb b371 1bbd
00000310: 741a 333b 2207 4ebb ed32 763d ad59 1bbb
00000320: 9cf3 3cbb 5aaa 5cbb bd32 673b f3ef 4abb
00000330: 4a78 573b 8830 2bbb b58e 5f3b 400b 80bb
00000340: 1821 283b 6c54 b0ba 50fd 2e3b 2032 1abd
00000350: 06fc 503b a4ee 533b a461 2dbb 228f 4abb
00000360: a137 3cbb 730a 57bb 639f 3dbb cb5c b43d
00000370: 12a3 40bb 8b4a 4dbb d21d 4d3b 4a06 46bb
00000380: c872 a63d 6cc5 7d3b 45bd 22bb 7466 50bb
00000390: 1cef 51bd 08c5 1a3b 5e3f 57bb 44dc 64bd
000003a0: 8ff2 e4bd 4ab4 38bb 0c44 80bc 8279 1bbb
000003b0: bb66 97bd a6dd 043b 1bcc 583b 1a85 b63d
000003c0: a62c afbd 5e41 74be f3ea 273b 04cb 553b
000003d0: 116c 593b b4d8 3fbb d772 553b 2031 3fbb
000003e0: 4898 d73a c3d2 fdba 4fa0 443b 91e6 d8bd
000003f0: f60a 0abb dc9d 8fbd 5492 39bb 04cb 3f3b

gru.bias_ih_l1 f4 [384]
-0.0039474163 0.0825019 0.0018754911 -0.0034448951 -0.0043141055 -0.0075394805 -0.004317097 -0.002938896
-0.0042922404 -0.0034695845 -0.002921508 -0.0041245744 0.06472978 -0.0038756982 -0.0038612436 -0.0035642146
-0.0039377203 -0.0035026912 -0.0035622735 -0.0035382672 0.04553987 -0.0041999537 -0.003559771 -0.0010641727
-0.004286245 -0.0030861641 -0.0039972975 -0.0018250659 0.1418345 -0.0035834792 -0.003995039 -0.0038642653
-0.004108453 -0.0033937634 -0.0036792825 -0.0042180517 -0.003797543 -0.0039503644 -0.0033230828 0.037020676
0.31224746 0.069463305 -0.0038350038 -0.0042505544 -0.003408144 0.033698417 -0.0034206393 0.12708698
-0.0036139868 -0.0032062621 -0.0033687612 -0.0034972013 -0.003865012 -0.0037011735 -0.0033969227 -0.0039880583
-0.0040072226 -0.003800197 -0.09548143 -0.004266567 -0.0039336877 -0.014245295 -0.003957748 -0.003981921
-0.0033713274 -0.0040271794 -0.0040432434 0.2975929 -0.0038313433 -0.0043199565 0.06123898 -0.0042638304
-0.005190154 -0.0037309667 -0.0036586965 -0.003618758 -0.0037182923 -0.0032125122 -0.003474148 -0.0035411268
-0.0038832421 -0.0017299331 -0.0038538708 0.22725196 -0.003657428 -0.012062513 -0.0033371113 -0.003361791
-0.0037949807 -0.003407955 -0.0043250816 0.07501638 -0.0037471147 -0.003694463 -0.0034988166 -0.0037733847
-0.010792903 -0.0037737912 -0.004317919 -0.0035569668 0.1513209 -0.0039774138 -0.0034156593 0.093573265
0.15286127 -0.003422896 0.0814732 -0.0039602676 0.051122945 -0.0042537474 -0.003714502 0.173753
0.051719304 0.645593 -0.0039095934 -0.004341819 -0.0034569667 -0.0034900128 -0.0035430747 -0.0037212803
-0.005394715 -0.0030980697 -0.0037830062 0.040492304 -0.004051628 0.053961225 -0.009227661 -0.0035131238
-6.0370825e-05 -0.12701209 -0.009505382 0.00010293229 -0.00051054737 -0.021348359 -0.00042986966 0.00048740866
-0.0004326955 0.00014666996 0.0006572117 -1.2062285e-05 -0.010147806 -5.9167636e-05 -0.00029002756 0.00012345533
-4.803643e-05 0.00022539921 7.59439e-05 -3.2150627e-05 -0.02472236 -0.00034986326 9.532922e-05 -0.01950587
-0.00033161836 0.0005892989 -7.094645e-05 0.00012598316 -0.28413543 6.927336e-05 -0.0002795322 -6.86805e-05
-0.00031128328 5.7971152e-05 1.890911e-05 -0.00040678016 -6.2484934e-05 -5.8490834e-05 0.00036948698 -0.032393225
0.24178343 -0.08910258 -0.00017192308 -0.00044306926 0.00012991857 -0.24574131 9.461868e-05 -0.069866955
-3.2842505e-05 0.00026748082 0.0001865942 0.0001267319 -8.6703476e-05 -0.00018751873 0.00013244747 -6.653663e-05
-0.00032730892 -4.40785e-05 -0.4842854 -0.00029691737 -4.952267e-05 -0.29636654 -5.755251e-05 -0.00016103774
0.00018630923 -7.6068616e-05 -7.11828e-05 0.18736579 -3.1777017e-05 -0.00046651944 -0.038858097 -0.00033609426
0.0001800148 -0.00010139301 -0.0001038343 5.1492447e-05 -7.221856e-05 0.00044235573 7.2153714e-05 -4.5408677e-05
-4.535012e-05 -0.3853099 -4.4183278e-05 -0.06056473 -4.758162e-06 -0.038024202 0.00046806814 0.00017842883
-3.137864e-05 0.00014079126 -0.0004247629 -0.028452924 -1.2030753e-05 -8.397293e-06 0.00012205828 -4.948028e-05
-0.3322904 -0.00020086077 -0.00040139369 0.00011219124 0.14655502 -6.7474e-05 0.00013836396 -0.016778389
-0.08725296 0.00026955584 -0.22803184 -5.843019e-05 -0.06702123 -0.0002639888 -7.4150215e-05 -0.097621486
-0.029071547 0.06452383 -4.5233166e-05 -0.00047057852 0.00010918148 9.744043e-05 0.00018589957 3.5732653e-05
0.00063532544 0.0005700499 -5.2358813e-05 -0.27426898 -5.9540103e-05 -0.05051074 -0.039687037 0.0001879006
00000000: 5459 81bb c2f6 a83d 0ad3 f53a c0c3 61bb
00000010: 575d 8dbb bf0d f7bb 6f76 8dbb 7e9a 40bb
00000020: eca5 8cbb f861 63bb c576 3fbb 7027 87bb
00000030: 0c91 843d 6dff 7dbb eb0c 7dbb 9995 69bb
00000040: fe07 81bb 688d 65bb 0875 69bb 46e2 67bb
00000050: 0488 3a3d c49f 89bb 0c4b 69bb b67b 8bba
00000060: a173 8cbb 3e41 4abb c3fb 82bb 0d37 efba
00000070: 103d 113e ced8 6abb d1e8 82bb 9d3f 7dbb
00000080: 34a0 86bb e769 5ebb 1e20 71bb 9537 8abb
00000090: 33e0 78bb 0f72 81bb 14c8 59bb fea2 173d
000000a0: e6de 9f3e c742 8e3d b054 7bbb 3c48 8bbb
000000b0: 2b5b 5fbb 5a07 0a3d ce2c 60bb 1723 023e
000000c0: a3d8 6cbb 2720 52bb 6fc6 5cbb 4d31 65bb
000000d0: 244c 7dbb 638f 72bb e89e 5ebb 42ae 82bb
000000e0: 054f 83bb ba0c 79bb c58b c3bd 8fce 8bbb
000000f0: 2ae6 80bb 1965 69bc ffaf 81bb c67a 82bb
00000100: 7df1 5cbb 6ef6 83bb 2f7d 84bb 195e 983e
00000110: 4617 7bbb 6c8e 8dbb bad5 7a3d 9ab7 8bbb
00000120: 2b12 aabb 3c83 74bb bec6 6fbb af28 6dbb
00000130: 98ae 73bb 0389 52bb 88ae 63bb 4012 68bb
00000140: fe7d 7ebb ecbe e2ba 3991 7cbb bdb4 683e
00000150: 76b1 6fbb d9a1 45bc 70b3 5abb 7e51 5cbb
00000160: 36b5 78bb ff57 5fbb 6ab9 8dbb 30a2 993d
00000170: 2792 75bb ce1e 72bb 674c 65bb e44a 77bb
00000180: b7d4 30bc b651 77bb 547d 8dbb 001c 69bb
00000190: def3 1a3e f754 82bb 41d9 5fbb 57a3 bf3d
000001a0: aa87 1c3e aa52 60bb 6cdb a63d 22c5 81bb
000001b0: 4b66 513d 0563 8bbb 016f 73bb 4eec 313e
000001c0: 9fd7 533d 9545 253f 0c1c 80bb d145 8ebb
000001d0: 478e 62bb b3b8 64bb ee32 68bb b9e0 73bb
000001e0: 26c6 b0bb fc08 4bbb 50ec 77bb 42db 253d
000001f0: 85c3 84bb 7206 5d3d 9e2f 17bc 703c 66bb
00000200: ae36 7db8 750f 02be 76bc 1bbc 5add d738
00000210: 41d6 05ba c1e2 aebc 2160 e1b9 e28a ff39
00000220: 68db e2b9 6bcb 1939 bb48 2c3a 1f5f 4ab7
00000230: fc42 26bc c42a 78b8 d70e 98b9 ca73 0139
00000240: b97a 49b8 2459 6c39 1244 9f38 79d9 06b8
00000250: 8c86 cabc da6d b7b9 7ceb c738 c6ca 9fbc
00000260: 10dd adb9 2e7b 1a3a 16c9 94b8 591a 0439
00000270: 337a 91be da46 9138 2d8e 92b9 9008 90b8
00000280: bc33 a3b9 0d26 7338 019f 9e37 1c45 d5b9
00000290: 580a 83b8 0e54 75b8 b4b7 c139 c2ae 04bd
000002a0: 1396 773e 6a7b b6bd 4046 34b9 c04b e8b9
000002b0: c03a 0839 9ca3 7bbe 046e c638 6816 8fbd
000002c0: 5fc0 09b8 ab3c 8c39 80a8 4339 56e3 0439
000002d0: 93d4 b5b8 ada0 44b9 99e1 0a39 9589 8bb8
000002e0: a99a abb9 eee0 38b8 42f4 f7be 93ab 9bb9
000002f0: 90b6 4fb8 5bbd 97be 8964 71b8 3ddc 28b9
00000300: 015c 4339 0787 9fb8 fa47 95b8 d1dc 3f3e
00000310: 5048 05b8 2e97 f4b9 ab29 1fbd cf35 b0b9
00000320: 5bc2 3c39 f5a2 d4b8 9ec1 d9b8 98f9 5738
00000330: 0b74 97b8 fbeb e739 3b51 9738 3275 3eb8
00000340: 5236 3eb8 5747 c5be 6f51 39b8 b912 78bd
00000350: 4da8 9fb6 44bf 1bbd 0b67 f539 a018 3b39
00000360: 8f9c 03b8 5ea1 1339 b6b2 deb9 1b16 e9bc
00000370: b1d7 49b7 19e2 0cb7 8af9 ff38 0c89 4fb8
00000380: f821 aabe 279e 52b9 2672 d2b9 3748 eb38
00000390: 8512 163e d480 8db8 cb15 1139 d572 89bc
000003a0: aeb1 b2bd 2c53 8d39 2e81 69be f012 75b8
000003b0: 6d42 89bd fa67 8ab9 1881 9bb8 c6ed c7bd
000003c0: 7427 eebc 1225 843d beb8 3db8 fbb7 f6b9
000003d0: 5cf8 e438 ef58 cc38 09ee 4239 a5df 1538
000003e0: f88b 263a 676f 153a d99b 5bb8 fc6c 8cbe
000003f0: b3ba 79b8 5ae4 4ebd e08e 22bd 2f07 4539
