datasets/Spirit/model/random_lightlog.pth (torch, 10327 bytes, 22 tensors)

resblock1.conv1.weight f4 [3, 20, 3]
-0.11234636 -0.054738954 -0.11508991 -0.036102932 0.06606307 -0.092567 -0.10305626 -0.10014288
-0.0018952911 0.005024418 0.12710397 -0.12281517 0.086969025 0.021965198 0.09972863 -0.1282972
0.012093993 0.048774675 0.0381924 -0.10816752 -0.06447445 -0.6515538 -0.24980223 -0.09455907
0.86600846 0.12075555 -0.05802245 -0.9101138 0.02034926 0.0032722068 0.14000298 0.37022555
0.10179392 -0.10168231 -0.4858142 -0.13900635 -0.622485 -0.6088903 0.08956524 -0.4350362
-0.21698913 -0.017389761 0.922255 0.027971892 -0.11027769 0.10084992 -0.114405796 -0.011057783
0.5585731 -0.2455568 -0.04978528 0.6964907 0.25230083 0.15880023 1.560126 0.32545874
-0.086595036 0.9763038 0.29604366 -0.20263347 0.029876906 0.115495026 0.085044466 0.014461506
-0.09832703 -0.044163585 0.014113742 -0.038419798 0.028200105 -0.044802893 0.056908213 0.06824141
0.051210444 0.09409287 -0.057518743 -0.08339286 0.056330446 -0.06664109 -0.07625615 0.039954167
-0.010948695 -0.01290555 -0.042987164 -1.1081966 -0.06413266 -0.6364344 0.4622438 0.56951094
0.37354338 0.14213194 -0.3821383 0.20444193 -0.79889345 -0.08062109 -0.0005176915 -0.55686545
0.4126641 -0.18382443 0.14508896 -0.98324984 0.037007947 -0.09588332 0.44808948 -0.36014232
0.5394407 -0.18344714 -0.3051412 0.34088004 0.6550654 0.5992788 0.55358756 0.37885422
0.7742319 0.62638307 -1.155376 -0.35639736 -0.014547821 1.0015738 -0.9861281 -0.13200332
0.07439339 -0.11960095 0.08722382 0.12878568 -0.046830446 0.0990715 0.08936832 0.12458909
-0.062362038 0.031987224 0.067417264 0.012924429 -0.09802981 0.0033308566 0.07288005 -0.017955849
0.02685397 -0.12540852 0.10620942 0.122667484 0.07716312 -0.36033848 0.4460127 -0.17322093
-0.5591379 0.21970348 0.26739204 -0.07339169 1.2161018 -0.04529116 0.1889294 -0.42265844
-0.4133183 -0.38054913 0.23829226 0.47325018 -0.02144597 -0.075633876 -0.48899347 -0.0715956
0.10133569 0.036216784 -0.3863847 -0.9008803 0.03637046 -0.56634206 -0.18072094 -0.028569492
-0.32516804 -0.8801356 -0.54709256 -0.03474772 0.402731 -0.22451855 -0.3494862 0.040389184
0.08245908 -0.020568106 -1.0845917 -0.051264375
00000000: d915 e6bd f435 60bd 42b4 ebbd abe0 13bd
00000010: 134c 873d c493 bdbd 290f d3bd b617 cdbd
00000020: 6b6b f8ba dfa3 a43b 8b27 023e 8586 fbbd
00000030: d11c b23d 5cf0 b33c 863e cc3d 5760 03be
00000040: e225 463c f4c7 473d a26f 1c3d ef86 ddbd
00000050: 2e0b 84bd 3bcc 26bf 28cc 7fbe 30a8 c1bd
00000060: bbb2 5d3f b04e f73d f3a8 6dbd 38fd 68bf
00000070: 7eb3 a63c 8572 563b f15c 0f3e 348e bd3e
00000080: 5579 d03d d13e d0bd a4bc f8be ae57 0ebe
00000090: 2d5b 1fbf 3ce0 1bbf fb6d b73d 11bd debe
000000a0: 6632 5ebe f974 8ebc e718 6c3f 4f25 e53c
000000b0: 45d9 e1bd 678a ce3d 964d eabd b42b 35bc
000000c0: a6fe 0e3f 3e73 7bbe a6eb 4bbd 374d 323f
000000d0: 932d 813e 879c 223e 35b2 c73f 87a2 a63e
000000e0: bd58 b1bd 0cef 793f 0993 973e 267f 4fbe
000000f0: 6ac0 f43c a888 ec3d cb2b ae3d f4ef 6c3c
00000100: af5f c9bd e0e4 34bd 533d 673c 145e 1dbd
00000110: e803 e73c 3d83 37bd 9618 693d 27c2 8b3d
00000120: 0bc2 513d c3b3 c03d c698 6bbd e0c9 aabd
00000130: c1ba 663d 207b 88bd 2f2c 9cbd fba6 233d
00000140: 2862 33bc cd71 53bc 4f13 30bd 63d9 8dbf
00000150: fc57 83bd 5ded 22bf 38ab ec3e 78cb 113f
00000160: 1441 bf3e 098b 113e a2a7 c3be 3a59 513e
00000170: 4884 4cbf ac1c a5bd b0b5 07ba bc8e 0ebf
00000180: b548 d33e 793c 3cbe 3392 143e 43b6 7bbf
00000190: a595 173d 795e c4bd fc6b e53e 9364 b8be
000001a0: c918 0a3f 91d9 3bbe 783b 9cbe d487 ae3e
000001b0: 5eb2 273f 566a 193f eab7 0d3f 2ef9 c13e
000001c0: 1034 463f a45a 203f 5ce3 93bf b779 b6be
000001d0: fc59 6ebc 9233 803f e472 7cbf e12b 07be
000001e0: 905b 983d 58f1 f4bd 67a2 b23d 65e0 033e
000001f0: 48d1 3fbd 00e6 ca3d bd06 b73d 9128 ff3d
00000200: 566f 7fbd 0905 033d 1012 8a3d fcc0 533c
00000210: dac3 c8bd 804a 5a3b 2342 953d 2518 93bc
00000220: dbfc db3c 176b 00be 5384 d93d 1739 fb3d
00000230: b307 9e3d 497e b8be c75b e43e d460 31be
00000240: a923 0fbf f3f9 603e 9ce7 883e 624e 96bd
00000250: 39a9 9b3f 3983 39bd b576 413e b066 d8be
00000260: 759e d3be 56d7 c2be e302 743e d94d f23e
00000270: 75af afbc efe5 9abd 5a5d fabe b7a0 92bd
00000280: 1689 cf3d 0d58 143d 37d4 c5be 17a0 66bf
00000290: 31f9 143d cbfb 10bf e90e 39be 910a eabc
000002a0: 6d7c a6be 9150 61bf 420e 0cbf a053 0ebd
000002b0: c232 ce3e 31e8 65be dbef b2be 216f 253d
000002c0: 4ee0 a83d 727e a8bc e7d3 8abf 98fa 51bd

resblock1.conv1.bias f4 [3]
-0.18026571 -0.013196498 -0.15956359
00000000: 9397 38be 2036 58bc a364 23be

resblock1.conv2.weight f4 [1, 3, 3]
-2.7435741 -2.3441827 -0.93705386 -0.16495359 0.30998275 0.71879774 -1.3980396 -0.41185513
-1.4226376
00000000: b896 2fc0 1707 16c0 c3e2 6fbf 98e9 28be
00000010: 0fb6 9e3e 2103 383f f6f2 b2bf adde d2be
00000020: fd18 b6bf

resblock1.conv3.weight f4 [3, 20, 3]
0.028606167 0.07120973 -0.103454314 -0.07939451 -0.11717856 0.11608031 0.00070987234 0.083441384
0.04027957 -0.041537706 -0.035810772 -0.0780415 -0.034428146 0.025899353 -0.052175466 -0.0776041
-0.018690007 0.09619591 -0.06884135 -0.12306376 0.095731564 0.14329451 -0.22536361 -0.5328868
-0.10715307 -0.8622518 0.2851198 -0.1931635 -0.28039548 0.24312903 0.8479297 0.40617248
-0.42521742 0.25289297 -0.336248 -0.2883513 -0.12891422 0.17032768 0.31061208 0.11207787
0.8681635 -0.18899092 -0.5759915 -0.25623843 -0.8033616 0.082991324 0.3193893 -0.03976926
-0.3004376 -0.46983758 -1.2023947 0.68667513 0.20091613 -0.21475598 -0.4220114 0.70020753
0.48246694 -0.9935663 -1.0722142 -1.6093053 -0.10132493 0.030636365 0.055744786 0.027162613
-0.032774832 0.09392659 0.10486259 0.029279858 -0.07630854 0.0015313519 -0.052355126 -0.08633531
0.06667914 0.08703367 0.0165954 0.026277728 0.049508832 -0.09018537 0.1047974 -0.06904799
0.042708967 0.07582412 1.2193544 0.26234996 0.21961248 -0.79775095 0.08399425 -0.3234075
0.32237822 0.53118074 -0.4970062 -0.4204799 0.058639817 0.20744114 -0.027173964 0.06732331
-0.21050808 0.40173194 -0.12295425 -0.24713996 0.32811838 0.2986242 -0.760582 0.016391166
-0.08444502 0.059493843 -0.04119236 -0.08732088 -0.3348518 0.03966346 0.19553614 0.05673957
-1.2677232 -0.99583495 -0.011889667 1.0867512 0.5162562 1.9729079 3.037633 2.3463995
-0.0045267097 0.07008905 -0.040427834 0.06679187 0.109324455 -0.10609083 -0.06450623 -0.12572335
-0.021778012 0.047626715 -0.053921428 0.090254225 -0.10493142 -0.12787999 -0.09055919 0.04411683
-0.09279581 -0.009895137 -0.075471565 -0.1106042 0.07609016 -0.55328536 -0.7917546 0.066348925
0.80471474 0.41374916 -0.0798736 0.1551578 0.0147170685 0.16642413 -0.2579467 -0.13005127
1.062058 -0.10343408 -0.24973288 0.083809644 -0.04122665 0.775325 -0.4042332 -0.041319802
1.2942907 -0.6161902 0.5427928 1.4699442 0.6347126 -0.16036846 0.10004509 0.6503668
0.18008344 0.29070675 0.9578048 -0.058129624 0.07672585 -0.7863907 -0.2808076 0.46677464
-0.57791734 -0.26860532 -0.5751908 -0.88918793
00000000: 7b57 ea3c 68d6 913d dbdf d3bd 9799 a2bd
00000010: 50fb efbd 83bb ed3d ba16 3a3a 51e3 aa3d
00000020: 31fc 243d 7123 2abd 51ae 12bd 39d4 9fbd
00000030: 8704 0dbd e12a d43c f1b5 55bd e6ee 9ebd
00000040: c91b 99bc 5c02 c53d b2fc 8cbd da08 fcbd
00000050: e90e c43d ccbb 123e b8c5 66be 456b 08bf
00000060: 1273 dbbd 89bc 5cbf 39fb 913e a7cc 45be
00000070: ff8f 8fbe d1f6 783e ec11 593f d7f5 cf3e
00000080: 19b6 d9be 307b 813e b328 acbe c8a2 93be
00000090: 1702 04be 616a 2e3e 8c08 9f3e 1589 e53d
000000a0: f73f 5e3f d686 41be 2e74 13bf af31 83be
000000b0: 1ba9 4dbf 5bf7 a93d ff86 a33e 17e5 22bd
000000c0: f5d2 99be 8d8e f0be 12e8 99bf f1c9 2f3f
000000d0: f5bc 4d3e fee8 5bbe e111 d8be cd40 333f
000000e0: e805 f73e 5c5a 7ebf 513e 89bf b7fd cdbf
000000f0: 7283 cfbd 1df9 fa3c a554 643d 2184 de3c
00000100: e73e 06bd 965c c03d 33c2 d63d 50dc ef3c
00000110: a747 9cbd a5b7 c83a 5472 56bd 91d0 b0bd
00000120: 138f 883d b53e b23d 14f3 873c 6444 d73c
00000130: c6c9 4a3d 1bb3 b8bd 05a0 d63d 0869 8dbd
00000140: 99ef 2e3d ad49 9b3d ce13 9c3f bc52 863e
00000150: 18e2 603e 6839 4cbf 2d05 ac3d ab95 a5be
00000160: c20e a53e 76fb 073f 9977 febe 2449 d7be
00000170: 4e30 703d 736b 543e ef9b debc cee0 893d
00000180: 6e8f 57be cfaf cd3e 70cf fbbd 4212 7dbe
00000190: 22ff a73e 45e5 983e 80b5 42bf c446 863c
000001a0: 83f1 acbd d1af 733d 52b9 28bd 4ad5 b2bd
000001b0: b271 abbe 2776 223d a03a 483e c067 683d
000001c0: c144 a2bf 0aef 7ebf e1cc 42bc aa1a 8b3f
000001d0: 5e29 043f 3f88 fc3f 9468 4240 692b 1640
000001e0: cb54 94bb d98a 8f3d a897 25bd 2dca 883d
000001f0: 80e5 df3d 2646 d9bd d81b 84bd 9fbd 00be
00000200: cd67 b2bc 3b14 433d b7dc 5cbd 35d7 b83d
00000210: 49e6 d6bd f9f2 02be 1977 b9bd d9b3 343d
00000220: bb0b bebd 361f 22bc d690 9abd 7484 e2bd
00000230: 28d5 9b3d 1ca4 0dbf 6eb0 4abf f2e1 873d
00000240: c901 4e3f eed6 d33e c594 a3bd b0e1 1e3e
00000250: dc1f 713c 166b 2a3e 9711 84be 292c 05be
00000260: 84f1 873f 3fd5 d3bd fab9 7fbe 64a4 ab3d
00000270: 47dd 28bd b37b 463f a7f7 cebe f43e 29bd
00000280: 51ab a53f a4be 1dbf 78f4 0a3f 2227 bc3f
00000290: 867c 223f a137 24be 71e4 cc3d 707e 263f
000002a0: cb67 383e 84d7 943e b232 753f 5419 6ebd
000002b0: 7122 9d3d e750 49bf 04c6 8fbe 16fd ee3e
000002c0: 64f2 13bf a386 89be b43f 13bf d2a1 63bf

resblock1.conv3.bias f4 [3]
-0.117823556 -0.07740778 -0.11094497
00000000: 7a4d f1bd f887 9ebd 1e37 e3bd

resblock2.conv1.weight f4 [3, 3, 3]
0.30703038 0.05684784 -0.727626 0.26074812 -0.04628623 -0.16766487 0.22227547 -0.34895176
0.65827197 -0.04615867 -0.15034351 0.09027203 -0.27833995 -0.2573945 0.17381093 -0.28936797
-0.25027022 -0.16269486 0.25931463 0.8883782 0.30092543 0.4689427 0.57870764 0.47100857
0.44232884 0.7229082 -0.025848057
00000000: 1633 9d3e 48d9 683d b345 3abf c780 853e
00000010: a196 3dbd 57b0 2bbe 2e9c 633e cea9 b2be
00000020: 8384 283f e010 3dbd a6f3 19be 8be0 b83d
00000030: 9382 8ebe 36c9 83be 7efb 313e 0a28 94be
00000040: 6b23 80be 7b99 26be e3c4 843e c16c 633f
00000050: e612 9a3e 4219 f03e 2f26 143f 0928 f13e
00000060: ed78 e23e 8310 393f 4ebf d3bc

resblock2.conv1.bias f4 [3]
-0.22825581 -0.26525792 -0.14686565
00000000: e4bb 69be e3cf 87be f363 16be

resblock2.conv2.weight f4 [1, 3, 3]
0.34290373 1.8323159 0.9218436 0.17857775 0.2645762 0.108393714 0.57701993 1.0487844
0.4975103
00000000: 1491 af3e 5489 ea3f f1fd 6b3f 16dd 363e
00000010: 8876 873e 86fd dd3d 94b7 133f 913e 863f
00000020: acb9 fe3e

resblock2.conv3.weight f4 [3, 3, 3]
-0.11695465 -0.25920188 0.093138024 0.28696066 -0.17309296 -0.31782576 0.18921316 0.27477515
-0.043893933 -0.2388328 0.32236612 -0.21889564 0.050984025 0.05733093 -0.33004126 0.22460394
0.055544853 0.29915553 -0.17405431 0.20971517 0.1770289 -0.016233921 0.058560412 -0.120153904
0.045856874 0.13625869 0.22782092
00000000: eb85 efbd 1cb6 84be 26bf be3d 82ec 923e
00000010: 483f 31be 0fba a2be 18c1 413e 54af 8c3e
00000020: 20ca 33bd 9690 74be 2c0d a53e 2e26 60be
00000030: a0d4 503d d6d3 6a3d 2bfb a8be 93fe 653e
00000040: 0083 633d ea2a 993e 4b3b 32be 93bf 563e
00000050: 1047 353e 00fd 84bc 0bdd 6f3d 4013 f6bd
00000060: 6bd4 3b3d 6687 0b3e e349 693e

resblock2.conv3.bias f4 [3]
0.2611105 0.110449 -0.07092484
00000000: 47b0 853e 1633 e23d 0b41 91bd

resblock3.conv1.weight f4 [3, 3, 3]
0.14571258 0.9459895 -13.597501 -0.20644104 1.1780244 -14.052894 0.23181874 1.300474
-14.258988 0.51602083 0.09318381 -0.9838487 0.22681437 0.15357462 -1.2783648 0.49604216
0.055967566 -0.6462132 0.39920738 0.4023705 -0.1951518 0.53072757 -0.067752525 -0.1777879
0.829516 0.46139988 0.08184041
00000000: ae35 153e 5e2c 723f 5d8f 59c1 4865 53be
00000010: 81c9 963f a7d8 60c1 e461 6d3e ef75 a63f
00000020: d124 64c1 f119 043f 27d7 be3d 82dd 7bbf
00000030: 0742 683e aa42 1d3e 75a1 a3bf 3df9 fd3e
00000040: 3f3e 653d 3a6e 25bf e964 cc3e 8203 ce3e
00000050: e0d5 47be c3dd 073f d6c1 8abd 080e 36be
00000060: 295b 543f 9b3c ec3e f29b a73d

resblock3.conv1.bias f4 [3]
0.4582188 0.7812369 0.08654142
00000000: a89b ea3e 24ff 473f a13c b13d

resblock3.conv2.weight f4 [1, 3, 3]
-2.6565113 1.6587733 1.7487824 -1.4591002 -1.8148834 -1.8741324 1.017605 0.14782074
-0.15828557
00000000: 4804 2ac0 af52 d43f 1ad8 df3f ccc3 babf
00000010: 194e e8bf 92e3 efbf e140 823f 525e 173e
00000020: 9d15 22be

resblock3.conv3.weight f4 [3, 3, 3]
0.026078224 0.008422017 -0.312302 -0.19663212 0.236065 -0.16550283 0.15881114 -0.058514755
-0.2483614 0.09474659 0.13517646 0.16943145 0.18810058 -0.17586975 0.12922034 0.20034087
0.1825423 -0.30338868 -0.2433995 -0.09108555 -0.31355315 0.17764466 0.031982146 0.3148769
-0.09898059 0.048576515 0.15654802
00000000: 00a2 d53c 80fc 093c 0ce6 9fbe ee59 49be
00000010: 06bb 713e 9379 29be 639f 223e 2bad 6fbd
00000020: 7352 7ebe 800a c23d b36b 0a3e 707f 2d3e
00000030: 709d 403e 3317 34be 5652 043e 2826 4d3e
00000040: 5eec 3a3e c355 9bbe b83d 79be 108b babd
00000050: 0a8a a0be 7be8 353e b6ff 023d 8c37 a13e
00000060: 56b6 cabd 2bf8 463d 204e 203e

resblock3.conv3.bias f4 [3]
0.16089158 -0.06616104 -0.25040096
00000000: c3c0 243e 707f 87bd 8e34 80be

resblock4.conv1.weight f4 [3, 3, 3]
0.5328696 0.00045439275 0.07659207 0.08152811 0.5644583 0.22701138 0.5422496 0.105560176
0.15714729 0.51788753 0.12780032 -0.9149446 0.3949715 0.41812566 -1.0368831 0.54884297
0.38294825 -0.67697674 -0.69931334 0.045285407 0.6992581 -0.76526356 0.13088174 0.68785876
-0.87115055 0.48246926 0.83146894
00000000: 246a 083f 903b ee39 4edc 9c3d 36f8 a63d
00000010: 5780 103f ac75 683e dfd0 0a3f ef2f d83d
00000020: 38eb 203e 4794 043f 16de 023e cf39 6abf
00000030: b439 ca3e 9114 d63e 96b8 84bf f980 0c3f
00000040: cb11 c43e 594e 2dbf 3306 33bf 317d 393d
00000050: 9402 333f 50e8 43bf dd05 063e 8317 303f
00000060: b903 5fbf 3606 f73e 26db 543f

resblock4.conv1.bias f4 [3]
-0.37261763 -0.80265 0.4336128
00000000: bdc7 bebe 787a 4dbf 7f02 de3e

resblock4.conv2.weight f4 [1, 3, 3]
0.637746 0.42924142 0.6669753 -1.1255856 -1.1754344 -1.9492015 -1.5328814 0.120902784
-0.27159774
00000000: 5243 233f 88c5 db3e e5be 2a3f 3013 90bf
00000010: a274 96bf 6f7f f9bf 7535 c4bf e19b f73d
00000020: dc0e 8bbe

resblock4.conv3.weight f4 [3, 3, 3]
-0.22094965 -0.06054918 0.017449737 0.14370343 0.13616638 0.023440044 -0.16829702 0.29519567
0.089499235 0.29758462 -0.10769431 -0.30660033 0.25012648 -0.15379426 -0.17808704 0.3266736
-0.18975005 -0.23595564 -0.24991032 -0.29012537 -0.07846328 0.29166162 0.06322682 0.09711941
-0.07507269 0.15628092 0.06606015
00000000: a040 62be 6b02 78bd c0f2 8e3c fe26 133e
00000010: 336f 0b3e 5605 c03c 0e56 2cbe e323 973e
00000020: 604b b73d 035d 983e d68e dcbd b8fa 9cbe
00000030: 9410 803e 3e7c 1dbe 735c 36be c341 a73e
00000040: d64d 42be 5b9e 71be 7ee8 7fbe 508b 94be
00000050: 5bb1 a0bd ac54 953e 107d 813d 8be6 c63d
00000060: b6bf 99bd 1b08 203e 8b4a 873d

resblock4.conv3.bias f4 [3]
0.005364935 -0.2714616 -0.14928417
00000000: 56cc af3b 04fd 8abe f3dd 18be

fc.weight f4 [2, 3]
1.1567831 0.8955127 0.62113345 -1.0286635 -0.8044755 -1.3432237
00000000: 7811 943f 5240 653f 9a02 1f3f 3fab 83bf
00000010: 1bf2 4dbf c1ee abbf

fc.bias f4 [2]
-3.9004548 4.2111397
00000000: 0da1 79c0 a8c1 8640
