datasets/Spirit/model/random_student.pth (torch, 3299 bytes, 6 tensors)

gru.weight_ih_l0 f4 [12, 30]
0	0x3d24cc42	0.040233858
1	0x3d3aff62	0.04565371
2	0x3f0afd06	0.54292333
3	0x3f013ae8	0.5048051
4	0x3eae0f75	0.33996168
5	0x3e8429fe	0.25813287
6	0xbca31050	-0.01990524
7	0x3ea8aded	0.32945195
8	0x3e11a113	0.14221601
9	0x402d9dca	2.7127557
10	0xc05a7cee	-3.413875
11	0xbfd70270	-1.6797619
12	0xbe4b21b7	-0.1983708
13	0x3ea1fed6	0.31639737
14	0x3e0ec0ce	0.13940737
15	0xbf391a1c	-0.72305465
16	0xbfc69f67	-1.5517396
17	0xbfcdecc2	-1.6087878
18	0xbede364d	-0.43400803
19	0x3ebea2df	0.37233636
20	0x40028ba1	2.0397723
21	0xbfa2c0e2	-1.2715113
22	0xbf1fbbc0	-0.6239586
23	0x3ff76520	1.9327736
24	0x3fa99116	1.3247402
25	0x3f7aa3ad	0.97906
26	0x3ff7bc97	1.9354428
27	0x3e151b16	0.14561114
28	0xbe82e3b7	-0.25564358
29	0x3f2d0910	0.67591953
30	0xbe952083	-0.29126367
31	0x3e0c8b73	0.1372507
32	0xbe60bafc	-0.21946329
33	0xbe95f575	-0.2928883
34	0x3ebc9f91	0.3684049
35	0x3ea8ce1c	0.3296975
36	0x3e504b40	0.20341206
37	0x404c14ae	3.1887622
38	0xc0e5383e	-7.1631155
39	0x3fec09fe	1.8440549
40	0xc0ad3135	-5.4122567
41	0xc0998aa0	-4.798172
42	0xbf291887	-0.6605305
43	0x3faf5832	1.369879
44	0xc061bd5f	-3.5271833
45	0x404811b6	3.126081
46	0x4086a671	4.2078176
47	0xbeae8615	-0.3408667
48	0x3f6d821d	0.9277666
49	0x40e47f60	7.1405487
50	0x406a6072	3.6621366
51	0xbf10035f	-0.56255144
52	0x40ebd793	7.370065
53	0xbfe74f74	-1.8071122
54	0x40c0b4e5	6.022082
55	0xc0885f84	-4.2616596
56	0x3f896ea3	1.0736889
57	0x3ef4c0a6	0.4780323
58	0xbd0978f8	-0.03356263
59	0xbe13a2d3	-0.14417581
60	0xbd3fa5f5	-0.04678913
61	0x3e1cf2c7	0.15326987
62	0x3e941d8e	0.28928798
63	0x3cd52480	0.026018381
64	0x3ccbec5d	0.02489298
65	0x3e43a917	0.19107471
66	0x3e281364	0.16413647
67	0x3fe376b3	1.7770599
68	0xbdb108fe	-0.08644293
69	0x3fe7c333	1.8106445
70	0xc0647f66	-3.5702758
71	0xc0854f3d	-4.1659226
72	0xc005ab54	-2.088582
73	0xbfe90bfc	-1.8206782
74	0x403b02ee	2.9220538
75	0x3fb0c1c2	1.380913
76	0x3f82c155	1.021525
77	0xbfe8d25c	-1.8189197
78	0x404f7d61	3.2420275
79	0x402b8813	2.6801803
80	0x3fc91cbc	1.5711894
81	0xc0230cfc	-2.5476675
82	0x40859059	4.1738706
83	0x400ce68b	2.2015712
84	0x4042cbe0	3.0436935
85	0xbfca263e	-1.579292
86	0xbe266e9b	-0.1625313
87	0xbf99efa3	-1.2026256
88	0x3fb276c1	1.3942491
89	0x3e7192ab	0.23591106
90	0x3e0e46f6	0.13894257
91	0xbf531cd6	-0.82465875
92	0xbf0f5303	-0.5598604
93	0xbf49fdbe	-0.78902805
94	0xbf300cef	-0.68769735
95	0xbe0758a8	-0.13217413
96	0xbf287dc5	-0.6581691
97	0x3fca3ccd	1.5799805
98	0x4011d4d8	2.278616
99	0xbf618c25	-0.8810447
100	0xc0ca91c3	-6.330293
101	0xc0b3056f	-5.5944133
102	0xbfc85b5e	-1.5652883
103	0xbf5cc8ea	-0.8624407
104	0x3e74b449	0.23896898
105	0xc06787d1	-3.6176646
106	0x3ea1d215	0.31605592
107	0xbf81a6e8	-1.0129061
108	0x3f691944	0.9105418
109	0xc0af07ed	-5.4697175
110	0x3fe7fb41	1.8123552
111	0x408a0159	4.3126645
112	0xc07122b2	-3.7677426
113	0xbfb8066c	-1.437696
114	0x3e2345b8	0.15944564
115	0x403663e3	2.8498466
116	0x40337b57	2.804403
117	0x407f99fd	3.9937737
118	0x401d0061	2.4531481
119	0x3f0c84bd	0.5489004
120	0x3e1a5448	0.15071213
121	0x3e19955e	0.14998385
122	0xbdc57e55	-0.096432365
123	0xbb194be4	-0.0023391182
124	0xbf1c083b	-0.6095006
125	0x3d34939d	0.044086087
126	0x3c874ed7	0.016517086
127	0x3ff6d872	1.9284804
128	0xc048d316	-3.1378837
129	0x3fa4ba9e	1.2869451
130	0xbf5f3549	-0.8719068
131	0xc0bb23d7	-5.848125
132	0xc04541b3	-3.082135
133	0x3ebe3a3b	0.371538
134	0xbf507367	-0.8142609
135	0x3faa78d6	1.3318126
136	0xbfaf3ee1	-1.3691064
137	0xc0ae445a	-5.4458437
138	0xc06c5ced	-3.6931717
139	0xbf9c6233	-1.2217468
140	0xbe6d8b01	-0.23197557
141	0x3ee9f529	0.45694855
142	0xc0917f61	-4.546799
143	0x3f681029	0.9064966
144	0x3ea7de79	0.3278692
145	0x4059944c	3.3996763
146	0x40d33c7b	6.601133
147	0xc0a5db07	-5.1829867
148	0x400e5704	2.224061
149	0x40971c7c	4.722227
150	0xc0e8339a	-7.256299
151	0xc0e9b4c9	-7.3033185
152	0xc0e32bb8	-7.0990868
153	0xc0ecce1f	-7.4001613
154	0xc0dc1ad1	-6.8782735
155	0xc0d2005d	-6.5625443
156	0xc0d38622	-6.6101236
157	0xc14ac5b5	-12.673268
158	0xc08a1656	-4.3152266
159	0xbffbbff5	-1.9667956
160	0x4115823a	9.344294
161	0xc0bda505	-5.926394
162	0x400c41ec	2.1915236
163	0x40408a76	3.008451
164	0x41d70c98	26.88115
165	0x40c6241d	6.1919084
166	0x4144eb86	12.307501
167	0xc115cce1	-9.362519
168	0xbffdf3e6	-1.9840057
169	0x409d5d9d	4.9176774
170	0xbf09278c	-0.5357597
171	0xc0f7c6cf	-7.7430186
172	0x4054e23c	3.3263083
173	0x4022a510	2.5413246
174	0x4135b3d9	11.356408
175	0xbfd0f04a	-1.632333
176	0xc0955381	-4.6664433
177	0xc10259a5	-8.146886
178	0x40fd5945	7.917147
179	0x40fdaec3	7.927583
180	0xbe4213a0	-0.18952799
181	0xbef010b4	-0.46887743
182	0xbdc0ebbb	-0.09419962
183	0xbe6d7ca9	-0.23192085
184	0x3e8a119d	0.26966563
185	0x3eac1730	0.3361144
186	0x3ede360b	0.43400607
187	0x400d745f	2.2102277
188	0xbe1173e6	-0.14204368
189	0x3edf5c6a	0.43625194
190	0xc04909e6	-3.1412292
191	0xc027a95b	-2.6197116
192	0xc014eebb	-2.327071
193	0xbfb4c85f	-1.4123648
194	0xc074168e	-3.8138766
195	0xc057a80c	-3.3696318
196	0xc0baba70	-5.8352585
197	0xbf490f94	-0.78539395
198	0xbfe76d01	-1.808014
199	0xc08aa6b5	-4.33285
200	0x3f144474	0.5791695
201	0x40a2b57c	5.084654
202	0xc0d4921d	-6.642836
203	0xbeafc9fe	-0.34333795
204	0xbff962a9	-1.9483234
205	0x40b3a57c	5.6139507
206	0x40ba101b	5.814466
207	0xc02d5f51	-2.7089427
208	0x409506e0	4.657089
209	0x407008c5	3.7505352
210	0xc011dd13	-2.2791183
211	0xc00dfaae	-2.2184253
212	0xbfe1f676	-1.7653339
213	0xbfc82f8e	-1.5639513
214	0xbfe96820	-1.8234901
215	0xc0054055	-2.0820515
216	0xbfd60a68	-1.6721926
217	0x3f34d20b	0.70633
218	0xbf15e4e0	-0.5855236
219	0x400a8988	2.1646442
220	0xc0735a27	-3.8023775
221	0xc083b470	-4.115776
222	0x3fc48b8f	1.535509
223	0x3f97cb99	1.1859008
224	0x3f89f751	1.07786
225	0x3f15a740	0.5845833
226	0xc04c1788	-3.1889362
227	0xc01ebadf	-2.4801557
228	0xbfe057f9	-1.7526847
229	0xc029d768	-2.6537724
230	0xbf38b183	-0.7214586
231	0x3f3083cf	0.68951124
232	0xc0097ff8	-2.1484356
233	0x3f26ec6a	0.6520449
234	0x3fd7830f	1.6836871
235	0x403e5a28	2.9742527
236	0x404375ca	3.0540643
237	0xbeb0ef31	-0.3455749
238	0x402b828d	2.6798432
239	0x40870087	4.2188144
240	0xbd4b4070	-0.049622
241	0x3e6c260e	0.23061392
242	0xbf2101e5	-0.62893516
243	0xbec84777	-0.39117023
244	0x3dafa87e	0.08577059
245	0xbe4ca980	-0.19986534
246	0x3e93f267	0.28895876
247	0xbfeb9e4c	-1.8407683
248	0xbf4b5075	-0.7941964
249	0xbffbba85	-1.9666296
250	0x402c9a60	2.6969223
251	0x3fbdc254	1.4824929
252	0xbfd9f266	-1.7027099
253	0x3ee3870c	0.4443897
254	0xbfe50f47	-1.7895287
255	0x3fb8241e	1.4386022

gru.weight_hh_l0 f4 [12, 4]
0	0x4023ff6d	2.562465
1	0x3c3e0214	0.011597175
2	0xbfa8f732	-1.3200438
3	0x401f59e7	2.4898622
4	0x403c7844	2.9448404
5	0xbe6e869e	-0.2329354
6	0xc047c764	-3.1215448
7	0x3ffaec42	1.960335
8	0x3f74fd41	0.95698935
9	0xbf817565	-1.0113951
10	0xc05d37d0	-3.4565315
11	0x3fc93421	1.5719033
12	0xbfa07163	-1.2534603
13	0xbc16ba97	-0.00919976
14	0xbe832a2b	-0.2561811
15	0x3fc1b9e7	1.5134858
16	0xbff969ea	-1.9485447
17	0xbe39b7c0	-0.18136501
18	0xbf721862	-0.94568455
19	0x3c190c87	0.009341366
20	0xc097ffc8	-4.7499733
21	0x407d0598	3.9534664
22	0x4003bda9	2.058451
23	0xbf9723e9	-1.1807834
24	0x3ea7acb2	0.32748944
25	0x401c3acd	2.441089
26	0x3d715af6	0.058924638
27	0x403200d4	2.7813005
28	0xc00b017d	-2.1719658
29	0x3c00a67e	0.007852195
30	0x3e7f40b0	0.2492702
31	0x3e252a0e	0.16129324
32	0x3f085df6	0.53268373
33	0x3f902205	1.1260382
34	0xc01ad516	-2.4192557
35	0xbdf8c624	-0.12147167
36	0x3e2f4aca	0.17118374
37	0x3f97e9b7	1.1868199
38	0xc0a666fd	-5.200072
39	0x3fcfb9a7	1.6228532
40	0xbfa44004	-1.2832036
41	0xbfb8a210	-1.4424458
42	0x40122b91	2.283909
43	0x3ed41fad	0.41430417
44	0x3fb9eaaf	1.4524745
45	0x3fdc029e	1.7188299
46	0xbfd8e59e	-1.6945074
47	0x3e8a701d	0.2703866

gru.bias_ih_l0 f4 [12]
0	0xbeb5bf80	-0.35497665
1	0x3dfa84bd	0.12232349
2	0xbf20ba67	-0.6278443
3	0x3f80a901	1.0051576
4	0xbf16e930	-0.58949566
5	0x3ea682b6	0.325216
6	0xbf53edc7	-0.82784694
7	0xbf8583f5	-1.0430895
8	0x3d911bd1	0.07085384
9	0xbad1705a	-0.0015978918
10	0x3f503807	0.8133549
11	0x3db634d1	0.08896793

gru.bias_hh_l0 f4 [12]
0	0xbedbc7b4	-0.429258
1	0x3f177505	0.5916293
2	0xbf4d5b2f	-0.8021726
3	0x3ed897a7	0.42303202
4	0xbee17fc5	-0.44042793
5	0xbb6924f1	-0.0035574997
6	0xbf371296	-0.71512735
7	0xbf80da5d	-1.0066639
8	0xbfa233c2	-1.2672045
9	0xbf81970b	-1.012422
10	0x3f237283	0.63846606
11	0xbf86eeb9	-1.0541602

fc.weight f4 [2, 4]
0	0xc14df47a	-12.872187
1	0xc1a6e516	-20.861858
2	0x40a3555f	5.1041713
3	0xc07b1e27	-3.9237154
4	0x414764ed	12.46214
5	0x41a2e00a	20.359394
6	0xc0968082	-4.703187
7	0x4086ca69	4.2122083

fc.bias f4 [2]
0	0xc0e6f5c2	-7.2174997
1	0x40d66037	6.699245
