datasets/Spirit/model/random_teacher.pth (torch, 644963 bytes, 10 tensors)

gru.weight_ih_l0 f4 [384, 30]
000000 3c 6c 38 b8 3c 6c 38 b8 3c 6c 38 b8 3c 6c 38 b8
       -4.396982e-05 -4.396982e-05 -4.396982e-05 -4.396982e-05
000010 3c 6c 38 b8 3c 6c 38 b8 3c 6c 38 b8 52 cf 2a b9
       -4.396982e-05 -4.396982e-05 -4.396982e-05 -0.00016289696
000020 57 47 4f b9 6e 16 f6 b9 19 f3 21 39 64 08 19 b9
       -0.00019767635 -0.00046937488 0.00015444717 -0.00014594343
000030 93 dc ab b9 99 db 50 b9 a6 3a eb b8 27 3a 04 38
       -0.00032780002 -0.00019918232 -0.00011216597 3.152541e-05
000040 16 4a c2 b9 f2 07 0d ba b5 56 02 ba e2 7c c7 b9
       -0.00037057762 -0.0005379907 -0.0004972027 -0.00038049283
000050 10 4d cf b8 6f 8c 20 38 8f 5e 8b 39 f9 af 1d b8
       -9.884883e-05 3.827776e-05 0.00026582598 -3.7595604e-05
000060 66 9f 0e b9 9d bc de b8 91 07 43 3a ab c6 a9 38
       -0.00013601556 -0.00010620917 0.0007439787 8.095553e-05
000070 a3 3e 41 3a 48 3c d1 39 bd 5a 90 b9 bd 5a 90 b9
       0.00073716993 0.000399085 -0.00027533426 -0.00027533426
000080 bd 5a 90 b9 bd 5a 90 b9 bd 5a 90 b9 bd 5a 90 b9
       -0.00027533426 -0.00027533426 -0.00027533426 -0.00027533426
000090 bd 5a 90 b9 08 07 29 3b 14 34 f8 3a 40 c6 9b bb
       -0.00027533426 0.0025791544 0.0018936419 -0.004753858
0000a0 ee 26 82 3a 3a 64 7b bb 89 56 79 3a 63 16 3e bb
       0.0009929815 -0.00383593 0.0009511491 -0.0029005043
0000b0 a7 45 9f 3b cd bb bf 3b 4d e4 4f bb 32 ef 01 bb
       0.004860598 0.005851245 -0.0031721771 -0.001982641
0000c0 ae 9e be bb 26 25 ee ba 0a c5 75 3b 71 fd 8e bb
       -0.005817256 -0.001816903 0.0037501478 -0.0043637087
0000d0 21 2f 41 3b c6 3a a7 ba de 20 53 b9 41 1f 82 bb
       0.0029477554 -0.0012758605 -0.00020134772 -0.003971011
0000e0 79 35 b9 3b 34 b1 92 ba e8 68 02 3c 9d 55 12 3b
       0.0056521264 -0.0011191727 0.007959582 0.0022328862
0000f0 3b f5 ff 38 3b f5 ff 38 3b f5 ff 38 3b f5 ff 38
       0.00012205025 0.00012205025 0.00012205025 0.00012205025
000100 3b f5 ff 38 3b f5 ff 38 3b f5 ff 38 42 75 af b9
       0.00012205025 0.00012205025 0.00012205025 -0.00033465965
000110 f8 f6 ed 38 90 25 88 b6 eb d7 94 39 b9 20 f2 b9
       0.00011347042 -4.0574887e-06 0.0002838963 -0.00046182217
000120 9d 9d 23 b9 79 13 03 39 38 36 6d 39 5b ba 2a 3a
       -0.00015603607 0.00012500388 0.0002262228 0.00065127545
000130 21 d4 47 39 ca 31 5f b9 61 c8 9e b9 22 5e b5 36
       0.00019057143 -0.00021285485 -0.00030285402 5.405179e-06
000140 d0 82 82 39 af db 79 b8 d0 b7 d2 36 d1 40 03 39
       0.00024892995 -5.9570822e-05 6.2798863e-06 0.0001251728
000150 f4 e3 cb b9 05 6f 9d 39 55 b0 90 38 35 17 21 39
       -0.00038889016 0.0003002809 6.8992995e-05 0.00015362802
000160 39 a5 c2 39 cd ff 6a 39 f6 28 33 38 f6 28 33 38
       0.00037125664 0.00022411272 4.2715074e-05 4.2715074e-05
000170 f6 28 33 38 f6 28 33 38 f6 28 33 38 f6 28 33 38
       4.2715074e-05 4.2715074e-05 4.2715074e-05 4.2715074e-05
000180 f6 28 33 38 21 8e b4 b9 3b db 06 3a e1 bd 86 b9
       4.2715074e-05 -0.0003443817 0.0005144362 -0.00025699942
000190 2b 40 de 37 20 82 ed b8 9e 86 31 b9 51 58 04 b9
       2.6494343e-05 -0.00011325278 -0.00016930184 -0.00012621401
0001a0 91 33 0a 39 f0 9e 14 b9 45 67 42 38 64 d5 d7 b8
       0.00013179916 -0.00014173589 4.634938e-05 -0.00010291746
0001b0 30 e1 93 38 5a 04 b4 b9 f1 25 22 3a 73 5e 52 b9
       7.051451e-05 -0.00034335518 0.0006185463 -0.00020062346
0001c0 f5 42 0c ba 88 34 fe 39 3f 5d 3e ba a5 75 4f 39
       -0.00053505535 0.00048485794 -0.00072618196 0.00019784884
0001d0 5c ae 17 3a 39 ba 8e b8 6f a2 93 39 04 38 bc b5
       0.00057861744 -6.805774e-05 0.00028159047 -1.4023394e-06
0001e0 e2 d2 c0 b7 e2 d2 c0 b7 e2 d2 c0 b7 e2 d2 c0 b7
       -2.2986384e-05 -2.2986384e-05 -2.2986384e-05 -2.2986384e-05
0001f0 e2 d2 c0 b7 e2 d2 c0 b7 e2 d2 c0 b7 0c 4b 5c b9
       -2.2986384e-05 -2.2986384e-05 -2.2986384e-05 -0.00021008792
000200 67 ad f3 38 4c d0 a9 b8 64 18 bb 39 a0 b7 bb 38
       0.00011619442 -8.097346e-05 0.00035685592 8.951058e-05
000210 43 e5 57 b9 f2 2f a6 38 58 5f 24 38 70 75 5c 39
       -0.00020589404 7.924427e-05 3.9189443e-05 0.00021024584
000220 10 e4 e6 36 e7 88 26 b8 ec 96 5d b9 a2 bf ec b9
       6.881084e-06 -3.9704984e-05 -0.00021132425 -0.00045156205
000230 5b ff 6f 39 c4 f2 e9 38 21 0b f0 b9 1b a1 9a b8
       0.00022887943 0.000111555244 -0.0004578466 -7.3733005e-05
000240 99 4c af b9 6d e5 06 39 3b 0c 10 39 9c cc dd 38
       -0.0003343567 0.00012864704 0.00013737466 0.00010576213
000250 97 f6 88 b7 3e ea ff 37 5c a5 80 b8 5c a5 80 b8
       -1.632729e-05 3.0507446e-05 -6.134316e-05 -6.134316e-05
000260 5c a5 80 b8 5c a5 80 b8 5c a5 80 b8 5c a5 80 b8
       -6.134316e-05 -6.134316e-05 -6.134316e-05 -6.134316e-05
000270 5c a5 80 b8 11 77 0d b9 eb bb 02 b9 d0 e3 ec b9
       -6.134316e-05 -0.00013491164 -0.00012467771 -0.0004518316
000280 17 6e 06 39 0a 76 de b8 73 0c 4d 39 39 c8 17 ba
       0.00012820248 -0.000106077714 0.00019554961 -0.00057900284
000290 bd 88 09 b9 b7 0e 65 37 d2 5f cf b9 65 fc 08 37
       -0.00013116277 1.365289e-05 -0.00039553508 8.164997e-06
0002a0 25 53 16 39 c6 a5 9b b9 21 b8 9a b9 65 ff 62 b8
       0.00014336088 -0.00029687415 -0.00029510356 -5.4120454e-05
0002b0 49 28 93 b8 fb 28 17 b9 3e 77 36 b8 2b f8 0c 38
       -7.01701e-05 -0.00014415749 -4.3503234e-05 3.3609726e-05
0002c0 31 9f dd 39 9f 9b 1a 38 ba 35 91 39 34 ae e1 b8
       0.00042271012 3.6861395e-05 0.00027696585 -0.00010761284
0002d0 d5 b5 55 b8 d5 b5 55 b8 d5 b5 55 b8 d5 b5 55 b8
       -5.09525e-05 -5.09525e-05 -5.09525e-05 -5.09525e-05
0002e0 d5 b5 55 b8 d5 b5 55 b8 d5 b5 55 b8 e5 a6 1f ba
       -5.09525e-05 -5.09525e-05 -5.09525e-05 -0.0006090238
0002f0 26 2d dc 39 50 37 3d 36 99 11 2b 3a b1 63 31 ba
       0.00041995308 2.819539e-06 0.00065257546 -0.00067668693
000300 24 31 9f b9 84 69 25 3a 41 ac e8 39 3f 03 12 3a
       -0.00030363456 0.00063099735 0.00044378827 0.0005569942
000310 5d 58 e3 38 d5 a6 fa b8 57 f8 4a ba 4f cb b7 b9
       0.000108406624 -0.00011952004 -0.0007742694 -0.00035055957
000320 08 e9 f7 b8 f8 45 9a b9 34 4b be b9 79 7d d9 39
       -0.00011821283 -0.000294253 -0.00036295655 0.0004148295
000330 d7 99 db b9 e9 dc a1 39 75 9c 94 b8 f4 62 35 37
       -0.00041885555 0.00030872904 -7.086332e-05 1.081148e-05
000340 43 54 1e 3a 07 09 1f 38 32 53 07 bd 32 53 07 bd
       0.00060397777 3.791696e-05 -0.033038326 -0.033038326
000350 32 53 07 bd 32 53 07 bd 32 53 07 bd 32 53 07 bd
       -0.033038326 -0.033038326 -0.033038326 -0.033038326
000360 32 53 07 bd bc 79 2f bc 55 c5 43 3d bf e8 cc 3c
       -0.033038326 -0.010710176 0.047795612 0.025013326
000370 54 c8 b3 bc cf a5 d4 b9 b4 5e 27 bc 1f d7 de bc
       -0.02194611 -0.00040559328 -0.01021545 -0.027202187
000380 95 f9 a9 3b 74 25 51 bd 12 02 03 3d 16 a0 77 3c
       0.005187223 -0.05106111 0.031984396 0.015113851
000390 a7 40 4b 3d e6 fa d6 3c 46 f4 f2 bb 27 c6 46 3c
       0.049622204 0.026242685 -0.0074143736 0.012132204
0003a0 3c 8d 10 3d 8b b5 6b bc 15 74 d7 3c 04 b2 55 3c
       0.03529094 -0.014386545 0.02630047 0.0130429305
0003b0 81 01 82 bd 52 bb 05 bd b1 bd bf bc d5 ab a5 bc
       -0.06347943 -0.032649346 -0.023405882 -0.020223537
0003c0 15 35 5e b9 15 35 5e b9 15 35 5e b9 15 35 5e b9
       -0.00021191344 -0.00021191344 -0.00021191344 -0.00021191344
0003d0 15 35 5e b9 15 35 5e b9 15 35 5e b9 4a 18 d0 3c
       -0.00021191344 -0.00021191344 -0.00021191344 0.025402207
0003e0 26 a6 8c 3c b1 25 b6 bb 97 a5 9d bc c2 db f7 bc
       0.01716907 -0.0055586924 -0.019243998 -0.030256156
0003f0 f3 3e 02 bc 60 35 c2 3b 69 53 e4 3c 28 a3 09 bc
       -0.007949579 0.005926773 0.027871804 -0.008400716

gru.weight_hh_l0 f4 [384, 128]
000000 00 63 9d b9 c2 98 1d 39 9c 09 19 b9 45 e9 6f 39
       -0.00030019134 0.00015029593 -0.00014594797 0.00022879716
000010 bb 4c ea 38 68 71 86 b9 b0 62 d5 b8 c2 88 87 3a
       0.00011172282 -0.00025642966 -0.000101750134 0.001034044
000020 9b e8 40 3a 98 d7 2f 3a c2 42 77 38 23 b9 3a b9
       0.00073588797 0.0006707846 5.8951562e-05 -0.00017807311
000030 b1 d1 cd 38 03 6d 20 39 3f c2 90 39 3b ce 06 39
       9.81422e-05 0.00015299399 0.00027610545 0.00012856063
000040 b3 80 fc 3a 3b c4 1d ba 3e a3 d8 39 df 90 57 38
       0.001926443 -0.00060183153 0.00041320355 5.1394916e-05
000050 0b 26 43 3b 6b ff 03 39 3c 0d 36 b9 06 b5 6f 37
       0.0029777314 0.00012588284 -0.00017361803 1.4287658e-05
000060 7d 91 27 39 fc 1f 2b 39 1f 3f c1 39 7c f9 9b 39
       0.0001598056 0.00016319746 0.00036858857 0.00029749784
000070 e7 fe c4 b9 2f 97 ab b9 d5 7f ae b9 d3 f2 fa b9
       -0.0003757395 -0.00032728302 -0.00033283108 -0.00047864634
000080 1a e1 ad 39 4d 79 0e 3b 33 92 a7 39 3d 3b bc b8
       0.00033164845 0.0021739781 0.0003196165 -8.9755726e-05
000090 ec bc a2 39 02 a7 88 39 08 c8 b3 39 43 f0 0d 37
       0.00031039806 0.00026064372 0.00034290575 8.460195e-06
0000a0 93 d0 cb b9 a3 90 2e 38 a1 cd a1 b9 eb 71 e3 b8
       -0.00038874577 4.1619536e-05 -0.00030861518 -0.000108454224
0000b0 62 ec db 38 69 dd 04 3a 2f 8b c1 b8 1c e7 12 bb
       0.000104867635 0.0005068393 -9.228882e-05 -0.0022415584
0000c0 4a f8 6c 39 b8 ff 2f ba a9 c2 5f 3b 18 d9 c5 39
       0.00022599209 -0.0006713825 0.0034143126 0.00037736516
0000d0 fb ad 66 39 ef ff d5 39 5e a4 79 b8 39 e8 87 b8
       0.00021999322 0.0004081721 -5.9519305e-05 -6.4805565e-05
0000e0 cf 97 38 39 9e bd fb 37 32 52 df 38 e7 6a 6c b7
       0.0001760416 3.0009829e-05 0.00010648779 -1.4091586e-05
0000f0 45 77 d0 38 f2 ae 4d 39 20 7e 21 39 0b 0d f3 39
       9.9404286e-05 0.00019615496 0.00015401142 0.0004635829
000100 18 4d 3b b9 df 5e b9 b8 d5 b7 8d 39 de ef b1 b9
       -0.0001786243 -8.8391585e-05 0.0002703058 -0.00033938786
000110 f4 5e 88 39 69 1c 63 b9 c4 c4 6a b7 0c d2 5a b8
       0.00026010687 -0.0002165899 -1.39933e-05 -5.217087e-05
000120 50 27 05 3a ab e3 1d 3a 81 24 35 39 72 95 0b ba
       0.00050794054 0.0006023 0.00017275104 -0.0005324698
000130 af d6 cf 37 81 ee 87 b9 8c f1 9a b7 b1 b3 86 39
       2.4776293e-05 -0.00025926906 -1.847071e-05 0.00025692352
000140 83 e4 20 3b 9f e1 9d ba 4d 0b 23 b9 4b 0f a3 b8
       0.0024550266 -0.001204539 -0.00015549101 -7.775294e-05
000150 16 b1 c9 b8 f0 0c 82 38 07 fa 25 39 63 42 c6 39
       -9.617412e-05 6.201293e-05 0.00015828769 0.00037814965
000160 0d 8b 7f b8 10 0e fb b7 fd f8 0e 39 9b 13 54 3b
       -6.092624e-05 -2.992808e-05 0.0001363493 0.0032360319
000170 3c cc d5 38 2a 09 73 b9 70 01 6f 39 54 0b 4b b9
       0.00010194673 -0.000231777 0.00022793352 -0.00019363809
000180 dc da 5b b7 2e ae 0b 37 f5 72 bc 3a 3f 6a 3d b9
       -1.3104374e-05 8.3256e-06 0.0014377522 -0.00018064024
000190 6e 84 b4 39 52 d8 89 3a d1 8b 7e ba 86 be 8b b9
       0.00034430943 0.0010516739 -0.00097101653 -0.00026654097
0001a0 a9 18 ca b8 35 d0 67 ba c9 51 5a b8 0b 0c 3d 38
       -9.636704e-05 -0.0008842976 -5.205142e-05 4.5072327e-05
0001b0 f2 09 56 3b df 56 3a b9 38 c9 3b 39 c6 d2 db 39
       0.0032659736 -0.00017770704 0.0001790867 0.00041927974
0001c0 ab 88 f8 b9 ed 17 e0 b9 2c 20 4b 37 89 e0 92 b9
       -0.00047404072 -0.00042742435 1.21072335e-05 -0.00028014582
0001d0 a2 86 b1 38 b1 09 1d b8 af a6 70 39 b3 17 f2 39
       8.465095e-05 -3.7440743e-05 0.00022950278 0.00046175494
0001e0 1d 90 47 3a cb a2 a0 34 83 bf bb b9 d0 ac af 39
       0.0007612722 2.992077e-07 -0.00035810107 0.00033507356
0001f0 80 d9 67 38 fe d0 79 b8 eb 6b c2 38 9d 1b c1 b9
       5.5277254e-05 -5.9560865e-05 9.270742e-05 -0.00036832402
000200 46 c1 6b 3b f6 a3 72 3c 12 d4 01 3b b4 f9 30 bb
       0.0035973354 0.014809599 0.0019810242 -0.0027004303
000210 ae 5e 0d ba 2c 01 a8 ba 14 5b 86 3b 67 06 18 bc
       -0.00053928315 -0.0012817732 0.004100213 -0.00927887
000220 3c 7c ad bc 6c 09 3e bb e0 ce 86 bb bc c2 56 3b
       -0.021177404 -0.0028997315 -0.004114017 0.003276988
000230 42 b1 01 3b 08 c5 db bb a8 63 a9 3a 71 5e aa 39
       0.0019789492 -0.0067068376 0.0012923377 0.0003249529
000240 5d 29 81 bc d6 dc 5f 3c ba c1 ae bb 24 c1 11 bb
       -0.015766794 0.013663491 -0.0053331526 -0.0022240365
000250 6a 96 54 3a 69 b8 87 3b 88 6b f8 3a ec 0c ce ba
       0.00081095716 0.0041418565 0.0018952945 -0.0015720404
000260 d2 dc d9 ba 13 a0 ce bb 35 14 ab bb 9a 73 88 3c
       -0.0016621596 -0.0063057034 -0.0052209147 0.016656686
000270 86 8a 43 3c 3c 48 3d 3c 8f d4 c3 3a da f1 41 3c
       0.011934882 0.011552867 0.0014940667 0.011837447
000280 33 26 71 bb 67 36 de bc 62 9d f3 b9 02 49 83 3b
       -0.003679645 -0.02712555 -0.0004646583 0.004006506
000290 aa 24 7c 3c 59 3d 20 ba a1 a1 7a bb db 37 4b 3a
       0.015389601 -0.0006112657 -0.003824331 0.00077521586
0002a0 29 a5 5e 3b 11 46 1b ba 55 0c 60 39 29 a6 fd bb
       0.0033972955 -0.00059232215 0.00021366899 -0.007740755
0002b0 4e 99 48 3b a0 e3 eb bb f9 21 8c 3a a8 61 f5 3c
       0.0030608955 -0.007198766 0.0010691277 0.029953793
0002c0 89 a2 0a bb 35 65 0c 3c 7c 97 b7 bc 44 1a 49 bb
       -0.0021154007 0.0085690515 -0.0224111 -0.0030685822
0002d0 4b 78 6d ba 42 99 90 bb 0a 64 29 3b 9e c0 e3 3a
       -0.00090587576 -0.004412801 0.0025846981 0.001737613
0002e0 f4 fa 99 ba 5a 5f 19 bb e7 54 cc 38 a3 4b 92 ba
       -0.0011747763 -0.0023402781 9.743292e-05 -0.0011161458
0002f0 15 0f f6 ba b5 e6 5a ba f4 ba 39 bb 5b 82 58 bc
       -0.0018772805 -0.0008350418 -0.0028340193 -0.013214673
000300 26 d9 b2 39 4d c0 42 3b d8 2c fc bb 24 79 60 3b
       0.00034112594 0.002971667 -0.0076957755 0.0034251893
000310 42 07 a6 bb 4b 50 80 3b 34 dc 6b 3a da 04 c2 3a
       -0.005066783 0.0039158217 0.00089973514 0.0014802471
000320 67 6d 95 bb e0 fd 0f bc 13 df 7b bb 55 ce 5a 3b
       -0.004560161 -0.008788556 -0.0038432523 0.0033387144
000330 1c 6d c4 ba a1 ef ce b9 f6 91 b0 3a ef 8d e0 3a
       -0.001498613 -0.0003946992 0.0013471234 0.0017132143
000340 b7 c0 da bc 06 2f 09 3c ef e9 a0 3b 29 2b 55 ba
       -0.026703222 0.008373028 0.0049106996 -0.00081317365
000350 bd 4d 00 3b ae 58 aa ba 0c d7 f6 ba 24 6b 83 bc
       0.0019577586 -0.0012996399 -0.00188324 -0.0160423
000360 e5 e6 a1 3b d6 46 db 37 a3 00 43 bb 4c be f9 bc
       0.004940855 2.613982e-05 -0.0029755018 -0.030486248
000370 ab 0c ba ba 42 1a 4f 3c 77 ea 82 bb 1a a4 1a bb
       -0.0014194449 0.012640538 -0.0039952355 -0.0023596347
000380 7b f5 08 3c 39 b5 21 3b 9f 76 a8 bc 6d f7 32 bc
       0.008359308 0.0024674668 -0.020564375 -0.010923249
000390 ea b4 8e bc 27 14 5f bc 6d c6 cf 3c 68 dd 4d 3b
       -0.01742025 -0.013615645 0.025363171 0.0031412486
0003a0 15 d2 05 3c 34 db 77 3c fb 2b 45 b9 8d bf 53 bb
       0.008167763 0.015127946 -0.00018803768 -0.0032310218
0003b0 cd 99 98 bc 9d 6d e6 37 e4 32 4b 3c 21 76 3e bc
       -0.018628025 2.746918e-05 0.01240227 -0.011624844
0003c0 82 71 49 3b 76 6d ad 3b f7 6b 94 bc 9d 56 9e 3b
       0.0030737822 0.00529259 -0.018117888 0.0048321025
0003d0 d9 1d 52 ba 23 cf 0e 3b ae 86 6f bb 40 f3 86 bc
       -0.0008015312 0.0021790944 -0.0036548781 -0.016473413
0003e0 de 7a 1c bc 5e 35 bd 3a 24 be 93 3c 1c 02 5a bc
       -0.009550778 0.001443546 0.018035002 -0.013306167
0003f0 6c e3 76 bb b2 2e 76 3a 36 40 f3 ba b2 d6 c0 3a
       -0.0037672175 0.00093911134 -0.0018558565 0.0014712422

gru.bias_ih_l0 f4 [384]
000000 e2 df c2 bc 8f 24 c7 bb d0 97 08 bc 76 a3 d6 bc
       -0.023788396 -0.006077356 -0.008336976 -0.026200991
000010 0a e8 f1 bb b2 cb b8 bc 95 eb be bb 5a 32 2e bd
       -0.0073823975 -0.022558067 -0.0058264234 -0.042528488
000020 99 20 b9 3d 2c d8 ae bc f5 00 31 bd c9 4f e6 bc
       0.09039421 -0.021343313 -0.043213803 -0.028114216
000030 21 12 21 bd ab 8d a9 3c 13 ac c5 bc f8 4f 6b bc
       -0.03932393 0.020697435 -0.024129903 -0.014362328
000040 a2 fb 0d bd 20 e8 d2 3d c5 8b 7e bc ac 40 16 bd
       -0.034663804 0.102981806 -0.015536253 -0.03668277
000050 8b 89 7d 3e 26 cb e8 bc 3b b3 e0 bc 27 7b 82 bc
       0.247595 -0.028417181 -0.027429214 -0.015927864
000060 4c c4 02 bd d9 a2 bd bc 42 4b 00 bd 1c a1 82 3e
       -0.031925485 -0.02314894 -0.03132177 0.25513542
000070 f5 7f 8c 3d 48 d8 4c bc d2 71 c5 bb 96 68 50 bc
       0.06860343 -0.012502737 -0.0060255313 -0.012720248
000080 aa 1f 18 bc 3d cc 6b 3d c3 79 24 bd 5a 0b c9 bc
       -0.009284893 0.057567824 -0.040155184 -0.024541546
000090 9b 67 8c 3e 1a ff 0e bd 7a d8 e0 bc 29 16 15 bd
       0.27422795 -0.034911253 -0.027446974 -0.036398087
0000a0 2f 4a 10 bd f4 05 a4 bc d4 c5 15 bd f4 54 ad 3b
       -0.035226997 -0.02002237 -0.036565617 0.005289668
0000b0 3f 41 1b bd d9 90 f4 bc 2c 2e bc bc dd a6 d6 3d
       -0.03790402 -0.029854225 -0.022971235 0.104810454
0000c0 d4 3f 9a bc 80 92 ae 3d f0 bb 1b 3e 21 b6 23 bc
       -0.018829264 0.085240364 0.15208411 -0.009992153
0000d0 da 8d 18 bc d0 72 da bc 92 19 26 bc c6 83 86 3e
       -0.009311164 -0.026666075 -0.010137932 0.2627241
0000e0 d2 70 15 bc c7 d0 ec bb 99 93 3e bc ea 97 c6 bb
       -0.009121137 -0.0072270366 -0.01163187 -0.00606059
0000f0 8a 07 e7 bc 8b 15 0d bc da 98 e7 bc 50 a7 b2 bc
       -0.028201837 -0.008611093 -0.028271127 -0.021808296
000100 3b 39 28 bc 84 b0 bb bc ff 7c be ba d9 28 9c 3c
       -0.010267551 -0.022911318 -0.0014533101 0.019062446
000110 76 61 b8 bc c3 48 03 bd 89 4e c1 bc dc e2 ec bc
       -0.02250741 -0.032051813 -0.023597019 -0.028916769
000120 be f0 86 bc bc 55 c9 bc 88 22 ca bc 04 65 9d 3d
       -0.016472217 -0.024577014 -0.024674669 0.07685283
000130 fc c3 e4 bb ef fb 32 bd 70 78 37 bc 65 e9 7b bc
       -0.006981371 -0.043697294 -0.011198148 -0.01537547
000140 8c 3f ba 3d f2 14 1b be db 5d a3 bc 77 a5 12 bd
       0.09094152 -0.15144709 -0.019942215 -0.03580233
000150 9a e9 c3 bc 3d 26 53 bc be ec 84 bb a4 14 a3 bc
       -0.0239151 -0.012887535 -0.004056542 -0.019907303
000160 15 a2 0a bd 5b 55 f4 bb f1 c4 9e bc d4 4e ab 3d
       -0.03384598 -0.007456464 -0.019381018 0.08364645
000170 65 ab 1c bc da 99 16 bd 65 db 8f bc 2c 97 d3 bc
       -0.009562348 -0.036767818 -0.01756067 -0.02582892
000180 c2 08 83 bd 8d 31 3e bc 44 e2 d6 3b c0 97 2d bd
       -0.06398155 -0.0116084935 0.0065577347 -0.04238105
000190 a0 54 ce 3c 48 1d 99 be af e4 9e 3c 98 77 4e bc
       0.025186837 -0.29905152 0.019396154 -0.012601756
0001a0 aa e5 67 bc e2 b1 07 be ce 16 13 bd ea 1f ef bb
       -0.014153877 -0.1325145 -0.03591042 -0.0072975056
0001b0 6d c6 e4 bd 81 bf 1c bb 0b 18 13 bd a1 ca c7 bd
       -0.11170659 -0.0023917856 -0.0359116 -0.09755445
0001c0 84 2a 1a bd ce 05 a7 bc 32 30 5f 3e 2f b5 0e bd
       -0.037638202 -0.02038851 0.21795729 -0.03484076
0001d0 9e 64 de bb 9f 5c 75 bc 5f 93 ba bc ef e9 31 3d
       -0.006786897 -0.014975696 -0.02277535 0.043435987
0001e0 17 e6 dd bb ac fd 21 bc 46 23 03 be f1 90 b5 bc
       -0.0067718136 -0.00988714 -0.12806424 -0.02216384
0001f0 c8 f9 83 bc 55 e3 36 bd dc 85 98 bc 9f ce 10 bd
       -0.016110316 -0.044650394 -0.018618517 -0.0353533
000200 f4 77 2d 3c 39 24 32 be e4 94 0b 3b 63 35 67 3a
       0.010587681 -0.1739663 0.0021298463 0.0008819906
000210 15 a7 0f 3b 5a 28 2f 3b 82 5c c1 39 6e 37 26 bf
       0.0021919657 0.0026726932 0.00036880752 -0.6492833
000220 be cc 82 be eb e3 98 3b e7 9b c0 3a 76 6e db 3b
       -0.2554683 0.004665842 0.00146949 0.0066965176
000230 03 1a a3 3b e0 51 9e be 7b 25 e6 b6 0e 19 e0 3b
       0.004977466 -0.3092184 -6.8588975e-06 0.0068389243
000240 f3 39 f7 be 33 80 34 be e6 f9 6d 3c 5a d4 cc bb
       -0.482864 -0.17627029 0.014524912 -0.0062509
000250 ea a3 34 bf 8f ab da 3a 4a 01 96 3b b5 7a 99 3b
       -0.70562613 0.0016683209 0.0045777904 0.0046838173
000260 51 e7 cc 3a 42 9b 3b bb b2 3a 4e 3b 26 a7 61 bf
       0.0015632903 -0.0028626476 0.003146809 -0.88145673
000270 0a 61 71 be 8d 15 9f bb 3a 42 e4 3b 9e f0 9c bb
       -0.23572174 -0.004854864 0.0069659026 -0.004789426
000280 df 50 28 3b 89 48 e8 3c 4e d4 0c 3c 16 d0 d8 b9
       0.0025682969 0.0283549 0.008595539 -0.00041353767
000290 ce 3e 2b bf 36 6e ee 3b 1b db da 3b ed d0 d9 3b
       -0.6689271 0.0072763218 0.0066789514 0.0066472203
0002a0 20 5b 0b 3c 5d 71 ca 3b 79 06 d5 3b e0 46 fc be
       0.008505613 0.0061780647 0.0065010157 -0.49272823
0002b0 c2 20 2f bb 73 3a 8e 3c 7e 05 b5 3a e7 97 7d be
       -0.0026722406 0.017361855 0.0013810841 -0.24764977
0002c0 22 0a ff 3b 15 6b 3f bf 59 57 e4 be f2 bd 03 bc
       0.0077831903 -0.7477277 -0.4459789 -0.008040892
0002d0 fa c9 d5 3b b5 d7 93 3c 43 38 03 3c 71 34 51 bf
       0.0065243216 0.018047193 0.008009019 -0.81720644
0002e0 44 d9 06 3c 04 9c 47 b9 af 83 bd 3b 86 3d b4 ba
       0.008230511 -0.00019036239 0.00578352 -0.0013751246
0002f0 48 db 1a 3c d3 da 9f 3a 0f 66 b0 b7 9b a8 23 ba
       0.009451695 0.0012195952 -2.102836e-05 -0.0006243081
000300 85 dc 3d 3b 6e 9b 3a bc 98 d3 0a bc 19 82 95 be
       0.0028970551 -0.011389596 -0.008473299 -0.2920082
000310 07 75 51 3b 93 90 e0 3b 4a 34 8b 3b 25 b2 ee bb
       0.0031960623 0.006853172 0.0042481767 -0.00728442
000320 75 ae 6a 3b a0 2f 0c bf bd e6 15 3c e6 36 04 bf
       0.003580955 -0.5476017 0.009149251 -0.5164627
000330 6d 25 f8 3b 94 2b 57 3c f7 8f 30 3b a1 11 06 3c
       0.007572821 0.013132948 0.0026941278 0.008182914
000340 02 64 35 bf 68 5e f2 bd ee 81 94 3b f2 02 2d 3b
       -0.70855725 -0.11834413 0.0045320904 0.002639946
000350 14 1b 3e bb d5 cd 42 3c 16 bb dd 3b 07 09 2c bc
       -0.002900784 0.0118898945 0.006766687 -0.010500199
000360 77 c0 f0 3b 43 23 4c 3a 9b 8c e2 3b 24 da ce be
       0.0073471623 0.0007787237 0.006913734 -0.40400803
000370 82 f9 09 3a 1f 3a 54 bb ae f6 1a 3c 82 33 c1 3b
       0.0005263315 -0.0032383276 0.009458227 0.005896033
000380 39 eb d4 3c 8c c7 6a 3b b3 95 7e be 38 55 60 be
       0.02599107 0.0035824506 -0.24861793 -0.21907508
000390 b9 1b 6c bd 9c aa ac be d9 ae c9 be af 74 a1 3b
       -0.057643626 -0.33723915 -0.3939121 0.00492724
0003a0 ca 47 6f 3c 4b bd 83 bd 05 55 bd 3a c6 54 08 3c
       0.014604518 -0.06432589 0.0014444893 0.008320993
0003b0 28 40 26 bf 36 8d 8c 3b aa a3 f0 be 81 6f c5 be
       -0.64941645 0.0042892946 -0.46999866 -0.38561633
0003c0 53 48 a6 3b d1 65 2a bc 42 b7 05 bf 3a a8 99 3c
       0.0050745397 -0.0104002515 -0.52232754 0.018756974
0003d0 cf 28 62 3b 9e f8 7c 3b f8 3a f2 3b 7e 9c 1c be
       0.0034509187 0.0038600336 0.0073922835 -0.15294072
0003e0 d5 0c c8 ba 41 c4 5f bb ba c5 2b bf 4c 58 8a bb
       -0.0015262613 -0.0034144076 -0.6709858 -0.0042219516
0003f0 6b ca fd b7 eb a6 ec 3a 82 26 5e 3c 90 15 43 3c
       -3.0254208e-05 0.0018055117 0.013558986 0.011906996

gru.bias_hh_l0 f4 [384]
000000 e2 df c2 bc 8f 24 c7 bb d0 97 08 bc 76 a3 d6 bc
       -0.023788396 -0.006077356 -0.008336976 -0.026200991
000010 0a e8 f1 bb b2 cb b8 bc 95 eb be bb 2c 78 3b bd
       -0.0073823975 -0.022558067 -0.0058264234 -0.0457689
000020 23 20 b9 3d 2c d8 ae bc f5 00 31 bd c9 4f e6 bc
       0.09039333 -0.021343313 -0.043213803 -0.028114216
000030 21 12 21 bd 7f d8 a9 3c 13 ac c5 bc f8 4f 6b bc
       -0.03932393 0.020733116 -0.024129903 -0.014362328
000040 a0 cf 1e bd 66 e1 d2 3d c5 8b 7e bc ac 40 16 bd
       -0.038772225 0.102968976 -0.015536253 -0.03668277
000050 ef cc 87 3e 26 cb e8 bc 3b b3 e0 bc 27 7b 82 bc
       0.2652354 -0.028417181 -0.027429214 -0.015927864
000060 4c c4 02 bd d9 a2 bd bc 42 4b 00 bd 3d 33 82 3e
       -0.031925485 -0.02314894 -0.03132177 0.25429717
000070 b4 89 8c 3d 48 d8 4c bc d2 71 c5 bb 96 68 50 bc
       0.06862202 -0.012502737 -0.0060255313 -0.012720248
000080 aa 1f 18 bc f1 50 45 3d c3 79 24 bd 5a 0b c9 bc
       -0.009284893 0.048172895 -0.040155184 -0.024541546
000090 bd 9a 8c 3e 1a ff 0e bd 7a d8 e0 bc 29 16 15 bd
       0.27461806 -0.034911253 -0.027446974 -0.036398087
0000a0 2f 4a 10 bd f4 05 a4 bc d4 c5 15 bd ff a9 ab 3b
       -0.035226997 -0.02002237 -0.036565617 0.005238771
0000b0 3f 41 1b bd d9 90 f4 bc 2c 2e bc bc 73 a8 d6 3d
       -0.03790402 -0.029854225 -0.022971235 0.10481348
0000c0 d4 3f 9a bc 88 1f ab 3d ff ea 1b 3e 21 b6 23 bc
       -0.018829264 0.083556235 0.15226363 -0.009992153
0000d0 da 8d 18 bc d0 72 da bc 92 19 26 bc 0e 9e 88 3e
       -0.009311164 -0.026666075 -0.010137932 0.26683086
0000e0 d2 70 15 bc c7 d0 ec bb 99 93 3e bc ea 97 c6 bb
       -0.009121137 -0.0072270366 -0.01163187 -0.00606059
0000f0 8a 07 e7 bc 8b 15 0d bc da 98 e7 bc 50 a7 b2 bc
       -0.028201837 -0.008611093 -0.028271127 -0.021808296
000100 3b 39 28 bc 84 b0 bb bc ff 7c be ba 37 ff 9b 3c
       -0.010267551 -0.022911318 -0.0014533101 0.019042594
000110 76 61 b8 bc c3 48 03 bd 89 4e c1 bc dc e2 ec bc
       -0.02250741 -0.032051813 -0.023597019 -0.028916769
000120 be f0 86 bc 94 16 d4 bc 88 22 ca bc b8 b0 9e 3d
       -0.016472217 -0.025889672 -0.024674669 0.0774855
000130 fc c3 e4 bb ef fb 32 bd 70 78 37 bc 65 e9 7b bc
       -0.006981371 -0.043697294 -0.011198148 -0.01537547
000140 73 25 ba 3d 8d 3b 1f be db 5d a3 bc 77 a5 12 bd
       0.09089174 -0.1555006 -0.019942215 -0.03580233
000150 9a e9 c3 bc 3d 26 53 bc be ec 84 bb a4 14 a3 bc
       -0.0239151 -0.012887535 -0.004056542 -0.019907303
000160 15 a2 0a bd 5b 55 f4 bb f1 c4 9e bc 7f 57 ab 3d
       -0.03384598 -0.007456464 -0.019381018 0.08366298
000170 65 ab 1c bc da 99 16 bd 65 db 8f bc 2c 97 d3 bc
       -0.009562348 -0.036767818 -0.01756067 -0.02582892
000180 c2 08 83 bd 8d 31 3e bc b9 be b9 3c 07 97 2d bd
       -0.06398155 -0.0116084935 0.022673951 -0.04238036
000190 b8 54 ce 3c d3 6d 98 be 3e e1 9e 3c 98 77 4e bc
       0.025186881 -0.2977129 0.019394513 -0.012601756
0001a0 aa e5 67 bc 89 5c 03 be ce 16 13 bd ea 1f ef bb
       -0.014153877 -0.12828268 -0.03591042 -0.0072975056
0001b0 88 0e e2 bd 81 bf 1c bb e8 a5 12 bd ba c1 c7 bd
       -0.11037928 -0.0023917856 -0.03580275 -0.09753747
0001c0 84 2a 1a bd ce 05 a7 bc 86 f4 5f 3e 2f b5 0e bd
       -0.037638202 -0.02038851 0.21870622 -0.03484076
0001d0 9e 64 de bb 9f 5c 75 bc 5f 93 ba bc 2e ea 31 3d
       -0.006786897 -0.014975696 -0.02277535 0.04343622
0001e0 17 e6 dd bb ac fd 21 bc 65 46 00 be f1 90 b5 bc
       -0.0067718136 -0.00988714 -0.12526853 -0.02216384
0001f0 c8 f9 83 bc 55 e3 36 bd dc 85 98 bc 9f ce 10 bd
       -0.016110316 -0.044650394 -0.018618517 -0.0353533
000200 f4 77 2d 3c 39 24 32 be e4 94 0b 3b 63 35 67 3a
       0.010587681 -0.1739663 0.0021298463 0.0008819906
000210 15 a7 0f 3b 5a 28 2f 3b 82 5c c1 39 b6 39 26 bf
       0.0021919657 0.0026726932 0.00036880752 -0.6493181
000220 bf cc 82 be eb e3 98 3b e7 9b c0 3a 76 6e db 3b
       -0.25546834 0.004665842 0.00146949 0.0066965176
000230 03 1a a3 3b 8a 51 9e be 7b 25 e6 b6 0e 19 e0 3b
       0.004977466 -0.30921584 -6.8588975e-06 0.0068389243
000240 fc 3e f7 be 0b 80 34 be e6 f9 6d 3c 5a d4 cc bb
       -0.4829024 -0.1762697 0.014524912 -0.0062509
000250 18 ec 34 bf 8f ab da 3a 4a 01 96 3b b5 7a 99 3b
       -0.7067275 0.0016683209 0.0045777904 0.0046838173
000260 51 e7 cc 3a 42 9b 3b bb b2 3a 4e 3b 6d 98 61 bf
       0.0015632903 -0.0028626476 0.003146809 -0.8812321
000270 e8 60 71 be 8d 15 9f bb 3a 42 e4 3b 9e f0 9c bb
       -0.23572123 -0.004854864 0.0069659026 -0.004789426
000280 df 50 28 3b fd 48 e8 3c 4e d4 0c 3c 16 d0 d8 b9
       0.0025682969 0.028355116 0.008595539 -0.00041353767
000290 b2 43 2b bf 36 6e ee 3b 1b db da 3b ed d0 d9 3b
       -0.6690017 0.0072763218 0.0066789514 0.0066472203
0002a0 20 5b 0b 3c 5d 71 ca 3b 79 06 d5 3b 5b 47 fc be
       0.008505613 0.0061780647 0.0065010157 -0.4927319
0002b0 c2 20 2f bb 73 3a 8e 3c 7e 05 b5 3a e9 97 7d be
       -0.0026722406 0.017361855 0.0013810841 -0.2476498
0002c0 22 0a ff 3b 9a 73 3f bf 9e 56 e4 be f2 bd 03 bc
       0.0077831903 -0.7478577 -0.44597334 -0.008040892
0002d0 fa c9 d5 3b b5 d7 93 3c 43 38 03 3c 4d 3d 51 bf
       0.0065243216 0.018047193 0.008009019 -0.8173416
0002e0 44 d9 06 3c 04 9c 47 b9 af 83 bd 3b 86 3d b4 ba
       0.008230511 -0.00019036239 0.00578352 -0.0013751246
0002f0 48 db 1a 3c d3 da 9f 3a 0f 66 b0 b7 9b a8 23 ba
       0.009451695 0.0012195952 -2.102836e-05 -0.0006243081
000300 85 dc 3d 3b 6e 9b 3a bc 98 d3 0a bc 2f 82 95 be
       0.0028970551 -0.011389596 -0.008473299 -0.29200885
000310 07 75 51 3b 93 90 e0 3b 4a 34 8b 3b 25 b2 ee bb
       0.0031960623 0.006853172 0.0042481767 -0.00728442
000320 75 ae 6a 3b 4a 35 0c bf bd e6 15 3c 19 38 04 bf
       0.003580955 -0.5476881 0.009149251 -0.516481
000330 6d 25 f8 3b 94 2b 57 3c f7 8f 30 3b a1 11 06 3c
       0.007572821 0.013132948 0.0026941278 0.008182914
000340 0f 62 35 bf 73 4f f2 bd ee 81 94 3b f2 02 2d 3b
       -0.7085275 -0.1183156 0.0045320904 0.002639946
000350 14 1b 3e bb d5 cd 42 3c 16 bb dd 3b 07 09 2c bc
       -0.002900784 0.0118898945 0.006766687 -0.010500199
000360 77 c0 f0 3b 43 23 4c 3a 9b 8c e2 3b 59 da ce be
       0.0073471623 0.0007787237 0.006913734 -0.4040096
000370 82 f9 09 3a 1f 3a 54 bb ae f6 1a 3c 82 33 c1 3b
       0.0005263315 -0.0032383276 0.009458227 0.005896033
000380 39 eb d4 3c 8c c7 6a 3b 0b a3 7e be 60 55 60 be
       0.02599107 0.0035824506 -0.24866883 -0.21907568
000390 b7 1b 6c bd ca a9 ac be 31 af c9 be af 74 a1 3b
       -0.05764362 -0.3372329 -0.39391473 0.00492724
0003a0 ca 47 6f 3c 44 a8 83 bd 05 55 bd 3a c6 54 08 3c
       0.014604518 -0.064285785 0.0014444893 0.008320993
0003b0 f8 24 26 bf 36 8d 8c 3b 89 a3 f0 be 82 6f c5 be
       -0.6490016 0.0042892946 -0.46999767 -0.38561636
0003c0 53 48 a6 3b d1 65 2a bc 3a b4 05 bf 3a a8 99 3c
       0.0050745397 -0.0104002515 -0.5222813 0.018756974
0003d0 cf 28 62 3b 9e f8 7c 3b f8 3a f2 3b 7e 9c 1c be
       0.0034509187 0.0038600336 0.0073922835 -0.15294072
0003e0 d5 0c c8 ba 41 c4 5f bb f5 a9 2b bf 4c 58 8a bb
       -0.0015262613 -0.0034144076 -0.6705621 -0.0042219516
0003f0 6b ca fd b7 eb a6 ec 3a 82 26 5e 3c 90 15 43 3c
       -3.0254208e-05 0.0018055117 0.013558986 0.011906996

gru.weight_ih_l1 f4 [384, 128]
000000 81 bb 1f 39 85 d3 9f 39 fd a8 93 b8 c8 85 be b7
       0.00015233272 0.00030484438 -7.040983e-05 -2.2712062e-05
000010 4a 83 9b 38 49 de 24 36 30 89 70 b8 89 70 48 39
       7.4154304e-05 2.4567291e-06 -5.7348225e-05 0.00019115409
000020 8e 94 af b6 8e 02 38 b9 03 ae a6 b8 de 7e 83 b8
       -5.2327005e-06 -0.00017548559 -7.947909e-05 -6.2701976e-05
000030 db 9a 7a 38 fe 0a 94 37 d2 e6 80 36 9f b2 75 38
       5.9748865e-05 1.7648093e-05 3.8415683e-06 5.8578906e-05
000040 5d a5 ab 38 ba da 3b b7 69 18 9d b8 44 0f b1 b7
       8.184717e-05 -1.1196995e-05 -7.49089e-05 -2.1107153e-05
000050 f6 c7 df 39 45 bd 0f 38 69 6b 02 ba 99 0f 85 b7
       0.00042682857 3.4270128e-05 -0.0004975112 -1.5862099e-05
000060 08 93 71 b6 10 c7 ed b8 02 89 e8 b8 21 bf 6d 39
       -3.5997382e-06 -0.00011338119 -0.00011088142 0.00022673282
000070 a0 0e 66 37 f3 fa af 38 c7 96 cf b8 ef 4c 26 39
       1.3712473e-05 8.391393e-05 -9.898614e-05 0.00015859654
000080 71 4e cf 38 90 a8 9c 38 c6 49 3d 37 05 d9 9a 35
       9.88514e-05 7.470057e-05 1.1282455e-05 1.1537055e-06
000090 5d a4 6f b9 5f 55 44 38 31 c4 85 37 4a ce 35 38
       -0.00022854046 4.680955e-05 1.5946194e-05 4.3345884e-05
0000a0 3e 16 a5 37 1f a4 7a 38 19 77 29 b8 5a 21 c0 38
       1.967989e-05 5.9757494e-05 -4.040366e-05 9.161486e-05
0000b0 da b4 04 39 e3 bc b1 b9 7b 02 2e 38 11 d1 4b b9
       0.00012655873 -0.00033900802 4.1487143e-05 -0.00019437472
0000c0 18 2d e7 38 a2 46 af 38 bf 5c 00 39 63 85 af 38
       0.00011023338 8.357807e-05 0.00012241582 8.3694955e-05
0000d0 0c ec 94 38 8b ee 8d b8 ce 46 b4 36 a8 ab a9 39
       7.101157e-05 -6.767836e-05 5.372661e-06 0.00032362086
0000e0 55 58 ad 38 18 d6 95 37 b8 d9 75 38 9f ed 85 38
       8.265736e-05 1.786188e-05 5.861532e-05 6.3861946e-05
0000f0 de 9a cf 37 37 ad d0 38 7d db cf 38 fd 02 d6 b9
       2.4748439e-05 9.950477e-05 9.911412e-05 -0.00040819487
000100 7e a9 93 b8 ec 91 46 b8 f3 4b b4 38 0e 8e 84 38
       -7.0410766e-05 -4.734278e-05 8.5972155e-05 6.32071e-05
000110 ff 46 1d 39 f3 f4 75 38 b1 07 c2 b9 2f 9f 79 b8
       0.00014999135 5.864068e-05 -0.00037008294 -5.9514477e-05
000120 dd a9 7e b9 ea f3 1b 38 a1 06 78 38 58 bb 09 b8
       -0.00024286607 3.7182042e-05 5.913398e-05 -3.2837823e-05
000130 2c c4 be 37 3d e5 d2 37 c7 13 21 38 de e9 3b 39
       2.2741115e-05 2.5140698e-05 3.840381e-05 0.00017920832
000140 3d 95 17 38 50 23 f0 b8 90 52 c4 37 a0 82 9f b8
       3.6140194e-05 -0.00011450669 2.3403467e-05 -7.6060416e-05
000150 b8 ed 6e b8 c2 a8 ee 37 53 b8 34 38 a7 34 ce 38
       -5.6965015e-05 2.8450395e-05 4.308701e-05 9.832653e-05
000160 13 97 28 b8 e5 18 38 38 78 8b 38 39 c2 c0 59 39
       -4.019502e-05 4.3892203e-05 0.00017599564 0.0002076654
000170 10 4c b3 37 70 c1 99 37 06 7f 92 35 95 32 34 b9
       2.1373882e-05 1.8329098e-05 1.0914816e-06 -0.00017184981
000180 96 ab ac b8 b4 34 b5 b7 3c 2f 8c 38 95 81 ed 38
       -8.2335595e-05 -2.1601423e-05 6.684518e-05 0.00011325177
000190 3d 95 10 39 54 a0 67 b8 31 ad e5 b8 6c 1a ba b8
       0.00013788506 -5.522401e-05 -0.0001095183 -8.8740926e-05
0001a0 15 e6 9a 38 b2 b5 d1 b8 69 1f e4 b8 6d 7d a2 37
       7.386148e-05 -9.99974e-05 -0.00010877738 1.937031e-05
0001b0 23 9a 5a 39 51 ec 3b b8 06 fe 91 b8 30 b8 ac 39
       0.0002084752 -4.480436e-05 -6.961454e-05 0.00032943627
0001c0 fc 22 93 37 ac 4a 95 39 5e 72 2c b9 a4 26 81 37
       1.7540056e-05 0.0002847513 -0.00016445803 1.5395992e-05
0001d0 72 09 9d 37 ec ec 83 39 3f ed 22 39 8c 64 8c b8
       1.8720257e-05 0.00025162788 0.00015537905 -6.6944485e-05
0001e0 c5 b5 80 b9 14 99 48 b7 21 dc 12 37 d9 3c 57 39
       -0.0002454949 -1.195657e-05 8.753531e-06 0.00020526665
0001f0 2c e7 6c 39 4a 36 07 b9 a5 75 8e b8 db 16 8c b7
       0.00022592832 -0.00012894828 -6.793001e-05 -1.6699943e-05
000200 61 02 23 bb e2 26 17 3c 2a d3 cc 3a 13 a7 ae 3b
       -0.0024873244 0.009225579 0.0015626897 0.0053299754
000210 59 be 13 bb 3e e8 04 bb e3 6d 8e ba 68 2e ec 3b
       -0.0022543876 -0.0020280029 -0.0010866489 0.0072076805
000220 2c 81 05 bc ca 0a 83 3b 7e 15 83 bb 27 eb cb 3a
       -0.008148473 0.003999089 -0.004000365 0.0015557752
000230 66 b6 de 3b a7 b0 f0 3a 44 39 c2 bb e0 71 bf ba
       0.006796646 0.0018363193 -0.0059272368 -0.0014606081
000240 3c 11 64 bc 3b 6b 49 3b 5f 0e 80 3b 59 91 3e bb
       -0.013920125 0.003073408 0.003907963 -0.0029078333
000250 38 6a 3c bd 81 3b 12 3b 1c 9e 9a 39 e7 b6 ad 3a
       -0.045999736 0.00223133 0.0002949097 0.0013253362
000260 17 f7 91 bb 02 20 06 3b 49 bf 54 3b 55 34 47 3c
       -0.0044545042 0.0020465855 0.0032462648 0.012158473
000270 a2 db 1c bb 7c 4c c6 ba ef ff c0 b8 ba d7 bd 39
       -0.0023934622 -0.0015128995 -9.202945e-05 0.00036209618
000280 b9 f0 a7 3a de eb ad 3c f0 6f 93 3b b5 fa fb 3a
       0.001281283 0.021230634 0.004499428 0.0019224497
000290 d9 bf 11 3c a7 98 05 3c 25 5d 69 3b f2 9c 64 3a
       0.008895838 0.008154071 0.0035608497 0.00087208964
0002a0 80 c6 9b bb 11 77 fb ba 89 cc e9 bb 72 2b 88 bc
       -0.0047538877 -0.0019185265 -0.007134978 -0.016622279
0002b0 07 80 cd 3b 9d 6f 6f 3b b2 86 02 3b cd e7 45 3c
       0.0062713656 0.0036535033 0.001991671 0.012079191
0002c0 eb c3 04 bb e5 a2 b9 3c 66 1f 59 bc fe d8 de 3a
       -0.0020258378 0.022660682 -0.013252115 0.0017001925
0002d0 cd e1 30 b9 54 92 b5 3b b4 e7 5f 3b 93 10 4c 3c
       -0.00016868785 0.0055411253 0.0034165205 0.0124551235
0002e0 32 27 6b ba 1f e5 55 bb a2 e0 78 3a d6 fd 06 bb
       -0.0008970379 -0.0032637788 0.0009493922 -0.0020598075
0002f0 e7 1e c2 3b 2f 97 c2 39 0f 99 1b bb 3a 92 84 3b
       0.005924094 0.00037115204 -0.0023742353 0.004045752
000300 df 38 43 bb cc f1 c7 ba fb af 91 3b 60 8a 03 bc
       -0.0029788536 -0.0015254556 0.0044460273 -0.008028597
000310 f0 29 14 bb 57 53 b0 3b 6e 13 52 3b b6 07 5c bb
       -0.0022608005 0.0053810286 0.0032055038 -0.0033573932
000320 7e 93 25 ba c1 63 b9 ba 6e 8a 29 3b 40 5c a4 bb
       -0.00063162285 -0.0014144109 0.0025869864 -0.00501588
000330 d0 b0 85 ba 83 6f d1 bb 7f 0e 59 3b 10 54 78 39
       -0.0010199789 -0.006391467 0.0033120213 0.00023682439
000340 89 70 04 bc 38 be e6 bc d1 a3 4d 38 c2 0e f9 bb
       -0.008083471 -0.028166875 4.9028375e-05 -0.007600636
000350 1e fc 2e ba 49 9f 3e 3b 0f 8f 5d b9 09 ed ee ba
       -0.00066751416 0.002908664 -0.00021129496 -0.0018228601
000360 76 f0 08 3b 2a 72 21 3b d7 17 50 3b e5 9a 32 bc
       0.002089528 0.0024634697 0.003175249 -0.010901188
000370 4c 57 e5 39 e3 8c 34 3b 5d 4d ba ba 77 cd 78 3b
       0.00043743325 0.0027549795 -0.001421373 0.0037964263
000380 6a b1 fa ba ed 62 03 bb 52 4c d8 3c c7 7e 6b bc
       -0.001912636 -0.0020047978 0.02640358 -0.014373488
000390 78 78 b1 ba 02 ae 45 3c ed ab 5d 3b da 49 20 ba
       -0.0013539931 0.0120654125 0.00338244 -0.00061145204
0003a0 18 ce 26 3a ef 99 9f bc 46 d1 a2 bb 44 cb 98 39
       0.0006363108 -0.019482581 -0.004968795 0.00029143144
0003b0 8d 85 32 bc a6 7e c2 b8 74 0e ec 3c 7a 26 38 bc
       -0.010896099 -9.274231e-05 0.028815486 -0.011239642
0003c0 9f 6a 82 bb a1 0e a9 3a f0 11 73 3c 5d c0 7e bb
       -0.0039799954 0.0012898037 0.01483582 -0.0038871982
0003d0 4b 97 31 3a d7 c1 de 38 49 95 01 3b 2e 2a 34 bc
       0.00067745586 0.000106218904 0.0019772819 -0.010996385
0003e0 e8 a9 42 3b 7e 25 58 3a 8f 3f f1 3c 2f e0 57 3b
       0.0029703323 0.0008245333 0.029449252 0.003294002
0003f0 52 8c 01 3b 5c e0 a1 3b 93 0f 5e 3b 89 17 2a bb
       0.0019767475 0.004940076 0.0033883795 -0.002595397

gru.weight_hh_l1 f4 [384, 128]
000000 13 c9 23 b9 7f 74 f4 3a ac d4 9b b9 bb 77 1e 39
       -0.00015619797 0.0018650441 -0.00029722357 0.00015112657
000010 55 30 3d 3a b7 c3 ea 39 65 60 e0 39 14 b1 39 3b
       0.000721698 0.00044777777 0.0004279643 0.0028334307
000020 7f 66 f2 38 1d df 83 3a de 10 fc 39 5c 2c 84 b9
       0.000115585506 0.0010061 0.00048077753 -0.00025210052
000030 c9 22 26 ba 1e ff a1 3b e2 38 07 bc e2 14 7a 38
       -0.0006337581 0.0049437424 -0.008253308 5.9624093e-05
000040 6e f4 a3 3a 18 2a 54 b9 d6 2d 4c b9 04 65 4d b7
       0.0012508759 -0.00020233577 -0.00019472031 -1.2242472e-05
000050 18 0f 13 3a 7e d4 bd b9 15 ad a3 39 42 30 9e 39
       0.0005609854 -0.00036207208 0.0003121874 0.00030172063
000060 fd 43 09 bb 8f a1 7a b8 cd ed 50 39 56 66 f3 3a
       -0.0020945065 -5.9755108e-05 0.00019925013 0.0018569927
000070 d9 3d e9 39 ee 34 83 b6 81 bc 09 bb 4f f0 c6 b9
       0.00044487303 -3.910266e-06 -0.0021016898 -0.00037944547
000080 78 fb 8f b9 3e f8 f0 39 cb c6 f5 b8 9b 31 8f 39
       -0.00027462444 0.00045961322 -0.000117195385 0.00027312044
000090 50 9f cb b9 6a 17 b2 ba e6 9a ba 39 e4 3b d2 38
       -0.00038837874 -0.00135873 0.00035592093 0.00010024736
0000a0 6a 31 21 3a ec fb ae b9 10 c7 e4 39 67 e0 a3 39
       0.0006149026 -0.00033375563 0.00043635862 0.00031256975
0000b0 21 67 8e 39 2a 1c 22 3a 43 3e a1 b8 b0 b8 a1 b9
       0.00027161188 0.00061840063 -7.6886754e-05 -0.00030845916
0000c0 9c 35 48 b9 4a 95 de 39 e0 94 4f 39 c0 30 c9 b9
       -0.00019093457 0.0004245437 0.00019796519 -0.0003837403
0000d0 19 be 03 3a 75 96 ff 3a 2f 2b ad b9 ee c5 8f b9
       0.000502558 0.0019499796 -0.00033029306 -0.00027422555
0000e0 f0 e1 b3 bb 12 ca 42 39 d7 71 ac b8 22 40 70 b9
       -0.0054895803 0.00018576559 -8.2228034e-05 -0.00022912075
0000f0 7e dc bd 39 53 88 3e b9 46 ee ae 39 b0 db 35 ba
       0.0003621317 -0.00018170597 0.00033365394 -0.0006937338
000100 f5 f7 44 b9 2d b8 c3 b9 68 99 69 ba 29 25 24 3a
       -0.00018784388 -0.0003733052 -0.0008911104 0.0006261641
000110 f4 0a b1 b9 bb 90 2e ba 32 8d 7b 39 c5 5d a1 37
       -0.00033768232 -0.000665914 0.00023989825 1.923636e-05
000120 32 82 61 39 ef 73 98 39 40 7a 1e 39 ad 91 fc b7
       0.00021506174 0.00029078076 0.00015113596 -3.0108577e-05
000130 ed 1b 02 bb f2 ca 9f b6 7e a5 dd 38 f7 0a da 39
       -0.001985307 -4.762195e-06 0.000105689265 0.0004158837
000140 07 68 ca b9 b5 2a a5 bb 5c 9a 9f b8 07 2a 2b 3a
       -0.0003860595 -0.0050404915 -7.6104625e-05 0.0006529395
000150 d1 69 11 3b e8 ce e2 b8 f9 56 bd 39 4e 09 84 39
       0.0022188316 -0.00010815059 0.0003611369 0.00025183934
000160 0d 16 49 ba 83 a9 82 3a c4 c1 d2 b9 0b 87 d8 39
       -0.00076708273 0.0009968731 -0.00040198688 0.00041299345
000170 fc bb 41 39 31 5b 13 39 b6 18 90 b9 c9 23 eb 39
       0.00018475944 0.00014052984 -0.0002748423 0.00044849355
000180 d1 dd 4c 38 8a a4 83 b9 80 5e 7b b9 2f ac a9 39
       4.8843973e-05 -0.00025108858 -0.0002397243 0.0003236248
000190 57 ed 89 b9 7f 9e a0 38 fd e1 8d 3b df d1 0f 3a
       -0.00026307508 7.658917e-05 0.0043299184 0.00054862903
0001a0 75 99 03 ba 1a f2 27 b9 f7 a7 7b bb 3a 2b e6 36
       -0.00050201203 -0.00016016551 -0.0038399675 6.8595664e-06
0001b0 1b ed 6f 37 30 ee ac 39 b7 bc df b9 89 a5 c6 b9
       1.43007155e-05 0.0003298386 -0.00042674478 -0.00037888836
0001c0 a7 4f d9 b9 38 40 48 b9 1b 3e ef 39 98 06 cf 39
       -0.0004144881 -0.0001909741 0.00045631905 0.0003948703
0001d0 8e 0e 0b 3b eb 53 34 39 26 fc 78 b9 c0 7d d0 3a
       0.0021218392 0.000171974 -0.00023745056 0.0015906617
0001e0 ce 22 d7 b9 ac 9a da ba b7 6b a3 b8 90 b7 8a b9
       -0.00041033927 -0.0016678176 -7.792509e-05 -0.00026458176
0001f0 ed 90 9d b9 58 fe e2 b9 82 32 79 3b 57 19 0c ba
       -0.00030053352 -0.0004329558 0.003802449 -0.0005344352
000200 1d 1a 8b ba 6e ae f6 3c b4 9b 47 bc 0e 68 6e 3c
       -0.0010612641 0.030112471 -0.012183119 0.014551176
000210 96 54 d0 3c 6a db 8b 3c d3 3a 8b 3c b2 c7 80 bc
       0.025430959 0.017072398 0.016995823 -0.015720222
000220 e7 c0 34 3c 90 0a 0c 3d 1c 56 9f 3c 7c 94 e6 ba
       0.01103232 0.03418976 0.01945024 -0.0017591859
000230 91 c8 b3 bc 26 89 5d 3d 1c e9 5b bd c4 78 62 3a
       -0.021946223 0.054085873 -0.053689107 0.00086392113
000240 d6 45 ca 3c dd 4e c1 bb 51 ca 15 3c 9a 3a 76 b9
       0.024691503 -0.005899294 0.009142474 -0.00023482219
000250 0b 31 9f 3c ca 14 70 bc d3 70 88 3c a4 b8 37 ba
       0.019432565 -0.014653394 0.016655361 -0.00070084096
000260 35 74 17 bc 4e fc f7 bb 2c a3 ec 3b 2c 2a e1 3b
       -0.0092440145 -0.007567919 0.0072216 0.0068714824
000270 ae fb 8f 3c 9e ab a0 3a db 36 2e 3d a4 57 7b bc
       0.017576065 0.0012258177 0.042532783 -0.015340719
000280 22 65 3b bc ff d2 ac 3c 18 92 30 bc bc 3b 24 3c
       -0.011437686 0.021096705 -0.010777019 0.010024007
000290 98 45 7c bc 87 5f 2d bd 1a ca 6b 3c 2b 95 7c 3c
       -0.015397452 -0.04232743 0.0143914465 0.015416424
0002a0 b0 d6 b7 3c 49 18 62 bc 35 79 a5 3c c2 fa 09 3b
       0.022441238 -0.013799735 0.020199398 0.0021054004
0002b0 1d 0b 72 3a 02 22 b0 3c fc a3 1a ba f7 9e 4f bc
       0.00092332234 0.021500591 -0.00058990694 -0.0126721775
0002c0 20 d8 b5 bc 7f dc 87 3c 05 61 ce 3b 57 94 83 bd
       -0.022197783 0.016584633 0.0062981867 -0.06424778
0002d0 7b 29 98 3c 80 45 28 3d 09 7a 5c bc 45 04 3b bc
       0.018574467 0.041081905 -0.01345683 -0.011414592
0002e0 7b 57 9f 3c c6 aa 19 3c 25 04 d4 3b 89 e6 42 ba
       0.019450894 0.0093790945 0.0064702206 -0.0007434865
0002f0 d4 b6 6e 3c 88 02 08 bb a9 57 5e 3c 00 3a a9 bc
       0.014569957 -0.0020753462 0.0135707045 -0.02065754
000300 c3 e0 c4 ba 49 c9 90 bc d6 5e b2 3b 1f 3d b6 3c
       -0.0015020597 -0.017674105 0.005443434 0.022245942
000310 a4 a4 6c bc 3b 05 bd bc b3 28 2c 3b 8b 14 87 bb
       -0.01444355 -0.023073783 0.0026269376 -0.004122322
000320 f3 7f f6 3b 51 0e 45 3c df 8b 11 3c 6c ea 6b bc
       0.007522577 0.012027339 0.0088834455 -0.014399152
000330 f0 c8 b6 bb d9 1a 06 b8 71 85 63 3a 59 35 87 3c
       -0.005578153 -3.1973093e-05 0.0008679247 0.01650493
000340 5e 6b 7b bc 0b ac 5d bd 0a 79 15 3c 59 32 17 3d
       -0.015345423 -0.05411915 0.009123096 0.03691325
000350 8c d7 25 3c 9b c0 0c 3c f3 c1 71 3c b3 c7 89 3c
       0.010122191 0.008590843 0.014755714 0.016818857
000360 76 51 e0 bc a3 35 c4 3c 8f 8b 99 bc 7c 12 84 3c
       -0.027382594 0.023951357 -0.018743305 0.016122095
000370 52 54 bb 3b e9 f7 83 bc d5 73 3b bc 22 43 db 3c
       0.005716839 -0.016109424 -0.011441191 0.02676541
000380 2a c6 8b 39 24 59 20 bb bb b5 7f bb a8 53 5a 3c
       0.0002665979 -0.0024467194 -0.0039018232 0.013325609
000390 83 67 6a bc da f8 fc bb f2 24 a3 bc f2 e9 9c 3c
       -0.014306906 -0.007720095 -0.019915078 0.019154523
0003a0 e5 b4 63 bc 58 63 5e bc e4 ce 17 bd a1 03 aa bb
       -0.013898109 -0.01357349 -0.03706254 -0.005188421
0003b0 3a 4f 7d 39 af cc 5c 3c aa 3c 8c bc e0 85 7b bc
       0.00024157474 0.013476535 -0.01711877 -0.0153517425
0003c0 1c 4a 85 bc 58 f3 27 bc b8 50 90 3c 73 ba 82 3c
       -0.01627069 -0.010250889 0.017616615 0.015958047
0003d0 f7 84 49 3d 87 89 7e 3c 08 e5 34 ba 73 48 28 bd
       0.04919907 0.015535719 -0.00069005834 -0.041084718
0003e0 bb 2e 3c bc 77 d4 f0 bc 6f d0 f7 bb 6f 90 36 bc
       -0.011485751 -0.029398186 -0.007562689 -0.011142834
0003f0 43 4b 84 bc 6a 34 89 bc 8d 50 40 3d 87 b0 9a bc
       -0.016149169 -0.016748626 0.04695182 -0.018883003
