datasets/Spirit/model/random_noKD.pth (torch, 3299 bytes, 6 tensors)

gru.weight_ih_l0 f4 [12, 30]
0	0xb99fd675	-0.00030486626
1	0xb99fd675	-0.00030486626
2	0xb99fd675	-0.00030486626
3	0xb99fd675	-0.00030486626
4	0xb99fd675	-0.00030486626
5	0xb99fd675	-0.00030486626
6	0xb99fd675	-0.00030486626
7	0xbe8b94f9	-0.27262095
8	0xbe9d5e59	-0.30736044
9	0xbe70e962	-0.23526528
10	0x3de28fb8	0.110625684
11	0xbe3fd20f	-0.18732475
12	0x3f317c7f	0.6933059
13	0x3e22c95f	0.1589713
14	0xbe18309d	-0.14862294
15	0x3eeeb47d	0.46622077
16	0x3d983ba5	0.07433251
17	0xbe8b30c4	-0.27185643
18	0x3d8e5f12	0.06951727
19	0x3ec2f604	0.3807832
20	0x3d3fb391	0.046802107
21	0x3dec9570	0.115519404
22	0x3ebe9b65	0.37227932
23	0xbea4b2f7	-0.3216779
24	0x3e90b4af	0.2826285
25	0xbeec610b	-0.46167788
26	0x3eb515f6	0.35368317
27	0xbd424a01	-0.047433857
28	0x3daf3bc6	0.08556323
29	0x3964c428	0.00021816848
30	0xbbb06dcf	-0.005384184
31	0xbbb06dcf	-0.005384184
32	0xbbb06dcf	-0.005384184
33	0xbbb06dcf	-0.005384184
34	0xbbb06dcf	-0.005384184
35	0xbbb06dcf	-0.005384184
36	0xbbb06dcf	-0.005384184
37	0xbe74fdec	-0.23924989
38	0xbf335b11	-0.7006083
39	0x3e9210cc	0.2852844
40	0x3c5581f3	0.013031471
41	0xbed291ed	-0.41126958
42	0xbe8316bd	-0.25603285
43	0x3dd77ab3	0.1052145
44	0xbdaa9173	-0.083285235
45	0x3e1c8985	0.15286835
46	0x3e207b01	0.15671922
47	0xbf48b913	-0.784074
48	0xbdd61947	-0.1045404
49	0x3dc11c6c	0.09429249
50	0x3e142e54	0.14470798
51	0xbe187db9	-0.1489171
52	0x3e80989e	0.25116438
53	0x3e07222a	0.13196626
54	0x3eef7099	0.46765593
55	0xbd280e0a	-0.041029014
56	0x3f05c115	0.52247745
57	0x3d70d9f0	0.05880159
58	0x3e496bc4	0.19670016
59	0x3e73ac31	0.23796155
60	0xbb8dd461	-0.004328296
61	0xbb8dd461	-0.004328296
62	0xbb8dd461	-0.004328296
63	0xbb8dd461	-0.004328296
64	0xbb8dd461	-0.004328296
65	0xbb8dd461	-0.004328296
66	0xbb8dd461	-0.004328296
67	0x3d77ed43	0.060529005
68	0xbe944240	-0.28956795
69	0x3e88f422	0.2674876
70	0xbf1189cf	-0.56850904
71	0x3d75dfe9	0.06002799
72	0xbed44170	-0.41456175
73	0xbdeeec61	-0.116661794
74	0xbe780874	-0.24221975
75	0x3da397ae	0.07987915
76	0xbecb6f69	-0.39733437
77	0xbf510a9d	-0.8165682
78	0xbd5de7e5	-0.05417623
79	0xbe7ac5d7	-0.24489532
80	0xbedfe7be	-0.43731493
81	0xbe8d272c	-0.27568948
82	0x3f092e95	0.53586704
83	0x3f14bda1	0.5810185
84	0x3e3e8a8e	0.18607542
85	0x3e60b8af	0.21945451
86	0x3dc7cdfb	0.097560845
87	0xbdd7b1f3	-0.10531988
88	0x3e2c8444	0.1684733
89	0x3df5b896	0.119980976
90	0x3adc9044	0.0016827662
91	0x3adc9044	0.0016827662
92	0x3adc9044	0.0016827662
93	0x3adc9044	0.0016827662
94	0x3adc9044	0.0016827662
95	0x3adc9044	0.0016827662
96	0x3adc9044	0.0016827662
97	0xbdc779e2	-0.09740044
98	0x3dd8b95e	0.10582231
99	0xbe1bc931	-0.15213467
100	0x3ca55ac5	0.020184884
101	0xbdf1cee1	-0.11807037
102	0x3c1f994b	0.009741138
103	0x3c1e9078	0.009677999
104	0xbdecf455	-0.1157004
105	0x3e708996	0.23489985
106	0xbddadb9a	-0.10686417
107	0x3deee132	0.11664046
108	0x3e1173ca	0.14204326
109	0xbd86b6c9	-0.06577832
110	0x3cf9fc9c	0.030515961
111	0xbdb9b6e7	-0.09068089
112	0x3d0fc1e3	0.035097014
113	0x3e1de7d4	0.15420467
114	0xbead81c7	-0.33888075
115	0x3d5d7662	0.054067977
116	0xbda6cb8c	-0.08144292
117	0xbbd6299b	-0.0065357215
118	0xbd781bf8	-0.060573548
119	0xbe2c97eb	-0.16854827
120	0xbdf1a5c0	-0.117991924
121	0xbdf1a5c0	-0.117991924
122	0xbdf1a5c0	-0.117991924
123	0xbdf1a5c0	-0.117991924
124	0xbdf1a5c0	-0.117991924
125	0xbdf1a5c0	-0.117991924
126	0xbdf1a5c0	-0.117991924
127	0xbe1735b1	-0.14766575
128	0xbd969d26	-0.073541924
129	0xbdbe8e02	-0.093044296
130	0xbde5e44c	-0.11225185
131	0xbe24dbfe	-0.16099545
132	0xbdd1efaf	-0.10250794
133	0xbe0dcbb2	-0.13847235
134	0xbda8076d	-0.08204541
135	0xbe163d2a	-0.1467177
136	0xbe1c7d5a	-0.15282193
137	0xbe17504f	-0.14776729
138	0xbe377508	-0.17915738
139	0xbe3081ca	-0.1723701
140	0xbe151db1	-0.14562108
141	0xbda1a22b	-0.07892259
142	0xbe41404f	-0.18872188
143	0xbdd94c0b	-0.10610207
144	0xbe12c3ba	-0.14332476
145	0xbd65d6e8	-0.056113154
146	0xbd88e950	-0.06685126
147	0xbe20d876	-0.15707573
148	0xbdfdbc21	-0.12389398
149	0xbd45d052	-0.048294373
150	0xbdaafce7	-0.083490185
151	0xbdaafce7	-0.083490185
152	0xbdaafce7	-0.083490185
153	0xbdaafce7	-0.083490185
154	0xbdaafce7	-0.083490185
155	0xbdaafce7	-0.083490185
156	0xbdaafce7	-0.083490185
157	0xbde82add	-0.113363005
158	0xbdcc1e84	-0.09966758
159	0x3d6ef66d	0.05834048
160	0xbddeaa57	-0.108723335
161	0xbda66366	-0.081244275
162	0xbda42cfb	-0.08016392
163	0xbc8abc79	-0.016935574
164	0xbd8f31e7	-0.0699194
165	0xbdd2a1bb	-0.10284754
166	0xbdd351bc	-0.10318324
167	0xbe3480b9	-0.17627229
168	0xbe122d10	-0.14275002
169	0xbd7131ba	-0.058885314
170	0xbdc4135b	-0.09574004
171	0xbd9b4b99	-0.075827785
172	0xbda2f070	-0.07956016
173	0xbd2339f8	-0.039850205
174	0xbbda3626	-0.006659287
175	0xbcd00e31	-0.025397392
176	0xbc5d01e8	-0.013489224
177	0xbdb52ebf	-0.08846807
178	0xbd0d68e1	-0.03452385
179	0x3b766120	0.0037594512
180	0x3aa794be	0.0012785417
181	0x3aa794be	0.0012785417
182	0x3aa794be	0.0012785417
183	0x3aa794be	0.0012785417
184	0x3aa794be	0.0012785417
185	0x3aa794be	0.0012785417
186	0x3aa794be	0.0012785417
187	0xbce8cb3b	-0.02841722
188	0xbe43a404	-0.19105536
189	0x3e05b2a0	0.13056421
190	0x3c5da5fd	0.013528344
191	0x3d730bf4	0.05933757
192	0xbd05c899	-0.032662008
193	0x3e09fcf9	0.13475408
194	0x3ce46fb8	0.027885303
195	0x3d9d2002	0.07672121
196	0x3d84a0d1	0.06475986
197	0xbdb95aa3	-0.09050491
198	0xbd3385f3	-0.043828916
199	0x3ddd24e6	0.107980534
200	0x3dbe68f2	0.092973605
201	0x3dce085a	0.10060187
202	0xbd289816	-0.041160665
203	0xbd1243ed	-0.03570931
204	0x3e36b3e9	0.17842068
205	0x3d6e2172	0.058137365
206	0x3cc8fb09	0.024533765
207	0x3b0500e0	0.002029471
208	0x3d4257a2	0.047446854
209	0x3c459663	0.012059781
210	0xbb328b02	-0.00272435
211	0xbb328b02	-0.00272435
212	0xbb328b02	-0.00272435
213	0xbb328b02	-0.00272435
214	0xbb328b02	-0.00272435
215	0xbb328b02	-0.00272435
216	0xbb328b02	-0.00272435
217	0xbc6d5228	-0.01448492
218	0xbc807a01	-0.015683176
219	0x3d485af1	0.048914853
220	0xbda23634	-0.07920495
221	0xbd8fc784	-0.070204765
222	0x3c4e06fa	0.0125749055
223	0x3cc776b1	0.024348589
224	0xbddd8bc9	-0.108176775
225	0xbd97b474	-0.074074656
226	0xbe133920	-0.1437726
227	0x3bf9e87d	0.0076265917
228	0xbd830f08	-0.06399351
229	0xbd69c207	-0.057069805
230	0xbd1fc35d	-0.039004672
231	0x3e0ce88b	0.13760583
232	0xbe0be6cb	-0.1366226
233	0x3cfd332e	0.030908193
234	0xbadfe75b	-0.0017082499
235	0x3e109683	0.14119916
236	0x3e3b681a	0.1830143
237	0x3d6a1909	0.05715278
238	0x3e3325dc	0.17494911
239	0x3dbd5a86	0.092457816
240	0xba932aa9	-0.0011227924
241	0xba932aa9	-0.0011227924
242	0xba932aa9	-0.0011227924
243	0xba932aa9	-0.0011227924
244	0xba932aa9	-0.0011227924
245	0xba932aa9	-0.0011227924
246	0xba932aa9	-0.0011227924
247	0x3d6c42b9	0.05768082
248	0xbeb66c0b	-0.35629305
249	0xbf05d580	-0.522789
250	0x3f3e1432	0.74249566
251	0xbe8e14e4	-0.27750313
252	0x3f1e9a60	0.6195431
253	0x3f25c489	0.64753014
254	0xbf17bb9a	-0.5927063
255	0x3f5fc9a4	0.87417054

gru.weight_hh_l0 f4 [12, 4]
0	0x3f6253d4	0.8840916
1	0xbeb9949d	-0.36246195
2	0x3fa5f656	1.2965801
3	0x4038eb0d	2.8893464
4	0x3e0a8e34	0.13530809
5	0xbe06c3b8	-0.13160598
6	0x3edfc497	0.43704674
7	0x4002ff2d	2.0468247
8	0xbecf9f76	-0.40551347
9	0xbf34dd40	-0.706501
10	0xbc91b57f	-0.01778674
11	0x40385f10	2.8808022
12	0x3f2c5efc	0.67332435
13	0xbe885291	-0.26625493
14	0x3eba6bca	0.36410362
15	0x3c733ba8	0.014845766
16	0xbf18b729	-0.5965448
17	0x3df7a534	0.12092057
18	0xbdf2e334	-0.11859742
19	0xbde619ef	-0.11235415
20	0xbf03b952	-0.5145465
21	0x3d83eff9	0.064422555
22	0xbe0bd573	-0.13655643
23	0xbd3cd976	-0.046105824
24	0xbed9c44f	-0.42532584
25	0xbe50006e	-0.20312664
26	0xbe3e2268	-0.18567812
27	0x3d5f9d50	0.054593384
28	0xc0015c01	-2.0212405
29	0xbfdb8620	-1.7150307
30	0x3f0838ec	0.53211856
31	0x3fac91b4	1.3481965
32	0x3f9b5490	1.2135181
33	0x3f447c24	0.76751924
34	0xbfc9958c	-1.5748763
35	0xbfcb7a84	-1.5896764
36	0x3f5eaf6a	0.8698641
37	0x3f6bcc99	0.92109066
38	0xbfe67462	-1.8004267
39	0xbf3428bb	-0.7037465
40	0xbf056102	-0.5210115
41	0xbeae85f9	-0.34086588
42	0x3fd9de21	1.7020913
43	0x3f6f61f7	0.9350886
44	0x3f4fa18b	0.8110587
45	0xbe7b546f	-0.24543928
46	0x3ff161a8	1.8857927
47	0x3e85ce0e	0.2613377

gru.bias_ih_l0 f4 [12]
0	0x3ee87488	0.45401406
1	0xbc96e612	-0.018420253
2	0xbd269670	-0.040670812
3	0x3f352c27	0.70770496
4	0xbf9a612f	-1.2060908
5	0xbf8f2462	-1.1182978
6	0xbfa3509e	-1.2758977
7	0xbf26436a	-0.64946616
8	0xbe8d3491	-0.27579167
9	0xbcd06063	-0.025436586
10	0xbd2eb274	-0.042650655
11	0xbecac77f	-0.39605328

gru.bias_hh_l0 f4 [12]
0	0x3e52bb32	0.20579222
1	0xbd768780	-0.060187817
2	0xbe5274e9	-0.2055241
3	0x3eb3b4e1	0.35098937
4	0xbf9a5824	-1.2058148
5	0xbf8f056d	-1.1173531
6	0xbfa3dc28	-1.2801561
7	0xbf025440	-0.50909805
8	0x3f2e3f24	0.68065095
9	0xbe2a121a	-0.16608468
10	0xbf08970c	-0.5335548
11	0x3e1bfaed	0.1523244

fc.weight f4 [2, 4]
0	0x4053a74d	3.3070862
1	0x4075f783	3.843232
2	0xc0334ce9	-2.8015692
3	0xbfe99b06	-1.8250434
4	0xc040a9fd	-3.0103753
5	0xc0695f3c	-3.6464376
6	0x4036f294	2.8585558
7	0x3ff1d991	1.8894521

fc.bias f4 [2]
0	0xc02f970a	-2.7435937
1	0x4024cd9a	2.575049
