datasets/Spirit/model/temp_teacher.pth (torch, 645703 bytes, 10 tensors)

gru.weight_ih_l0 f4 [384, 30]
000000 f1 fe b8 b8 f1 fe b8 b8 f1 fe b8 b8 f1 fe b8 b8
       -8.82129e-05 -8.82129e-05 -8.82129e-05 -8.82129e-05
000010 f1 fe b8 b8 f1 fe b8 b8 f1 fe b8 b8 5c c0 6e 3c
       -8.82129e-05 -8.82129e-05 -8.82129e-05 0.014572229
000020 13 27 36 3d 67 da a4 3c 5f 65 a3 3a 03 22 54 3c
       0.044470858 0.020123674 0.0012466124 0.012947562
000030 d3 c8 11 3c 5f 7f 05 bc f8 36 c2 3a 0a 18 9a bb
       0.008897978 -0.008148043 0.0014817407 -0.0047025727
000040 79 a4 57 3c 52 77 6b 3b db 25 05 ba e8 41 d4 3b
       0.013161772 0.0035929275 -0.0005079188 0.006477583
000050 b1 b1 87 ba 79 e9 d2 3b ae 77 94 bb 49 e9 92 3c
       -0.0010352639 0.0064365235 -0.0045308685 0.017933505
000060 28 fa d3 bb 60 83 89 bc b4 61 27 ba 80 19 6d 3c
       -0.00646903 -0.016786277 -0.00063851033 0.014471412
000070 40 0e 37 3c 80 1a 9e 3b 9a 8f 43 b6 9a 8f 43 b6
       0.011172831 0.0048249364 -2.9140851e-06 -2.9140851e-06
000080 9a 8f 43 b6 9a 8f 43 b6 9a 8f 43 b6 9a 8f 43 b6
       -2.9140851e-06 -2.9140851e-06 -2.9140851e-06 -2.9140851e-06
000090 9a 8f 43 b6 33 3a d1 3a 63 0e 48 ba 00 52 74 ba
       -2.9140851e-06 0.0015962779 -0.00076315383 -0.000932008
0000a0 26 d2 60 b9 7a 15 c6 3a b3 35 94 3a 67 27 55 3a
       -0.00021440591 0.0015112602 0.0011307508 0.00081311766
0000b0 3f 28 2c 3a 3c 6f 21 bb 60 73 89 b6 14 ca 47 3b
       0.00065672764 -0.0024632951 -4.0963496e-06 0.0030485438
0000c0 a7 d1 ff ba b6 3a 33 ba a6 b6 22 3b c1 4d 99 bb
       -0.0019517437 -0.0006837057 0.0024828105 -0.0046784584
0000d0 99 58 91 3a 62 e5 ba 3a 2d 32 51 3b 96 ea 24 ba
       0.0011089026 0.0014259035 0.0031920776 -0.00062910595
0000e0 d5 c1 e6 3a 40 9d c2 ba e8 fc 5b 3b b9 d4 49 3b
       0.0017605374 -0.001484789 0.0033567492 0.0030796959
0000f0 e6 d6 8b b6 e6 d6 8b b6 e6 d6 8b b6 e6 d6 8b b6
       -4.1675403e-06 -4.1675403e-06 -4.1675403e-06 -4.1675403e-06
000100 e6 d6 8b b6 e6 d6 8b b6 e6 d6 8b b6 01 ac 29 bc
       -4.1675403e-06 -4.1675403e-06 -4.1675403e-06 -0.01035595
000110 4c 3b ad 3b 67 f6 81 3b c6 18 ad ba 47 98 b8 ba
       0.0052866098 0.003966141 -0.0013206236 -0.0014083468
000120 ba 45 3e ba bb 45 69 bb e2 bd 19 bc cd f8 0b 3c
       -0.0007258315 -0.003559454 -0.0093836505 0.008543205
000130 51 28 1b 3b 4e 4e 0a bc dd 9a 14 3c 1f 40 40 bb
       0.0023675153 -0.008441521 0.009070125 -0.0029335094
000140 9c 11 6c bb 3e 3e 8e 3b 6e eb aa bb 5e 7c 00 bb
       -0.0036021238 0.004340916 -0.0052160537 -0.0019605379
000150 11 94 09 bb 00 41 11 bb 06 b8 fd 3a f6 bc af 3a
       -0.0020992795 -0.0022163987 0.0019357211 0.0013407755
000160 51 01 ad bb cc eb 1f ba f5 25 b2 38 f5 25 b2 38
       -0.005279698 -0.0006100505 8.4947715e-05 8.4947715e-05
000170 f5 25 b2 38 f5 25 b2 38 f5 25 b2 38 f5 25 b2 38
       8.4947715e-05 8.4947715e-05 8.4947715e-05 8.4947715e-05
000180 f5 25 b2 38 86 09 18 bb 32 d3 89 bb e7 d7 c7 3a
       8.4947715e-05 -0.0023199036 -0.0042060846 0.0015246839
000190 18 9d 21 3a 8e 16 90 3b ed 7f 65 3a 5e bd e7 3a
       0.00061650714 0.00439722 0.0008754719 0.0017680337
0001a0 4b 71 3b ba 7e a2 dc bb 5c c4 d5 ba f1 6f b0 3b
       -0.0007150366 -0.0067332378 -0.001630913 0.005384438
0001b0 cb 8a f3 3a 3c 0f d1 ba 02 42 92 3a 61 c5 a0 bb
       0.0018580792 -0.0015949975 0.0011158588 -0.004906342
0001c0 b4 cf d6 3b 53 4e 7a 3b b3 e5 04 bb 37 94 2e 3a
       0.006555522 0.0038193658 -0.0020278513 0.0006659659
0001d0 d7 b2 74 b9 c4 42 4c 3a 07 3c 11 bb 75 38 e4 3a
       -0.00023336276 0.0007791931 -0.0022161023 0.0017411845
0001e0 25 b3 b1 3b 25 b3 b1 3b 25 b3 b1 3b 25 b3 b1 3b
       0.005422967 0.005422967 0.005422967 0.005422967
0001f0 25 b3 b1 3b 25 b3 b1 3b 25 b3 b1 3b 36 5a 9a bc
       0.005422967 0.005422967 0.005422967 -0.018841844
000200 de d7 f1 bb 89 1a 69 3d 61 6c 8c 3c 61 e4 21 3d
       -0.0073804697 0.05691007 0.017141523 0.03952444
000210 f5 82 1b 3c f3 53 d8 bc dd d9 66 bc c1 14 f4 bc
       0.009491672 -0.026407218 -0.014090029 -0.029795052
000220 98 c3 8a bc c3 07 3d 3c 47 fb b0 3c 5c 0b 0b 3b
       -0.01693897 0.011537495 0.021604193 0.0021216488
000230 4f a5 d0 3c 11 ea 78 bc 38 ee 15 3d 87 16 41 3d
       0.02546945 -0.0151925245 0.036604136 0.047140624
000240 c8 98 34 bc 3b 07 f2 bc fb ee 34 bd 44 38 86 3d
       -0.011022754 -0.029544463 -0.044173222 0.065537006
000250 b3 2d 0b 3d d4 0d 03 3d 3b 45 b3 36 3b 45 b3 36
       0.03397913 0.03199561 5.342675e-06 5.342675e-06
000260 3b 45 b3 36 3b 45 b3 36 3b 45 b3 36 3b 45 b3 36
       5.342675e-06 5.342675e-06 5.342675e-06 5.342675e-06
000270 3b 45 b3 36 a3 73 b5 ba 22 de fb bb ad 07 3f bc
       5.342675e-06 -0.0013843667 -0.0076863924 -0.011659545
000280 40 83 11 3c 89 b1 1a 3c e0 ea 05 3a fc 36 0e 3c
       0.00888139 0.009441742 0.00051085465 0.0086801015
000290 31 9a 93 3c 90 56 62 bc e8 30 a2 3a 47 70 ca 3c
       0.01801786 -0.013814583 0.0012374194 0.024711741
0002a0 17 f2 cf bc 43 8f 19 bc 5a d9 55 3c ca 06 88 bc
       -0.025383992 -0.009372535 0.013052309 -0.0166048
0002b0 76 cb 67 3c 09 c2 21 bc b4 30 22 bc be 89 fe bb
       0.01414763 -0.009872922 -0.009899307 -0.007767885
0002c0 bc 14 48 3c fc 32 de bc 40 f3 d8 bb d8 28 e2 3a
       0.012211975 -0.02712392 -0.0066207945 0.0017254604
0002d0 b3 bf 8f 36 b3 bf 8f 36 b3 bf 8f 36 b3 bf 8f 36
       4.284049e-06 4.284049e-06 4.284049e-06 4.284049e-06
0002e0 b3 bf 8f 36 b3 bf 8f 36 b3 bf 8f 36 46 a6 96 bb
       4.284049e-06 4.284049e-06 4.284049e-06 -0.004597458
0002f0 5f 17 e6 3b b6 51 be ba b9 42 8b ba 9a c3 ec bb
       0.007021829 -0.0014520201 -0.0010624743 -0.007225466
000300 bc f8 0d 3b 18 bc 8e bb 8a b3 02 3b b7 62 b4 3b
       0.002166315 -0.0043559186 0.001994344 0.005504932
000310 86 6e 62 3a 0d 91 a4 b9 24 db 5b bb df f2 23 ba
       0.0008637685 -0.0003138859 -0.0033547366 -0.0006254147
000320 48 75 61 bb ea 87 a7 38 c3 93 7d ba 23 0c 82 bb
       -0.003440218 7.9884965e-05 -0.00096732023 -0.003968732
000330 7d d8 93 bb e6 84 94 bb 2b 50 f9 3a 6a 5c 7d bb
       -0.0045118914 -0.0045324443 0.0019021084 -0.003865982
000340 ca ef 7d b9 f2 6b 93 37 a9 ef 64 34 a9 ef 64 34
       -0.00024217289 1.7574032e-05 2.1321343e-07 2.1321343e-07
000350 a9 ef 64 34 a9 ef 64 34 a9 ef 64 34 a9 ef 64 34
       2.1321343e-07 2.1321343e-07 2.1321343e-07 2.1321343e-07
000360 a9 ef 64 34 5d 5c 8c ba 5b 2c a8 3d 93 56 c1 3c
       2.1321343e-07 -0.0010708679 0.08211585 0.023600852
000370 b4 18 06 bb b6 7c 36 bc ce f1 b6 3c 19 4b 71 bd
       -0.0020461502 -0.011138132 0.022332098 -0.05890951
000380 e1 7c a4 3c 50 e2 0c 3c a1 7b 39 bc af bf 38 bb
       0.020079078 0.008598879 -0.011320979 -0.0028190424
000390 5e 6d 68 bb 96 aa 9f 3c 5e d7 aa bb 82 39 87 bc
       -0.0035465579 0.019490521 -0.005213662 -0.016506914
0003a0 8f ed d2 ba 4c cf b3 3c db e2 e1 3a 73 9a 66 bd
       -0.0016092526 0.021949433 0.0017233746 -0.056299638
0003b0 25 6b 7b 3c d5 55 24 3d 72 a9 1a 3d 36 b3 8e 3c
       0.015345369 0.04012092 0.037759252 0.017419439
0003c0 98 6c b6 b6 98 6c b6 b6 98 6c b6 b6 98 6c b6 b6
       -5.4366647e-06 -5.4366647e-06 -5.4366647e-06 -5.4366647e-06
0003d0 98 6c b6 b6 98 6c b6 b6 98 6c b6 b6 6e 77 ee 3a
       -5.4366647e-06 -5.4366647e-06 -5.4366647e-06 0.0018193552
0003e0 13 48 c3 bb 00 8b af bb 01 e8 73 3b 33 27 0b 3c
       -0.0059595197 -0.0053571463 0.0037217143 0.008493233
0003f0 40 a2 59 38 c4 5f 0c 3c 70 1b 0c 3b 23 4e 3d bc
       5.188794e-05 0.008567754 0.0021378659 -0.011554274

gru.weight_hh_l0 f4 [384, 128]
000000 90 de 23 b8 47 08 85 bb 1e db 13 3c 57 16 b8 3b
       -3.9069506e-05 -0.0040598246 0.00902441 0.0056178975
000010 29 cd 84 3b ed 7f 2b 3b c4 bf 9b 3a 0e 5e b1 bc
       0.0040527773 0.002616878 0.0011882712 -0.021651294
000020 e1 97 9a 3a 83 05 5c bb 4b aa 85 3c 77 06 f6 38
       0.0011794531 -0.0033572621 0.016316554 0.00011731398
000030 b0 25 5c 3b 2e ad 89 3b cc fc fa 3b ae 5e 9e bb
       0.00335918 0.004201553 0.0076595303 -0.004833064
000040 d3 02 bd 3b ea 58 f1 3c c5 ac d9 bb 8a eb 8b 3a
       0.005768159 0.029461343 -0.00664291 0.0010675055
000050 94 a1 84 b7 e9 d4 b6 3b f6 fa 76 ba ce 94 0d bc
       -1.5810867e-05 0.00557958 -0.00094215514 -0.008641435
000060 63 55 f0 bb 1f e5 ab 3b a4 7c 85 3b dc 38 a3 bc
       -0.0073343976 0.005245819 0.004073696 -0.019924574
000070 01 a7 c1 3a ab 81 ca 3a c9 51 ec 3b 9c 87 1e bb
       0.0014774502 0.0015450021 0.007211898 -0.0024189716
000080 10 3a c5 bb 65 b3 86 3c 1e 80 5f 3a cf 06 1b 3c
       -0.0060188845 0.016442964 0.0008525866 0.0094620725
000090 c0 54 1d ba 2f d1 a0 3b 88 38 f1 bb 09 dd 0c bc
       -0.00060017034 0.004907749 -0.0073614754 -0.008597621
0000a0 be 2c e6 ba 2f 5e f4 bb a7 4e dc 3b cd 76 64 bb
       -0.0017560942 -0.0074575166 0.0067232433 -0.003486085
0000b0 5e c9 cb bb 4f d7 6e 3c 24 49 05 bc 1f dd 32 3b
       -0.006219073 0.014577701 -0.008135114 0.0027292443
0000c0 73 19 2f bc 71 c2 9f 3a 70 f9 d1 bb 00 01 ee 3a
       -0.01068722 0.0012188685 -0.006407909 0.0018158257
0000d0 1f 07 c2 3a 5c 62 98 3a 4b 43 e1 3a 59 69 51 bb
       0.0014803148 0.0011625993 0.0017186193 -0.0031953661
0000e0 c8 bf 60 bb 36 ad b2 3b b6 83 6e bb 7f cd bb bb
       -0.0034293998 0.0054527773 -0.0036394424 -0.005731284
0000f0 1f 2b 0c 3b 92 42 bb ba aa 91 dc bb d9 5b fc bb
       0.0021388007 -0.0014286807 -0.0067312317 -0.007701379
000100 ba 60 e7 3a a5 b9 98 bb c9 8d 6a bb 1c 94 8e bb
       0.0017652728 -0.0046608024 -0.0035790077 -0.004351152
000110 e5 98 2d bc d4 6c 21 bb 91 40 86 bb 8e 14 82 bb
       -0.010595535 -0.0024631517 -0.0040970524 -0.0039697355
000120 ed 8c 19 bc c2 75 86 3b db 35 74 3b e6 72 c5 bb
       -0.009371978 0.0041033933 0.0037263546 -0.00602566
000130 77 e7 21 3a ad da 00 bc 5c cc e1 3b ac 16 8d bb
       0.00061761535 -0.007864636 0.0068908166 -0.004305681
000140 6e b6 0a bd 5e 21 af 3c b6 b8 e1 bb 12 07 b4 3a
       -0.033865385 0.021378215 -0.0068884743 0.0013735017
000150 ef 3f 98 bc fc 17 e7 bb 26 f5 62 bb 38 4e 04 3c
       -0.018585173 -0.0070524197 -0.0034630983 0.008075289
000160 bb 68 d1 ba 6c c6 26 bc 17 a4 b1 bb 39 ee bc 3b
       -0.0015976647 -0.010179143 -0.0054211724 0.005765703
000170 ef 65 9c 3b c3 04 9e bb 8b 79 86 ba 3c ae 5a 39
       0.0047728936 -0.004822345 -0.0010259611 0.00020855007
000180 44 dd a4 3a ad df f5 bb cc 27 e4 ba 5f 55 87 3b
       0.0012578149 -0.007503471 -0.001740688 0.00413005
000190 f9 d7 a4 3b a0 56 b0 3b fe f1 77 3b 45 e4 a0 bb
       0.0050306288 0.0053814203 0.0037833448 -0.0049100243
0001a0 d5 0a d8 bb 6c 48 80 3c 96 b6 cd 3c 7d 78 9c 3b
       -0.006593088 0.015659533 0.025111478 0.0047751055
0001b0 8a f0 08 3b a8 8a 05 3a 5f 23 ef 3b da bf 84 bb
       0.0020895326 0.0005094209 0.0072979177 -0.004051191
0001c0 00 9a 71 ba 83 16 cc bb f5 78 63 bb fc bc ff 3b
       -0.0009216368 -0.0062282695 -0.0034709547 0.007804511
0001d0 bb 4f 10 bc d7 ca 9b 3c fd 16 a4 bb a6 0d 38 3c
       -0.008808072 0.01901762 -0.005007623 0.011233723
0001e0 b5 38 d9 b9 4c d5 3c 39 95 79 0d bc 9e 72 b3 bc
       -0.00041431715 0.00018008536 -0.008634944 -0.02190524
0001f0 87 06 bc ba 21 52 a4 bb e8 b5 a1 bb c0 cb 94 ba
       -0.0014345207 -0.0050146733 -0.004935015 -0.0011352226
000200 bd 69 fd 3a f4 7a d4 b9 f1 1a 2b bb fe 34 d4 b9
       0.0019333881 -0.00040527398 -0.0026108588 -0.00040475273
000210 dd 1e 04 bb 09 83 92 ba 15 b1 04 bb e9 13 cd 3a
       -0.0020159998 -0.0011177968 -0.002024715 0.0015646192
000220 0a f5 90 b9 bf 9d 85 3a 8b 7a 6e bb 68 6b 7b ba
       -0.0002764839 0.0010194107 -0.003638896 -0.0009590895
000230 5c 52 0b 3a 12 c9 83 38 7d 76 7d ba f2 0a cf b8
       0.00053147017 6.284019e-05 -0.000966884 -9.872568e-05
000240 56 86 f3 b9 8a e4 01 3b 6e 84 8a 3a 99 b9 d3 3a
       -0.0004644866 0.0019820058 0.0010568032 0.0016153335
000250 dc 31 62 3a 34 7b 17 bb ba 8c 84 39 65 a6 81 3a
       0.00086286454 -0.0023114206 0.0002528185 0.0009891508
000260 5a 87 ab 3a 76 95 37 3a 8d 6f 9a 39 fc 4a 1c 3b
       0.0013086603 0.00070031674 0.0002945628 0.0023848405
000270 55 3b 2f 3b 29 6c a3 ba 3f 84 6f ba 66 fc 8b 3a
       0.0026738246 -0.0012468147 -0.00091368327 0.0010680079
000280 79 4c a7 3a cb fd 03 bb 28 15 22 bb bf 0a 18 3b
       0.001276388 -0.0020140286 -0.0024731848 0.0023199765
000290 a1 81 31 3a 79 cd b8 ba 2a d0 b5 3a 6b 1c 82 b9
       0.00067713304 -0.0014099322 0.0013871242 -0.00024816705
0002a0 70 b4 a1 b8 b1 af 21 3b cb d9 a9 ba 9f a5 06 3b
       -7.710687e-05 0.002467137 -0.0012958584 0.0020545495
0002b0 2e 4c 2f bb a5 80 9b b9 10 cd b7 3a 8b 3e 08 3a
       -0.0026748287 -0.0002965975 0.0014022905 0.0005197308
0002c0 00 4c 3c 3b 81 62 14 ba b8 05 9c 39 42 ca 9e ba
       0.0028731823 -0.000566043 0.000297589 -0.0012114721
0002d0 77 7b 3e 3a b5 5f 4f 3b 2d 18 e0 39 8c 3b af 39
       0.00072663225 0.003164274 0.00042742622 0.00033422967
0002e0 dc 21 43 3a d1 ea fb ba 06 73 02 bb a8 cc 2e 3a
       0.0007443705 -0.0019219761 -0.0019904985 0.00066680694
0002f0 9b ca 1d bb d0 ef 69 39 8c 9b 1d 3b d2 60 e6 b9
       -0.002407706 0.00022309949 0.0024049012 -0.00043941155
000300 fc ec f7 b7 26 53 ce 3a 8e d8 dd ba 55 c1 eb 37
       -2.9555049e-05 0.0015741333 -0.00169255 2.810421e-05
000310 d3 07 1d 3b 17 0a 3a 3b ea bf 41 3a d3 22 1c 3b
       0.0023960962 0.0028387362 0.0007390963 0.0023824468
000320 18 1b 70 b7 8c cf 4c 3a 98 76 9c b9 66 6b 87 3a
       -1.4311423e-05 0.00078129093 -0.00029842998 0.001033169
000330 25 d6 77 b9 8b 25 1e ba 5c cc b8 b9 4e 2c f0 b9
       -0.0002363553 -0.0006032816 -0.00035247474 -0.00045809377
000340 2d bf e5 ba 40 de f7 ba 9c 9f 63 3a 2d ed 99 ba
       -0.0017528288 -0.001891084 0.00086831464 -0.0011743658
000350 19 0f 53 ba 90 d9 65 3a 49 95 06 bb ba cb 20 3b
       -0.0008051261 0.0008768076 -0.0020535758 0.0024535493
000360 c5 d7 9c 39 e0 09 70 3a 31 fb 4f 3a 55 b6 71 ba
       0.000299154 0.0009156745 0.0007933854 -0.000922059
000370 14 d7 c6 3a 41 15 c4 ba 7c ed c6 ba 45 e2 d9 39
       0.00151703 -0.0014959947 -0.0015176977 0.0004155805
000380 6d 9c 0d 3b 2c e8 ea ba ad fd 44 bb 90 35 d0 b8
       0.002160813 -0.0017921976 -0.003005843 -9.92819e-05
000390 61 c6 25 ba 98 c2 32 ba 2a 63 7c ba b4 96 ec 39
       -0.0006323811 -0.0006819158 -0.00096278137 0.0004512571
0003a0 4d cb 50 3a bb 86 23 bb ac 6e 92 3a 7c dd c4 ba
       0.00079648645 -0.0024952132 0.0011171899 -0.0015019621
0003b0 dc 26 6e 3a 58 a1 95 ba 36 4f 2b 39 78 83 9f b9
       0.000908477 -0.0011415882 0.00016337339 -0.00030424795
0003c0 50 b9 9b 3a 1a a3 20 ba 1b 59 a7 39 ce b7 32 bb
       0.0011880789 -0.00061278197 0.0003191911 -0.00272702
0003d0 43 dc 14 b9 c2 48 00 3b c1 d8 06 39 c8 c8 d7 38
       -0.00014196434 0.0019574617 0.00012859983 0.00010289397
0003e0 54 b1 2b b9 ab 51 de 39 6e 37 d3 3b 53 85 0c 3b
       -0.0001637389 0.00042403987 0.0064458167 0.0021441772
0003f0 b6 5c b4 39 5e 3d 7b 3a c0 2b 51 3a f3 11 fb 39
       0.0003440135 0.00095840346 0.00079792365 0.00047887824

gru.bias_ih_l0 f4 [384]
000000 c2 31 13 be 7c a8 27 bc 7e 91 0c bd 29 66 aa bc
       -0.1437445 -0.010233041 -0.03431844 -0.020800667
000010 a8 3d 67 be af 16 39 bc 0e 48 cf 3b 4c 20 28 be
       -0.22582114 -0.011296912 0.0063257283 -0.1641857
000020 bb 2b a8 bc 7d a8 c3 bc 44 28 ea 3c 0b 62 06 bc
       -0.020528665 -0.023884052 0.028583653 -0.008202086
000030 66 01 83 bc b1 4a 68 3b a0 10 10 bd 11 ac 30 bc
       -0.015991878 0.003544491 -0.035172105 -0.010783211
000040 3e bd a7 bc 20 09 83 bd ec 82 a9 bc 8b cd de bb
       -0.02047598 -0.06398225 -0.020692311 -0.006799405
000050 b2 7d 85 b9 bc 39 0a be cc 5e 5a bb ef d2 0f bd
       -0.00025461387 -0.13498586 -0.0033320663 -0.03511327
000060 80 0a 1d bd e8 1c 92 3b b6 6d 72 bc 06 db 5c 3c
       -0.03834009 0.0044590123 -0.014796665 0.013479954
000070 08 dd de bb 05 10 8e be 71 6f a2 bc 40 73 bc bc
       -0.0068012513 -0.27746597 -0.01982853 -0.023004174
000080 41 0b 00 bd 71 37 fa bd 1b 6f d9 bb 15 26 01 bc
       -0.031260733 -0.12217606 -0.0066355593 -0.007882615
000090 19 ad 74 bc 19 20 9d bc d0 9d 34 bd e6 5f b9 bc
       -0.014933848 -0.019180344 -0.044095814 -0.022628736
0000a0 d2 cd c9 bc bd d5 5f be 90 d6 f7 bc 41 80 e0 bb
       -0.024634276 -0.21858878 -0.030253679 -0.0068512266
0000b0 85 4f 54 bc 5f ce 70 bc d0 1c 04 bd a0 fb af bc
       -0.012958412 -0.01469764 -0.03225404 -0.021482289
0000c0 12 75 ea bd 21 05 b6 bc ea c8 19 bd c6 6d 66 bc
       -0.11448111 -0.022219243 -0.037545122 -0.014064258
0000d0 3f f0 05 bb ea 03 99 bd 72 36 68 bb fb 85 82 bc
       -0.0020437387 -0.0747145 -0.0035432843 -0.015933027
0000e0 42 e0 96 bc 16 5f 7f be a0 4a f8 bd 46 42 00 bd
       -0.018417481 -0.24938616 -0.121236086 -0.031313203
0000f0 2d 97 9d bb ab 60 bd bb 42 4b aa 3c 1b 22 33 bd
       -0.0048092813 -0.005779346 0.020787839 -0.043733697
000100 61 38 8d bc a7 36 0f bd 26 8d 03 be bf 5b 27 bc
       -0.017238798 -0.03496423 -0.12846813 -0.010214745
000110 1d 26 bb bd 42 07 03 be 0d a7 ae bc 4a 0a 69 be
       -0.09138129 -0.12795737 -0.02131989 -0.22757831
000120 52 d7 17 bc 2a 76 4e bc a0 dd 0b bd 8a e8 2d bd
       -0.009267645 -0.012601415 -0.034146905 -0.042458095
000130 53 a1 7b bc df af da bc 28 1c eb bb 0d 59 3d bc
       -0.015358287 -0.02669519 -0.0071749873 -0.011556876
000140 a0 c8 0a bc 23 03 28 3d 01 17 ce bc 82 5f bc bc
       -0.008470684 0.041018616 -0.025157453 -0.02299476
000150 9c e3 10 bd b7 e8 d8 bc c0 a9 eb bd b4 30 3b bd
       -0.035373315 -0.026478155 -0.115069866 -0.045700744
000160 d8 88 3a 3c 13 fd e0 3c 23 97 fc bc 23 5f 24 bd
       0.011385165 0.027464425 -0.030833786 -0.040129792
000170 11 44 c8 bc de 1d d0 bc db 19 23 bc 0c 5a 56 bc
       -0.02444652 -0.025404867 -0.009954895 -0.013082992
000180 20 3b 25 bd 9a 0a 49 bd 19 f3 b6 bd 62 a4 85 bc
       -0.04033959 -0.049082376 -0.08933086 -0.016313735
000190 aa 26 07 bd cf 63 b2 bc c0 08 86 bc af 67 a2 bc
       -0.032995857 -0.021776108 -0.016361594 -0.01982483
0001a0 e3 70 34 bd f5 5c a3 bd 89 f1 7d bd e8 d5 da bc
       -0.04405297 -0.079767145 -0.061997924 -0.026713327
0001b0 62 14 8b bc 3b 9f a3 bc e0 cd 68 bc 36 05 b1 bb
       -0.016977493 -0.019973388 -0.014209241 -0.0054022325
0001c0 ac 58 dd bc 89 be d6 bb aa 73 83 bc 23 94 88 bd
       -0.027019821 -0.0065534753 -0.016046364 -0.0666888
0001d0 e5 08 1e bd 68 79 fb bc 7d 31 73 bb 24 96 9d bc
       -0.0385827 -0.03069754 -0.0037108355 -0.019236632
0001e0 2f 6c 88 bc e6 fa a2 bb d9 c5 e2 bc bb d3 18 be
       -0.016653148 -0.004973757 -0.027682232 -0.14924519
0001f0 6f e4 22 bc 72 0b bf bc a0 b5 7c bc 37 a9 8f bc
       -0.009942158 -0.023320887 -0.015424162 -0.017536743
000200 15 d3 3d be 8c 0c 3a 3c e8 2d ad bd c2 d8 b9 bd
       -0.18537553 0.0113555305 -0.084560215 -0.090745464
000210 80 a3 5a bc 31 75 3d bd 18 41 2a bd 3c d7 11 bf
       -0.0133446455 -0.04625434 -0.041565984 -0.56969047
000220 a5 52 08 bc 5c 03 0f bd e6 b3 b0 be 8e 5d b8 bc
       -0.008320485 -0.034915313 -0.34512252 -0.022505548
000230 dd e2 90 bc 2f 76 dd 3c 10 db 52 bc 96 eb 1a bd
       -0.017686302 0.027033893 -0.012869611 -0.03782233
000240 35 4a b6 bc 93 45 b6 be b6 fc e5 bd e7 3c 40 3c
       -0.022252182 -0.35599956 -0.112298414 0.01173327
000250 cd 84 f9 ba 5d a0 ae be c9 4e 29 be 81 12 96 bd
       -0.001903677 -0.34106722 -0.1653396 -0.07327748
000260 04 8e b6 bd 1d c6 5d bd 30 8f 88 3b c1 e0 c1 be
       -0.08913806 -0.054144014 0.00416746 -0.37866786
000270 d7 96 52 be 6b bb d2 be 5a a5 d2 bd ba 78 88 bc
       -0.20565353 -0.41158614 -0.102854446 -0.01665913
000280 b5 77 e1 bd 0e 0d 1a bf 85 32 8d be fb e1 73 be
       -0.110091604 -0.6017617 -0.27577606 -0.23816673
000290 30 74 55 bb 39 e8 5f bd f0 4c 9f bd 93 da 1d 3d
       -0.0032570474 -0.054664824 -0.077783465 0.038538527
0002a0 8f 1d ad bd 4a c5 88 be 49 3a c4 bd c2 7d 38 be
       -0.084529035 -0.2671302 -0.095814295 -0.18016723
0002b0 23 14 f3 be 6c b3 8c 3c 16 44 8b bd 3f 30 cd bc
       -0.474763 0.017175399 -0.06800096 -0.02504742
0002c0 b7 f5 15 be 6a f2 cb b9 1c e8 77 bd 71 12 ac bc
       -0.14644514 -0.0003889979 -0.06052409 -0.021004887
0002d0 58 ac de 3c 8d a8 b7 be 0d 59 b8 3c bf 4c 93 bc
       0.02718179 -0.35870782 0.0225034 -0.017980931
0002e0 91 a0 97 bc 96 33 a8 be 62 42 93 be da 3a 7d bd
       -0.018509181 -0.32851857 -0.28761584 -0.061823703
0002f0 4a 96 95 bd 0b cb b3 bb 5e c2 92 be 09 a2 ca bd
       -0.07304056 -0.005486851 -0.28663915 -0.09894187
000300 dd 89 b5 bc a3 70 2b bd 89 eb 8a be bd ef 09 3c
       -0.022160465 -0.041855466 -0.27132824 0.0084189745
000310 20 e0 a8 be 8f 89 83 be 4e e5 88 bd ef 3e ac be
       -0.32983494 -0.25690886 -0.066843614 -0.33641765
000320 5e bc ec 3c 8c 52 93 3c b3 2b 8c bd e4 74 81 bd
       0.028898414 0.017983697 -0.068442725 -0.06321123
000330 88 85 5f ba d9 aa 2c be 3b db 0f 3d eb 07 96 3c
       -0.00085266726 -0.16862048 0.035121184 0.018314322
000340 eb 1a 20 be 53 ec af be e0 f8 1a bd d6 7b cb bb
       -0.15635268 -0.3435999 -0.037835002 -0.0062098308
000350 e3 f6 ec bd c7 07 ab bd 94 2b c2 be e7 22 0b bf
       -0.115705274 -0.08351093 -0.37923872 -0.5435013
000360 5c 3e af 3b 2d 7a 2e be fc 47 3d bd 37 35 47 bd
       0.00534801 -0.17038794 -0.046211228 -0.048634734
000370 cb ff 9c bd 84 f6 08 be 21 d1 da bd 22 4b 21 3c
       -0.07665976 -0.13375288 -0.106844194 0.009844573
000380 d7 fd 7c be 7d 92 7b be b0 43 ab be 2f 53 39 bd
       -0.24706207 -0.245676 -0.3345008 -0.045245346
000390 a6 18 02 bd 2e 4e a1 bd ca 10 be bc ef 28 38 bc
       -0.031761788 -0.0787624 -0.023201365 -0.011240228
0003a0 88 8d 2e bd 39 56 19 bf cc 0b 2b be e0 86 7b bd
       -0.042615443 -0.5989719 -0.16703719 -0.061407924
0003b0 ae 03 c0 bc ed ee fc bc ed f4 59 3d ee a6 e6 3c
       -0.023439255 -0.030875647 0.053212095 0.02815577
0003c0 db c5 27 bd a8 cd ed 3c 01 5e 31 bd 27 fe c6 bc
       -0.040960174 0.029028729 -0.04330254 -0.024291111
0003d0 49 b6 15 bd 76 09 8e be f3 d0 99 3c a4 a5 1a bb
       -0.036550794 -0.27741593 0.018776393 -0.0023597265
0003e0 9a 1b 6b bc ff e5 2d 3b cc d3 03 be ff f1 11 bf
       -0.014349842 0.0026534793 -0.12873763 -0.5700988
0003f0 2d 6d 7e bc d8 cb 81 bd 9e d0 00 bd 0d f4 94 bc
       -0.015528959 -0.06337708 -0.031448953 -0.018182779

gru.bias_hh_l0 f4 [384]
000000 06 f2 0f be 7a a8 27 bc 10 94 0c bd 25 66 aa bc
       -0.14057168 -0.010233039 -0.03432089 -0.02080066
000010 87 48 66 be aa 16 39 bc 85 4d cf 3b 6f 62 28 be
       -0.22488604 -0.011296907 0.0063263797 -0.164438
000020 bd 2b a8 bc 82 a8 c3 bc da d8 e9 3c 0a 62 06 bc
       -0.020528669 -0.023884062 0.028545786 -0.008202085
000030 69 01 83 bc a5 4a 68 3b a0 10 10 bd 1e ac 30 bc
       -0.015991883 0.0035444882 -0.035172105 -0.010783223
000040 3c bd a7 bc b9 f8 82 bd eb 82 a9 bc 7e cd de bb
       -0.020475976 -0.06395096 -0.02069231 -0.006799399
000050 40 7d 85 b9 3f d0 0a be 24 54 5a bb ef d2 0f bd
       -0.00025461055 -0.13556002 -0.0033314312 -0.03511327
000060 7f 0a 1d bd 96 1a 92 3b b5 6d 72 bc 65 de 5c 3c
       -0.038340088 0.0044587357 -0.014796664 0.013480757
000070 50 65 e1 bb 89 46 8f be 6d 6f a2 bc 3e 73 bc bc
       -0.0068785325 -0.27983502 -0.019828523 -0.02300417
000080 3e 0b 00 bd 8e ed f9 bd 23 6e d9 bb a2 d2 00 bc
       -0.03126072 -0.12203513 -0.006635444 -0.007862719
000090 16 ad 74 bc 14 20 9d bc d1 9d 34 bd f0 5f b9 bc
       -0.014933845 -0.019180335 -0.044095818 -0.022628754
0000a0 6c e0 c9 bc 6a 67 5c be 8c d6 f7 bc 9c d2 df bb
       -0.024643146 -0.21523824 -0.030253671 -0.0068305265
0000b0 77 12 52 bc 67 ce 70 bc cf 1c 04 bd 4d fe af bc
       -0.012821785 -0.014697648 -0.032254037 -0.021483565
0000c0 0c 3f e7 bd 28 05 b6 bc ea c8 19 bd c8 6d 66 bc
       -0.11291322 -0.022219256 -0.037545122 -0.01406426
0000d0 3c f0 05 bb dc a8 97 bd 69 36 68 bb 76 85 82 bc
       -0.002043738 -0.07405254 -0.0035432822 -0.01593278
0000e0 57 e0 96 bc bd ba 80 be 60 e6 f8 bd 44 42 00 bd
       -0.01841752 -0.2514247 -0.121533155 -0.031313196
0000f0 2d 90 9d bb af 60 bd bb fd 41 aa 3c 41 22 33 bd
       -0.004808447 -0.005779348 0.020783419 -0.04373384
000100 5f 38 8d bc a5 36 0f bd 7e 2a 05 be c2 5b 27 bc
       -0.017238794 -0.034964222 -0.1300449 -0.010214748
000110 2b 8b bb bd a1 6c 02 be 0e a7 ae bc 36 19 73 be
       -0.091574036 -0.12736751 -0.021319892 -0.23740086
000120 52 d7 17 bc 26 76 4e bc a2 dd 0b bd 8b e8 2d bd
       -0.009267645 -0.012601411 -0.034146912 -0.0424581
000130 4f a1 7b bc e9 b0 da bc 34 1c eb bb ce 48 3d bc
       -0.015358283 -0.026695685 -0.007174993 -0.0115530025
000140 50 9b 01 bc 42 c7 27 3d ff 16 ce bc 81 5f bc bc
       -0.007910565 0.04096151 -0.02515745 -0.022994759
000150 a7 ea 09 bd b7 e8 d8 bc 92 2a ec bd 47 5b 3a bd
       -0.033671048 -0.026478155 -0.11531557 -0.045497205
000160 d1 88 3a 3c c3 41 e1 3c 82 9d fc bc 23 5f 24 bd
       0.011385159 0.027497178 -0.030836824 -0.040129792
000170 15 43 c8 bc 1f 2b d0 bc d8 19 23 bc 0b 5a 56 bc
       -0.02444605 -0.025411187 -0.009954892 -0.013082991
000180 0f 25 24 bd 27 14 49 bd 51 6d b7 bd 11 a4 85 bc
       -0.040074404 -0.049091484 -0.08956397 -0.016313585
000190 ab 26 07 bd cd 63 b2 bc be 08 86 bc b4 67 a2 bc
       -0.03299586 -0.021776104 -0.01636159 -0.01982484
0001a0 e4 70 34 bd 4c d2 a0 bd 50 c5 7d bd e6 d5 da bc
       -0.044052973 -0.07852611 -0.06195575 -0.026713323
0001b0 82 14 8b bc 9e 9f a3 bc de cd 68 bc 26 05 b1 bb
       -0.016977552 -0.019973572 -0.014209239 -0.005402225
0001c0 a9 58 dd bc 88 be d6 bb a9 73 83 bc fe b3 88 bd
       -0.027019816 -0.006553475 -0.016046362 -0.06674956
0001d0 b8 08 1e bd 03 dd 07 bd 95 31 73 bb 5c 91 9d bc
       -0.038582534 -0.033169758 -0.003710841 -0.019234352
0001e0 2f 6c 88 bc e6 fa a2 bb 76 c3 e2 bc 79 3b 12 be
       -0.016653148 -0.004973757 -0.027681094 -0.142805
0001f0 72 e4 22 bc 73 0b bf bc ab b5 7c bc 38 a9 8f bc
       -0.009942161 -0.02332089 -0.015424172 -0.017536744
000200 4c 9c 3c be 83 0c 3a 3c f3 2e ad bd c3 d8 b9 bd
       -0.18418998 0.011355522 -0.084562205 -0.09074547
000210 e8 25 2b bc 35 75 3d bd 94 53 2a bd d8 cb 11 bf
       -0.010446049 -0.046254355 -0.041583613 -0.56951666
000220 99 52 08 bc 5b 03 0f bd ff 8e b0 be 89 5d b8 bc
       -0.008320474 -0.03491531 -0.34484097 -0.022505539
000230 08 e4 90 bc 2f 76 dd 3c 34 db 52 bc 9f eb 1a bd
       -0.017686859 0.027033893 -0.012869645 -0.037822362
000240 35 4a b6 bc 56 7b b7 be b6 fc e5 bd e6 3c 40 3c
       -0.022252182 -0.35836285 -0.112298414 0.011733269
000250 be 84 f9 ba 8e 17 ae be de 60 29 be 80 12 96 bd
       -0.0019036753 -0.34002346 -0.16540858 -0.07327747
000260 06 8e b6 bd a9 c7 5d bd 32 8f 88 3b ca c0 c1 be
       -0.089138076 -0.05414549 0.004167461 -0.378424
000270 09 29 52 be d3 c7 d0 be 59 a5 d2 bd b9 78 88 bc
       -0.20523466 -0.40777454 -0.10285444 -0.016659128
000280 b5 77 e1 bd a9 8f 19 bf 0d 1e 8d be 24 2d 73 be
       -0.110091604 -0.59984833 -0.2756199 -0.23747689
000290 02 74 55 bb 37 e8 5f bd ef 4c 9f bd 93 da 1d 3d
       -0.0032570367 -0.054664817 -0.07778346 0.038538527
0002a0 c8 1d ad bd af 5e 88 be 4b 3a c4 bd 9f 8a 38 be
       -0.08452946 -0.26634738 -0.09581431 -0.1802163
0002b0 bd 85 f3 be 6c b3 8c 3c 16 44 8b bd 53 30 cd bc
       -0.47562972 0.017175399 -0.06800096 -0.025047457
0002c0 af 7c 15 be e9 f1 cb b9 53 e8 77 bd 73 12 ac bc
       -0.14598344 -0.00038899414 -0.060524296 -0.021004891
0002d0 56 ac de 3c 46 90 b7 be 0a 59 b8 3c be 4c 93 bc
       0.027181786 -0.3585226 0.022503395 -0.01798093
0002e0 8f a0 97 bc b6 06 a7 be 8d 1e 93 be da 3a 7d bd
       -0.018509177 -0.32622308 -0.28734246 -0.061823703
0002f0 c5 98 95 bd 05 cb b3 bb aa c3 92 be 03 bc ca bd
       -0.07304529 -0.0054868483 -0.28664905 -0.09899142
000300 da 89 b5 bc 9d 70 2b bd 59 f0 89 be bc ef 09 3c
       -0.02216046 -0.041855443 -0.26941183 0.008418974
000310 41 cd aa be d0 ec 83 be 50 e5 88 bd 97 e9 ac be
       -0.3335972 -0.2576661 -0.06684363 -0.33771965
000320 5c bc ec 3c 8d 52 93 3c 4d 31 8c bd 35 75 81 bd
       0.02889841 0.0179837 -0.06845341 -0.063211836
000330 80 85 5f ba a6 cb 2c be 3c db 0f 3d eb 07 96 3c
       -0.0008526668 -0.1687456 0.035121188 0.018314322
000340 fa 01 1f be 1b 05 b0 be df f8 1a bd d4 7b cb bb
       -0.15528098 -0.34378895 -0.037835 -0.00620983
000350 21 bd ee bd c6 07 ab bd 8e 71 c2 be f9 ac 0b bf
       -0.11657167 -0.08351092 -0.3797726 -0.5456081
000360 63 3e af 3b b3 75 2e be 02 48 3d bd 1f 35 47 bd
       0.0053480132 -0.17037086 -0.04621125 -0.048634645
000370 7e f9 9c bd 3b 1c 09 be 8e c7 da bd 21 4b 21 3c
       -0.07664774 -0.13389675 -0.10682593 0.009844572
000380 1b 72 7d be 5f f8 79 be 8e c0 ab be 22 53 39 bd
       -0.24750559 -0.24411152 -0.33545345 -0.045245297
000390 2d 18 02 bd 2d 4e a1 bd c8 10 be bc fc 28 38 bc
       -0.031761337 -0.07876239 -0.023201361 -0.01124024
0003a0 8c 8d 2e bd 02 a3 19 bf dc 0b 2b be e0 86 7b bd
       -0.04261546 -0.60014355 -0.16703743 -0.061407924
0003b0 4a 05 c0 bc 13 e9 fc bc ed f4 59 3d f2 a6 e6 3c
       -0.023440022 -0.030872857 0.053212095 0.028155778
0003c0 42 c5 27 bd a8 cd ed 3c 00 5e 31 bd e0 a5 c6 bc
       -0.040959604 0.029028729 -0.043302536 -0.024249017
0003d0 fb 15 16 bd 6d 4d 8d be f4 d0 99 3c 37 9b 1a bb
       -0.036642056 -0.27598134 0.018776394 -0.002359105
0003e0 a7 1b 6b bc 04 e6 2d 3b 8c d1 03 be 56 22 12 bf
       -0.014349855 0.0026534805 -0.12872905 -0.5708364
0003f0 2f 6d 7e bc d8 cb 81 bd 9f d0 00 bd d3 f4 94 bc
       -0.015528961 -0.06337708 -0.031448957 -0.018183148

gru.weight_ih_l1 f4 [384, 128]
000000 05 6e e4 b9 7d 6a c5 38 3e 30 63 ba 1a 08 56 39
       -0.0004356952 9.413527e-05 -0.00086665514 0.00020411648
000010 fe 79 04 3a a2 22 2a 38 da 96 91 37 ca 7a 08 3a
       0.00050535786 4.0563413e-05 1.7355593e-05 0.0005206285
000020 2a d4 5a b9 b3 39 42 b8 8a 8b 8d ba c0 9b 8e 38
       -0.00020869137 -4.630694e-05 -0.0010799032 6.800098e-05
000030 fa 4c 00 39 6a 41 91 b9 33 75 5d b9 89 0d 78 b9
       0.00012235707 -0.00027705292 -0.00021119863 -0.00023656165
000040 f3 74 c8 b9 b6 00 9c 38 9e e0 1b b8 34 3d 89 39
       -0.00038234107 7.438792e-05 -3.716407e-05 0.00026176276
000050 e4 b2 14 b9 2a 16 8f 39 64 7f 49 b9 77 88 03 b9
       -0.00014181022 0.000272916 -0.0001921631 -0.0001254397
000060 a4 69 bf b8 6f 46 5f 39 26 a1 58 b9 02 ac 1f 3a
       -9.127267e-05 0.00021293176 -0.00020659398 0.0006091
000070 6e 90 33 ba 35 bd b1 38 ca ed b9 b8 8d a2 13 b9
       -0.000684983 8.47526e-05 -8.865779e-05 -0.00014079567
000080 5c 3b e3 39 f1 3c e2 b9 5d 65 c7 38 f5 12 91 ba
       0.0004334104 -0.00043151484 9.50794e-05 -0.0011068272
000090 90 ec f3 b8 8e 6d 46 39 3b 15 f5 b8 ec 74 15 b8
       -0.00011631206 0.00018923564 -0.00011686465 -3.563326e-05
0000a0 b1 8c 74 b9 18 7a 42 b9 7b bc 3c 39 7d 3c 88 39
       -0.00023322065 -0.00018546765 0.00017999292 0.0002598501
0000b0 cc 34 13 39 ba 5a b0 b9 80 d6 ca 38 e6 15 87 39
       0.00014038681 -0.00033636932 9.672064e-05 0.00025765522
0000c0 10 14 f9 38 a3 1f 97 38 35 f9 19 38 32 0c 5a 39
       0.00011876982 7.206134e-05 3.6710135e-05 0.00020794643
0000d0 dd 07 05 39 21 6b 83 b9 a4 b0 bd b8 b7 fd 80 b9
       0.00012686798 -0.00025066084 -9.045124e-05 -0.00024603095
0000e0 e7 6e aa b9 42 63 36 39 36 c2 5d 39 6a ec 00 b9
       -0.00032507555 0.00017393849 0.00021148552 -0.00012295102
0000f0 d7 a7 f9 b9 3a 63 6c 39 99 c4 c7 39 e4 c0 c2 b9
       -0.0004761803 0.00022543679 0.00038102714 -0.00037146278
000100 fe c0 29 b9 3e 69 8f 39 b1 69 ad 39 86 85 a4 b8
       -0.00016188991 0.00027353497 0.00033075878 -7.845e-05
000110 82 31 e6 b8 f1 34 dc b9 e8 35 d5 36 16 18 88 b9
       -0.00010976476 -0.00042001114 6.35417e-06 -0.00025957887
000120 ff 7c c2 38 39 b5 47 b9 eb 85 0f b9 a5 c8 24 b8
       9.273923e-05 -0.0001904563 -0.00013687431 -3.928751e-05
000130 fb 5a 7f 39 c4 1d 43 3a 01 de a9 b9 d1 19 99 39
       0.00024352588 0.0007443095 -0.00032399598 0.0002920167
000140 5c 4f f5 38 ec 7b 75 38 de d1 4b 39 2c 00 09 b7
       0.00011697292 5.8527963e-05 0.0001943777 -8.165876e-06
000150 64 24 10 3a 52 ec 29 b9 10 c6 8a b8 a2 9d e8 39
       0.00054985867 -0.00016205132 -6.617245e-05 0.00044367934
000160 aa 56 51 b8 46 e6 a2 37 e0 27 47 38 9b e8 3c 38
       -4.9910195e-05 1.9419134e-05 4.7482434e-05 4.5039324e-05
000170 cc e0 b2 37 0d 6e d3 39 32 0f 6b 39 95 f8 94 b9
       2.1323933e-05 0.0004032705 0.00022417007 -0.00028413968
000180 fb 9a cf b9 ed ac ca 39 ac 12 6b 3a b2 ca 58 38
       -0.00039597586 0.00038657282 0.0008967321 5.1687188e-05
000190 da 52 45 38 00 e5 77 35 b3 ba 44 39 c2 2c 07 b9
       4.704562e-05 9.234791e-07 0.00018761567 -0.00012891277
0001a0 de 3b d8 b7 be 09 57 b8 c4 8d 69 ba 07 b1 b4 38
       -2.5777084e-05 -5.1269068e-05 -0.00089093694 8.616043e-05
0001b0 1a f0 00 39 63 ca a8 39 a7 37 04 b9 b5 34 43 39
       0.00012296476 0.00032194247 -0.00012609233 0.00018616284
0001c0 46 65 3c b9 ea 2a 91 39 92 82 0a b9 16 a8 f7 b9
       -0.00017966804 0.0002768853 -0.00013209347 -0.00047236745
0001d0 74 15 21 3a 34 4e c9 39 7c c2 40 39 97 03 a2 ba
       0.00061448594 0.00038395973 0.00018382998 -0.0012360689
0001e0 5b 7b 6d b9 79 73 4a 39 9b d0 1d 3a 7c 9a a2 39
       -0.00022648035 0.00019307238 0.00060201593 0.00031014148
0001f0 52 29 56 b9 52 98 3f b8 09 78 95 38 da a4 9e b9
       -0.00020424023 -4.5679808e-05 7.127232e-05 -0.00030258932
000200 e8 a4 0d ba ee df ea b9 80 33 84 b9 f6 31 04 ba
       -0.0005403296 -0.000447988 -0.00025215372 -0.0005042845
000210 94 bf 9d b8 b7 45 29 ba 65 f1 b2 39 26 1a 9a 3a
       -7.5220276e-05 -0.00064572267 0.0003413066 0.001175706
000220 90 a1 1c 3a 80 3e c3 39 0f f4 6d 3a 8c a4 5e ba
       0.00059750024 0.00037239864 0.00090772 -0.00084931473
000230 11 c8 b6 39 cc 23 24 3a 8b ab 4a b9 d9 52 82 3a
       0.00034862806 0.00062614377 -0.00019328126 0.0009942903
000240 d8 98 26 b9 92 bc 32 3b 89 34 9c 3a 99 72 13 3a
       -0.00015887932 0.0027273041 0.0011917512 0.00056246814
000250 63 d4 89 3a 2c 15 94 b9 52 f2 69 ba e8 fa 85 3a
       0.0010515567 -0.00028244534 -0.0008924353 0.0010221871
000260 20 ff 84 3a 9b a1 84 ba 7b 86 01 3a 22 df 84 ba
       0.0010146834 -0.0010118963 0.00049409986 -0.00101373
000270 80 a1 a3 36 81 0f d8 ba 6e ef 9e ba 25 46 97 39
       4.8765796e-06 -0.0016484113 -0.0012125799 0.00028853226
000280 eb 73 69 3a 15 e4 e5 ba 52 7b c7 39 c4 69 8f b9
       0.0008905518 -0.0017539287 0.0003804812 -0.00027353887
000290 36 74 a0 39 94 e8 3c ba 76 6a dd 39 fb f8 0f ba
       0.00030604162 -0.00072062877 0.00042231724 -0.0005492118
0002a0 48 1d 31 39 ab ed 2a b9 de a8 42 ba cf 4c f2 b8
       0.00016890944 -0.00016301002 -0.0007425676 -0.00011553766
0002b0 75 ca 98 ba e9 5e ee 38 ac 7a 70 b8 a5 14 3e ba
       -0.0011657017 0.00011366403 -5.7334706e-05 -0.0007251001
0002c0 da 63 07 ba e8 9f 05 b9 c2 38 6e 39 34 5a ee b9
       -0.00051647204 -0.00012743438 0.00022718593 -0.00045462104
0002d0 3f e3 8d 3a 4e 99 92 39 7f 8b 53 3a 58 aa 91 39
       0.0010825171 0.0002796151 0.0008069798 0.0002778347
0002e0 4a 22 3d 3a 8e 96 a2 ba 3d 7c 31 ba 2f b5 9d 39
       0.00072148873 -0.0012404488 -0.0006770527 0.00030080366
0002f0 c2 ab a6 39 0d d1 39 ba e0 d6 4b 36 65 05 f8 39
       0.00031789957 -0.0007088341 3.037443e-06 0.00047306265
000300 4e f1 98 b9 d4 61 50 39 91 01 22 ba 2a d1 95 39
       -0.00029171485 0.0001987287 -0.0006180043 0.00028575334
000310 08 6c d7 b9 b2 da 73 b8 c6 96 e3 38 42 7c c9 39
       -0.00041088485 -5.813939e-05 0.00010852287 0.00038430287
000320 54 6b 8e b9 50 37 c3 39 66 bc 23 b9 e8 a9 1e 39
       -0.00027164316 0.0003723451 -0.00015615075 0.00015131349
000330 4a d6 a2 b9 ae 51 d0 39 28 1f ab 39 ea bd df b9
       -0.00031058706 0.00039733708 0.00032638875 -0.00042675372
000340 79 1f 09 bb 5b ad 81 3a c8 a9 70 38 cd 2e 27 b9
       -0.00209233 0.0009893583 5.737858e-05 -0.00015943796
000350 96 a2 28 ba df f2 e2 39 ec e4 b2 b9 9e 1f 26 3b
       -0.00064329186 0.00043287032 -0.00034121366 0.0025348435
000360 fc 78 90 3a 07 23 40 b9 66 5f b6 39 75 06 d7 b9
       0.0011022384 -0.00018323596 0.00034784822 -0.00041012806
000370 e4 56 52 b9 63 a5 06 3a 38 10 d3 39 af 11 94 b8
       -0.0002005953 0.0005136339 0.0004025714 -7.060484e-05
000380 f5 5f c0 b9 6a 57 9e 39 94 8c d0 b9 b2 f8 97 b9
       -0.00036692587 0.00030201237 -0.0003977759 -0.00028986257
000390 e0 01 95 36 5c bd d1 b9 27 e3 8b b9 e8 fe f6 37
       4.4407643e-06 -0.0004000467 -0.00026681388 2.9444185e-05
0003a0 bd 96 b9 39 ff a5 5d ba 57 53 cf 3a c9 43 2e ba
       0.00035398258 -0.00084552163 0.0015817684 -0.0006647674
0003b0 0d 16 18 ba a6 91 81 b8 18 94 dc 39 35 49 18 ba
       -0.00058016257 -6.1783285e-05 0.00042072008 -0.00058092485
0003c0 48 4f 3c 3a 6e c8 f7 b9 da 3a 89 38 48 32 26 3a
       0.00071834447 -0.00047260843 6.543631e-05 0.000633989
0003d0 7b 5b ea 39 b1 3b 26 3b 1d ee 02 ba 3c 5f c6 38
       0.00044700116 0.0025365169 -0.0004994588 9.4591145e-05
0003e0 a8 5e 21 39 c6 ea 4d 3a bc d7 20 39 e2 bc 2b 3a
       0.00015389419 0.00078551134 0.00015339156 0.0006551278
0003f0 56 39 80 39 e8 05 62 3a 56 5e e4 39 98 6c 0a 3a
       0.0002445678 0.0008622096 0.00043557835 0.0005280464

gru.weight_hh_l1 f4 [384, 128]
000000 eb 46 94 b9 25 53 b1 3a c5 dc a6 39 da 60 da b9
       -0.00028281598 0.0013528807 0.00031826473 -0.0004165236
000010 cb 5e a4 b9 da 77 de 3a 2a b7 db ba 8e 09 0b bb
       -0.00031351144 0.0016972974 -0.0016762961 -0.0021215412
000020 23 81 98 ba ba 9e 44 3a 9b 00 88 3a f3 89 93 bb
       -0.0011635165 0.0007500459 0.0010376157 -0.004502529
000030 b0 36 87 3a 6e 83 9f ba dd bf b2 3a c7 6e 48 bc
       0.0010315981 -0.0012169906 0.0013637502 -0.012233443
000040 26 48 94 b8 37 d3 0a bc ea d9 8d b9 31 1c 3a 3c
       -7.0706286e-05 -0.008473209 -0.00027055974 0.01135926
000050 5d ed bc ba 48 f8 15 bb 3e 3e 95 3a be 73 51 bb
       -0.0014414001 -0.0022883583 0.0011386347 -0.0031959857
000060 fb 05 a0 ba dd 3c 49 ba a1 2c e2 3a e8 55 56 3a
       -0.0012208814 -0.0007676611 0.0017255732 0.0008176253
000070 a3 5d 8d 3a 05 f6 13 3a e8 c8 69 ba 70 8c 94 ba
       0.0010785352 0.0005644265 -0.0008918182 -0.0011333358
000080 df ae 07 bc d4 f1 10 ba 12 2e b0 3a 7d b8 f3 39
       -0.008281439 -0.0005529199 0.0013441464 0.00046486026
000090 b5 80 ad bb 36 2c bd 3a 19 2d 44 ba f4 e6 c5 ba
       -0.005294884 0.0014432732 -0.0007483527 -0.0015098737
0000a0 a9 5e a5 3a 8d f7 25 3c 4e aa 97 bb 8a 92 fe 3a
       0.0012616712 0.0101298215 -0.004628456 0.0019422334
0000b0 9f 88 07 bb 3b e9 bb 3a bc a6 7a ba 3b ac 36 bb
       -0.0020680798 0.0014336476 -0.00095615885 -0.0027873653
0000c0 1d 03 21 3a b2 cf 9b ba 02 cd 14 3b 9d ec f2 3a
       0.00061421265 -0.001188746 0.0022705202 0.0018533651
0000d0 20 84 e3 39 88 f6 48 bc ec 73 b4 3a b7 10 96 ba
       0.00043395255 -0.012265809 0.0013767458 -0.0011449073
0000e0 0c 88 f3 b9 40 8c 02 bb 36 29 19 3c 32 61 53 3b
       -0.00046449935 -0.0019920021 0.009348204 0.0032253978
0000f0 e9 3b 9a b7 83 dc 03 bb a8 52 88 3b b8 96 16 39
       -1.8386128e-05 -0.002012045 0.004160244 0.00014361262
000100 3a b5 8b ba 7c 56 32 ba 28 49 80 3a 43 e8 05 bb
       -0.0010658868 -0.00068030483 0.0009787427 -0.0020432628
000110 ee 24 f7 39 4d 0a ec 3a 5e 65 e1 ba cf 8e f9 3a
       0.00047139026 0.0018008441 -0.0017196347 0.0019039753
000120 fd e6 b5 3a ab 6d f1 3b 0c 31 0a 38 b0 0b a6 3a
       0.0013878044 0.00736781 3.2947442e-05 0.0012668278
000130 d1 d7 a8 3a f3 83 c9 ba d6 dc e7 3a 0d 94 b4 3a
       0.0012881701 -0.0015374407 0.0017689716 0.0013777033
000140 fe 84 e0 ba c8 5c 4d 39 f7 f4 85 3a 9f b2 d7 ba
       -0.0017129479 0.00019584887 0.00102201 -0.0016456431
000150 37 ea 1d 3c c1 78 46 ba ea ae 96 3a a1 7e bd 3a
       0.009638361 -0.00075710943 0.001149622 0.0014457294
000160 c1 b7 d8 ba ad 62 8e 3a 36 f8 d6 3b 6c e5 e8 3a
       -0.0016534255 0.0010863148 0.006560351 0.0017768568
000170 5c 65 40 3b ce a3 a2 39 ca b1 00 bb a4 d4 ca 39
       0.002935729 0.00031021092 -0.001963722 0.00038686872
000180 07 cb b2 3a 0a ca f0 3a 0a 10 f1 ba aa 76 a4 38
       0.0013640829 0.0018370759 -0.0018391621 7.842232e-05
000190 af d9 6b 39 19 fc a7 b9 bc 88 95 b9 55 bb a4 3a
       0.0002249244 -0.0003204055 -0.0002852137 0.0012568036
0001a0 4f 91 95 ba b9 4f b0 3a 8e 6a b9 ba de f6 89 ba
       -0.0011411103 0.0013451494 -0.0014146136 -0.0010525843
0001b0 f7 ee cc b9 80 47 fc 3b 76 3c 94 ba 13 b1 c8 b7
       -0.00039087955 0.007698953 -0.0011309523 -2.3924315e-05
0001c0 af 60 94 3a c8 f7 02 bb 4f c2 dd ba 16 89 02 3b
       0.0011320318 -0.0019984115 -0.001691887 0.0019918135
0001d0 74 81 da ba c2 bd 9d ba b2 8b 99 3b 82 64 63 3a
       -0.001667066 -0.0012034702 0.0046858424 0.00086743396
0001e0 28 39 ea ba 9a f4 47 39 9c 5a aa ba 16 2b 50 3a
       -0.0017869817 0.0001906924 -0.0012996974 0.00079409906
0001f0 5a 07 bc ba 8c 58 04 3b 94 65 3a 3a 54 46 df 3a
       -0.0014345453 0.002019438 0.0007110473 0.0017034509
000200 19 cc e5 b9 3b 7c 85 3a d2 da a0 3b 89 04 96 3b
       -0.00043830348 0.0010184118 0.004908898 0.0045781774
000210 02 bb c2 b9 2a 66 99 ba 90 3c a9 3a ad f0 90 ba
       -0.00037141895 -0.0011703421 0.0012911726 -0.0011058055
000220 15 43 29 3b 4e 20 12 3a fb 9c 25 bb 0f 5f 90 bc
       0.0025827338 0.0005574272 -0.002527057 -0.017623452
000230 1e 1e 19 bb 9b 69 1f 3b 8c 58 0a bb c5 1c 03 bd
       -0.0023363899 0.002432442 -0.0021109907 -0.03200986
000240 64 0d 98 3b 2e 46 6c bc c8 12 23 b9 af cc fe 3c
       0.004640268 -0.014421029 -0.00015551888 0.03110346
000250 6a b7 08 3b a8 66 fe bb 20 af 26 bb 67 e1 76 bc
       0.0020861276 -0.0077637024 -0.0025433972 -0.015068389
000260 7d a8 29 3b aa c3 05 3a 74 73 e8 3a 2d 55 03 bb
       0.002588778 0.00051027036 0.0017734603 -0.0020039782
000270 e3 62 26 bb a8 8f 6b 3a ab a9 93 bb e0 44 76 bb
       -0.002538853 0.0008985945 -0.00450631 -0.0037577674
000280 b4 da c9 bc 04 c4 c1 ba 5f 75 12 bb a2 50 0e ba
       -0.024640419 -0.0014783149 -0.002234779 -0.00054288853
000290 d2 4e 9f bc 90 a9 02 3b 2b 8f 5f 3b be a6 10 bb
       -0.019446764 0.0019937493 0.0034112434 -0.0022072042
0002a0 4d 43 13 bb 1d ec 7a 3c e5 cb 4d bc 54 a4 ad 38
       -0.0022470534 0.015315083 -0.012560819 8.279891e-05
0002b0 34 e1 6c ba a4 1f 0a bb 34 48 1c 3b ae a5 56 3a
       -0.00090362434 -0.0021075988 0.0023846747 0.00081881403
0002c0 95 3f 47 bb 91 8d 26 3b d1 c9 25 3c 79 ff f8 b9
       -0.0030402888 0.002541397 0.010118918 -0.00047492588
0002d0 58 f1 b3 3b 04 42 01 bd 34 6e 10 bb cc 27 53 ba
       0.005491417 -0.031557098 -0.0022038342 -0.00080549414
0002e0 5b 76 ce b9 ad 22 97 b9 83 61 d3 3c aa 5e 78 3c
       -0.00039379564 -0.000288268 0.025803333 0.015159288
0002f0 8b 0c 86 3b e9 e8 30 bb fc b0 2d 3c 20 f6 b0 bb
       0.0040908507 -0.0026994294 0.010601278 -0.005400434
000300 ab 98 40 3b 8d b8 92 ba 78 86 fd 3a 57 39 19 bb
       0.0029387872 -0.0011193916 0.0019342443 -0.0023380124
000310 b0 10 b3 3a b4 82 3f 3b 38 81 91 3a 9c 19 4a b9
       0.001366159 0.0029222192 0.0011101132 -0.00019273761
000320 16 df 24 3a 47 18 bf 3c 6c e2 ae ba 75 8e 23 bb
       0.0006289346 0.023327006 -0.0013342625 -0.0024956737
000330 d3 a9 1e bb 63 2c 3a bc 03 c9 c5 3a 54 d9 12 bb
       -0.002421011 -0.011363122 0.0015089813 -0.002240737
000340 49 a5 2c bb de e5 ae bb ca 35 84 3a 52 96 ba 3a
       -0.0026343635 -0.005337461 0.0010086831 0.0014235473
000350 50 0c 74 3c d6 c6 5a 3b 40 2b 20 bb e1 82 06 bb
       0.014895514 0.0033382676 -0.0024439842 -0.0020524787
000360 08 f1 b9 3a 92 ba 1d bb ce c0 b0 3c e3 0b 19 bb
       0.0014186213 -0.0024067503 0.021576311 -0.0023353032
000370 4e ae ba 3b 7b 0d 14 ba f7 ab 90 ba d5 51 b3 bb
       0.0056970483 -0.00056477607 -0.0011037578 -0.0054724016
000380 8b ab f8 ba e0 9a 4f 3b 60 0b 15 3a 28 95 89 ba
       -0.0018972022 0.0031678006 0.0005685594 -0.0010496723
000390 de f4 e9 ba a0 25 fa 39 e6 91 a2 39 6d d7 18 bb
       -0.0017849465 0.0004771175 0.0003100775 -0.0023321763
0003a0 d1 57 d7 bb e7 8c 17 bb 65 cf 07 3b 74 6e 1f 3b
       -0.006571748 -0.0023124756 0.0020722982 0.002432731
0003b0 53 34 82 3b 18 66 61 3c 4c 71 24 3b 83 83 ce 3b
       0.0039735227 0.013757251 0.0025091944 0.0063022985
0003c0 6c 14 1c bb 8f 71 ac b9 c6 13 93 ba b1 67 b1 3a
       -0.0023815883 -0.00032891004 -0.0011221103 0.0013534931
0003d0 18 82 2c bb c3 fb 27 3b 71 54 3d 3c c5 7a 77 3b
       -0.002632266 0.002563224 0.011555777 0.0037762385
0003e0 c9 b6 2b b9 52 4e a3 b8 de b4 15 3b dd 8d 0e 3c
       -0.00016375924 -7.787034e-05 0.00228434 0.008700815
0003f0 f2 2e ec 3a 8e a4 56 3b a6 3a 14 bb 2c f5 9a ba
       0.0018019362 0.003275189 -0.0022617965 -0.0011822334
