datasets/Spirit5M/model/chronological_teacher.pth (torch, 646908 bytes, 10 tensors)

gru.weight_ih_l0 f4 [384, 30]
00000000: 3e25 b93a 5125 b93a e124 b93a af24 b93a
00000010: 7f25 b93a b924 b93a af24 b93a 5c18 3f38
00000020: 0142 003c 9209 d0b7 6436 debb 509f 273a
00000030: d132 703b 4cd9 03b9 a640 01bc 1ee6 883b
00000040: 5a0c d33b d828 81bb 28ef 5f3a 532a 54bb
00000050: 493d 77bb f84d 38b8 b296 1b3c 229b b33b
00000060: c8b6 6737 5473 dfbb 3ef9 16bb d469 1ebc
00000070: cd13 dc3b 9ff9 0ebc 57fa 193b 56fa 193b
00000080: 56fa 193b 56fa 193b 57fa 193b 57fa 193b
00000090: 53fa 193b 80a0 beba 974c da3a ad2d e7bb
000000a0: 798c ab39 7da9 753c 3cce 8ebb 94e4 8cbc
000000b0: 2577 c5bb 2d19 493c 7bef 40bb f2c3 b33b
000000c0: 908d d43b 1c0e 0fbc 5948 08bc 4a8e f3bb
000000d0: 255e e13c fb23 7d3c 2523 84ba 2e27 f4bb
000000e0: 2699 d3bb 91c2 a4bb 4e55 9fbb d0fd 2cbc
000000f0: 6637 c5bb 5c37 c5bb 5e37 c5bb 1a37 c5bb
00000100: 4d37 c5bb 4637 c5bb d635 c5bb 1404 98bc
00000110: 2883 87bd 9e58 09bc 2f29 0fbc 8946 efbc
00000120: 5cb0 d23b 5db1 a73b d47e 95bc 503c ec3c
00000130: 4e19 34bc 23d6 5fbc 77c6 cabc c178 d73c
00000140: e999 933c fb44 2b3c 1cb0 2ebc 6f71 26bd
00000150: bb3f 60bc b7cd 373d 48db 06b8 6a8d a53c
00000160: 43fc bb3a c07d e23c 0f81 ddba 0d81 ddba
00000170: 0981 ddba 0981 ddba 0881 ddba 1681 ddba
00000180: 0d81 ddba 5984 f3bb 7dd9 c4bc 2b61 0cbc
00000190: 4dd0 ecba f8f7 3cbc 647e 0bbc 8122 153b
000001a0: 9f1f d23a 96d9 453c 0d73 a6bb e8a4 22bc
000001b0: 4097 11bb 4b9a 7f3c 2a74 6b3b 8a5c 29bb
000001c0: f7db 0a3b d11c 5fbc ce27 dbbb 7f07 3f3c
000001d0: f629 133b ce99 0e3c eb94 4abb abc1 683b
000001e0: aee6 e2bb e0e9 e2bb eee9 e2bb 70e9 e2bb
000001f0: 65e9 e2bb d0e9 e2bb 73e8 e2bb 863e 3fbc
00000200: 44a6 8dbd 0343 443c 58c2 53bc 1dcb 25bd
00000210: 14fa d43b 0534 2dbb 16f8 57bc 2778 d13c
00000220: 0d41 abbc d7d9 08bd 1e99 42bd 4605 4b3c
00000230: 7ea6 b63b 5f7a 4f3c 1372 1abd f765 3bbd
00000240: 1e28 08bc 7036 583d 3adf 0d3c 65ac 313c
00000250: ce5c f4ba 13fe f93c 2272 743a 0072 743a
00000260: ff71 743a 0f72 743a 2172 743a 1972 743a
00000270: 1772 743a 62b3 82bb e643 eaba a3f3 bbba
00000280: 2b18 e2bc 2b57 22bc 67d6 0dbc 27a5 e4b9
00000290: 667b 7fbc 5c2b de3b 91ab fb39 c28a 56bc
000002a0: d0e8 a0bb 5037 023b 5608 f8bb 3ca2 a3bb
000002b0: 21b3 523c a19e 963a 1ec2 52bc 3313 e6bb
000002c0: 99cc 1dbb 9089 32bc 67f0 a63b 4ae6 b2bc
000002d0: 1e25 5c39 8226 5c39 0024 5c39 0626 5c39
000002e0: 5d25 5c39 bd23 5c39 d223 5c39 fce5 67ba
000002f0: 7308 d93b 4601 173a 23b2 8abb 3619 3c3a
00000300: 3ea5 be3b e373 6e3a ef8d 29bb 19e5 8e3a
00000310: f5b1 1a3b 6800 9bb9 fdad e5ba 54a5 42bb
00000320: 9d8b 80bb 4711 e9ba 7b78 d8b9 2805 cb3a
00000330: 9e91 c83a 3d8f f8ba bb5f eaba 7018 9fbb
00000340: 4466 ac3b 8965 0fbb 9683 383b a382 383b
00000350: 9384 383b 0983 383b 6785 383b 5487 383b
00000360: 8582 383b 0b11 afbb c17d de3b 82b4 08bc
00000370: 308a 91bc 1644 bbbb 8505 0bbb 772b 1b3c
00000380: e851 7dbb 1889 02bc f748 33bc 76c9 03bb
00000390: d6e2 fe3b 587c 98ba 7895 9abb b24b 913a
000003a0: e994 ad3b ea7a 4c3c b55e 64bb 9f97 09bd
000003b0: 3733 a13a 5397 cdbb c56f 6c3a bb70 2abc
000003c0: b3d3 223b b6d3 223b a4d3 223b a3d3 223b
000003d0: b3d3 223b b1d3 223b b8d3 223b a90a 423b
000003e0: e904 883c e5ac b139 62e3 62bc e115 8c3b
000003f0: 8fce 61bb 8626 23bc c60c 39bc 01e9 a23a
0.0014125479 0.0014125501 0.0014125371 0.0014125312 0.0014125555 0.0014125324 0.0014125312 4.5560635e-05
0.007828237 -2.4799989e-05 -0.006781386 0.0006394284 0.0036651383 -0.00012574083 -0.007888949 0.0041778227
0.0064406814 -0.0039416365 0.0008542412 -0.003237386 -0.0037725738 -4.3941633e-05 0.009496378 0.0054811398
1.381123e-05 -0.006819168 -0.0023036744 -0.009668786 0.0067162276 -0.0087265065 0.0023495161 0.002349516
0.002349516 0.002349516 0.0023495161 0.0023495161 0.0023495152 -0.0014543682 0.0016654906 -0.0070550055
0.00032720322 0.014994022 -0.004358081 -0.017198838 -0.006026166 0.012274069 -0.0029439616 0.005486005
0.006486602 -0.008731391 -0.00831803 -0.0074327337 0.027510712 0.015450473 -0.0010081275 -0.0074509596
-0.0064574657 -0.005028077 -0.004862464 -0.0105585605 -0.006018567 -0.0060185622 -0.006018563 -0.0060185315
-0.0060185553 -0.006018552 -0.0060183806 -0.018556632 -0.06616813 -0.008382944 -0.008737846 -0.029208438
0.006429715 0.005117579 -0.018248953 0.028837353 -0.010992361 -0.013661894 -0.024752839 0.026302697
0.018017726 0.010453458 -0.010662105 -0.040635522 -0.0136870695 0.04487392 -3.215231e-05 0.020209033
0.0014342148 0.027647853 -0.0016899424 -0.0016899422 -0.0016899417 -0.0016899417 -0.0016899416 -0.0016899433
-0.0016899422 -0.0074315486 -0.024029488 -0.0085680885 -0.001806745 -0.01153373 -0.008514021 0.0022756162
0.0016031152 0.012075802 -0.005079633 -0.009927012 -0.0022215396 0.015600751 0.0035927393 -0.002584251
0.0021188238 -0.01361771 -0.0066880947 0.011659502 0.002245543 0.008703662 -0.0030911516 0.0035515826
-0.006924472 -0.0069248527 -0.0069248592 -0.0069248006 -0.0069247955 -0.0069248453 -0.0069246828 -0.011672622
-0.06916478 0.011978867 -0.012924753 -0.040476907 0.006499538 -0.002642871 -0.013181707 0.025569988
-0.020905042 -0.033410873 -0.047509305 0.012391394 0.0055740466 0.012663453 -0.037706446 -0.045751538
-0.008310346 0.05278629 0.008659178 0.010844325 -0.0018643381 0.03051666 0.00093248684 0.00093248487
0.0009324848 0.00093248574 0.0009324868 0.0009324863 0.0009324862 -0.0039886693 -0.0017873019 -0.0014339577
-0.027599415 -0.009908478 -0.0086570745 -0.00043610597 -0.015593385 0.006780071 0.00048002278 -0.013094606
-0.004910566 0.0019869395 -0.007569353 -0.004993705 0.0128600905 0.0011491367 -0.012863664 -0.0070213317
-0.0024078249 -0.010897055 0.005094576 -0.021838326 0.00020994662 0.0002099518 0.00020994246 0.00020995
0.00020994754 0.00020994149 0.00020994179 -0.0008846221 0.0066233217 0.00057603826 -0.0042326613 0.00071753876
0.0058180382 0.0009096248 -0.0025871953 0.0010902017 0.0023604606 -0.00029564206 -0.0017523166 -0.0029700594
-0.003922893 -0.0017781638 -0.00041288495 0.0015489208 0.0015302186 -0.0018963587 -0.0017881313 -0.004855208
0.0052612145 -0.0021880588 0.0028154603 0.0028154037 0.0028155192 0.0028154275 0.0028155686 0.0028156834
0.0028153968 -0.005342608 0.0067898934 -0.008343818 -0.017766088 -0.0057149036 -0.0021213007 0.009470812
-0.0038653556 -0.007967256 -0.010942689 -0.0020109094 0.007778506 -0.0011633737 -0.004717525 0.0011085181
0.0052972925 0.012480477 -0.003484649 -0.033591863 0.0012298588 -0.006274143 0.00090193405 -0.010402854
0.002484542 0.0024845428 0.0024845386 0.0024845384 0.002484542 0.0024845416 0.0024845432 0.0029608405
0.016603904 0.00033888887 -0.013848158 0.004275069 -0.0034455394 -0.009957915 -0.011294549 0.001242906

gru.weight_hh_l0 f4 [384, 128]
00000000: 794f b5bb ed89 473b 79da 843b 412e caba
00000010: 1e15 b23c 4e41 c63b 5df4 a43a f90e 87b9
00000020: cc0a 4bbb 7de8 773c f9a2 0dbc a3e5 57bc
00000030: 36a8 03bd 2538 89ba 0015 9cba e50a 22bc
00000040: a94f 0b3c a6aa 593c 1094 00ba b053 e13c
00000050: 9566 103a dec9 963b 49ac c73b 3ff4 053b
00000060: e8eb e238 b63c 82bb 1253 193c f2bd d3bb
00000070: b495 c63b ddfa 09bc eb54 f4bb aa44 063c
00000080: 33b1 6abb b0ab 853b 74a4 6f3b a8ac 293b
00000090: e442 4f3c 5899 a4b9 a470 d63b 0d34 fdb9
000000a0: e3fe 75bb 424f 0a3c 06b3 413b 0e44 ac3c
000000b0: 71b1 8d3b 0f09 503b 94b7 aebb 74fa 8b3a
000000c0: 2ef8 91ba ab78 29bc ee92 89bb 9182 dc39
000000d0: 5d48 81bc 59a2 6bbb 4964 af3b 149d 743b
000000e0: 5691 b43a b9ac c8bb 4c34 7b3c deda 303b
000000f0: a852 3e3a 6307 903c 0c3d 05bc 50aa 2cbc
00000100: 78c8 163c 5ef8 fc3a 082a 053c d349 ebba
00000110: 6ce8 a93b 6f1a 763b 93e2 a43b 3880 d53a
00000120: 3688 f3bb 3dac 613c ea93 293c ef98 43bb
00000130: 4c46 19bb 7715 c238 eb52 0dba 77c6 d43c
00000140: 2ad0 b4bb 618d 97bb df77 85b9 5ee5 443c
00000150: b36c b3bb f47f fbbc 6e4a 2d3b 1689 ac3b
00000160: a534 053c db6c 2cb9 e41d a73b c457 b83b
00000170: 12d4 eb3c bc31 133c 9da8 f0bb 552d 9bba
00000180: 8bdc 003c c410 9aba 5410 b2bb 2fd6 5a3b
00000190: ee0a 0abb dae9 8a3b d869 0a3a edc0 c33b
000001a0: 9d3f 50bb e65a bf3c bbd0 4d3b bcf2 8ebb
000001b0: 573d 0b3c ff36 e43b 117f 293c 8529 36bb
000001c0: c2ee 11bb c181 a9ba c851 3b3c b2e1 b63a
000001d0: 95f3 113c 935f 343c 0db4 09bd 7f66 9e3c
000001e0: 5f27 8b3a b1c7 a9ba 1d32 9dba 08ce c7bc
000001f0: ac0d 043b 3fbd 55bc aa4e cdba f643 4c3b
00000200: e0d5 ea3b f906 c2bc 6185 8dbb e8e3 ce3b
00000210: 8ef6 f5bb 6bd7 0cbc e9ed 95bb 2552 58bb
00000220: 6ae3 0c3c 6e57 0ebc 842b 5c3b 2474 6a3b
00000230: 7554 473c 9cb7 8abc 84c0 a03c e417 4e3b
00000240: d8ac 36bb 2dab cd3b c5f9 6cbc 1788 96bb
00000250: 7531 413c 36bb d0bb 22b9 2dbb d955 90bb
00000260: ccc5 323c 157d 69bc b429 a53c 3abb 673c
00000270: aad0 243b ce8f 3b3b c17e 2a3c 07cd 9dbb
00000280: 252f 66bb bc4f 963b 9390 983c c878 973c
00000290: 1cee 56bb 98a2 01bc 6a5d 983b f27f 243c
000002a0: 109b 86bb 3d3f 1dbc 9b59 c3bc f701 b03b
000002b0: 90a6 613c 02ef fdbb 9542 41bb 216d 403c
000002c0: ef00 f93b 3a27 5e3b 0611 3c3c 38ff db3b
000002d0: fcf5 f13b 2efa f23b 9b43 b4bb b4ff 063c
000002e0: ac6e 3cbc b49a c63b ea0c 9e3a 65b3 69bc
000002f0: 9b62 2fbc d627 e8bb be32 cabb a988 613a
00000300: d309 ac3b 8603 51bc 951a eb3b ae30 293c
00000310: ff71 693c 43ca 983c 603a 88bb 63dc 033b
00000320: 1e06 1dbc 6beb d3b9 5213 713b 9b5e 93ba
00000330: 2281 e13b 0073 30bc e63e 3e3c 8e48 0bbc
00000340: a9d6 013c cf8c 9e3b 3d92 603c 61c2 1c3b
00000350: c467 9f3c 63a8 67bb 3b30 46bb 9ced bdbb
00000360: 85c1 893b 7d26 c5bb d624 a93c 8e66 2fba
00000370: 0b96 3b3c 6487 ab3b 13ee bcbb e2e0 7e3c
00000380: edbd d63b 4667 de3b 4191 fa3b 1c7b 25bc
00000390: 6f67 90bc bc4c 5f3a dfd5 ac3b 2169 a338
000003a0: 8601 abbb 57cc b93b 220c 7f3b 156e 8bbb
000003b0: 6c88 8b3a 6248 21bc 70a5 b33b c2a1 b93b
000003c0: 4281 3d3c 46a5 443b 73d4 4abc af48 a3bb
000003d0: 8cc4 0639 bc73 59bc 1fa1 243b eddd 703b
000003e0: 31be e1bb 1d2c d93b 35ae 073c 55a9 2bbb
000003f0: 5c4b 3b3b be7f 943a 2fa2 69bc 28fc a53b
-0.0055331555 0.00304472 0.0040543643 -0.0015425162 0.021738585 0.0060502654 0.0012585033 -0.00025760362
-0.0030981777 0.015131113 -0.008644813 -0.013177308 -0.03214284 -0.0010469003 -0.0011908114 -0.009890293
0.008502879 0.013285315 -0.00049048755 0.027505726 0.000550845 0.004601701 0.006093536 0.0020439771
0.00010820461 -0.0039745225 0.009358184 -0.006461852 0.0060603265 -0.008421627 -0.007456412 0.008195082
-0.0035811185 0.0040793046 0.0036566528 0.0025890265 0.012650225 -0.00031394768 0.0065441895 -0.000482947
-0.0037535958 0.008441748 0.002955617 0.021028545 0.004324131 0.003174368 -0.005331943 0.0010679499
-0.0011136585 -0.010343711 -0.0041984236 0.0004205895 -0.015781576 -0.003595492 0.005352531 0.0037325071
0.0013776224 -0.006124106 0.015332293 0.0026985924 0.00072602415 0.017581647 -0.0081322305 -0.010538653
0.009203069 0.0019300093 0.008127697 -0.0017951078 0.0051851775 0.0037552377 0.0050318926 0.0016288823
-0.007432009 0.013773975 0.010350207 -0.0029845794 -0.0023387847 9.254639e-05 -0.0005391079 0.025973542
-0.005517979 -0.004625008 -0.00025457048 0.012017576 -0.0054756044 -0.030700661 0.0026442069 0.0052653654
0.008130227 -0.0001644375 0.005099999 0.005625697 0.028787646 0.008984026 -0.007344319 -0.0011839072
0.007865082 -0.0011754264 -0.0054340754 0.0033391824 -0.0021063644 0.004239303 0.0005280054 0.0059739263
-0.0031776198 0.023358773 0.003140493 -0.0043624323 0.008498511 0.006964564 0.010345236 -0.0027795744
-0.0022267555 -0.0012932346 0.011433072 0.001395276 0.008908172 0.011009115 -0.033618975 0.019335983
0.0010616592 -0.001295319 -0.0011993084 -0.024390236 0.002014975 -0.013045608 -0.0015663703 0.0031168438
0.007166609 -0.023684965 -0.0043188785 0.0063137896 -0.0075061982 -0.0085962815 -0.0045754802 -0.0033007946
0.008599142 -0.008687837 0.0033595273 0.0035774792 0.012166132 -0.016933255 0.019623049 0.0031447345
-0.002787402 0.0062765093 -0.014463847 -0.00459386 0.011791577 -0.0063699735 -0.0026508053 -0.004404765
0.010911416 -0.014251013 0.020161487 0.014143759 0.0025148788 0.002861965 0.010406197 -0.004815701
-0.0035123315 0.004587142 0.018623626 0.01849021 -0.0032795733 -0.0079123005 0.0046498077 0.01004027
-0.0041078404 -0.009597597 -0.023846438 0.005371328 0.013772622 -0.007749439 -0.002948915 0.011744768
0.0075989882 0.0033897893 0.011478668 0.006713774 0.00738406 0.0074150776 -0.0055012233 0.008239675
-0.011500996 0.0060609225 0.0012058292 -0.014263962 -0.010704662 -0.007084827 -0.0061705997 0.0008603433
0.0052501946 -0.012757188 0.0071747997 0.010326548 0.01424837 0.018651133 -0.0041573495 0.0020120374
-0.009583978 -0.00040420456 0.0036785197 -0.0011243405 0.006881849 -0.010769606 0.011611676 -0.008501185
0.007924714 0.004838563 0.013706741 0.002391957 0.019458659 -0.003534817 -0.003024115 -0.0057961475
0.0042039775 -0.006016551 0.020647448 -0.0006691002 0.011449347 0.0052346457 -0.0057656853 0.015556546
0.0065534026 0.0067872135 0.00764671 -0.010100152 -0.017627446 0.0008518209 0.005274519 7.7920275e-05
-0.0052186875 0.005670111 0.0038917144 -0.004255066 0.0010645515 -0.009843918 0.005482368 0.005665035
0.011566462 0.0030005737 -0.012379753 -0.00498303 0.00012852455 -0.013272222 0.002512045 0.0036753372
-0.0068891277 0.006627573 0.00828128 -0.002619346 0.0028578853 0.0011329574 -0.014259859 0.0050654598

gru.bias_ih_l0 f4 [384]
00000000: dae6 9fbd 7582 c73c 79ad 1abd 4242 1b3d
00000010: 3164 e33c 681c e2bd e23f a53c 2853 b23d
00000020: 4410 bcbd d331 77bd 553b 3d3d 45b0 bbbc
00000030: fe07 ce3c 20ea ba3c 62c0 753d 2c8f b73c
00000040: e24a dd3d 6a24 c33d c6b7 da3c 82ec f93c
00000050: 54b7 6cbd 790d 8e3d 65a7 073d 35e5 b53d
00000060: 225d 823d dc34 ad3c dfc1 123d d79b 0cbd
00000070: 1344 18bb 2782 4cbd 8ad2 1ebd 801f bbbc
00000080: 665f b43d 007e bcbb 6132 a0bc 3861 eb3b
00000090: 6be2 e8bd 6e90 523a 3b02 a43d 72cd 043e
000000a0: feae 5e3d d0d9 113c 5d1d 523d 5c5e 043e
000000b0: 6b22 ac3c 89ca 21bd a30f 2b3c afb9 78bd
000000c0: a0aa 36bd 416a 813d e5ef 37bd 03e6 57bd
000000d0: 2157 f1bb 9d49 1abd 7195 bdbc e7d7 113d
000000e0: 707b 8d3d 7634 89bd 4167 b63c c29d 023d
000000f0: 1149 943d 991b ad3d cdb7 3dbd e441 da3b
00000100: 6014 a33d 018c bf3c 7827 823d 3787 c33d
00000110: 4f84 1bbc c875 afbc 4690 92bd 219e a33b
00000120: d96c 7e3d 68da 9139 36ad 463d c40d 743d
00000130: 43b5 a0bc 37e7 bd3d a338 1f3d e78f 7cbd
00000140: ea4f 40bd 8bd0 5ebd 7ffe 41bd 276e bd3c
00000150: d203 613c 3175 1b3e d872 913d a7f1 163c
00000160: abd2 6e3b 6f75 bf3c abdd 2abd a3ea 973d
00000170: b135 083b 251b cd3a a2ce b43d 943d 563c
00000180: efc5 903c 4d53 343d 4ddd 96bd 0e1f ccbc
00000190: 8285 b0bc 732c 753d 1979 6c3d 22e0 20bd
000001a0: 3ba7 ba3d ebfd ed3d 1601 f03c d591 d83b
000001b0: c942 cb3b ea51 84bc b398 103d 5b5b 88bc
000001c0: 0292 47bd 1d9c 89bb 7bea 8cbb 719e cc3d
000001d0: 7fe7 cebd be4d f83d ce07 243d 9917 ea3d
000001e0: a6a2 d8bc 4989 a1bd e4e4 9abd d267 823c
000001f0: 21e9 6c3c d749 073d 6291 f03b 332b 343d
00000200: 33e7 26be 5e22 22be 1f68 3ebe c9bb d4bd
00000210: 8814 16be 57ab 77be 8010 7abd af98 9dbe
00000220: f07c debd d886 30be f66a 33be ebf8 0abe
00000230: 7b69 04be 2e47 adbe 4e8a 3abe 2a8d 4fbd
00000240: 8a65 9fbe 2bc5 9bbe 1b95 57be 82fa 08be
00000250: 613b 44be 97c2 16be 004b 33be 502e c8bd
00000260: 9052 34be cb9a f4bd 3d58 20be d978 f2bd
00000270: 2c93 93bd 66fb 32be 4674 4bbe 4937 15be
00000280: e78f 79be b617 73be 35a6 b4be 048b 63be
00000290: 2a88 d2bd eb08 61be 511e 14be 6b98 60be
000002a0: 03ef 4cbe 4508 f6bd a13e debc 8add 7ebe
000002b0: 293e 08be 24a4 00be f138 85bd 158a 0bbe
000002c0: c252 d2bd 55be 8bbd 0eee 4cbe 705f 8ebd
000002d0: d0bb f2bd 2f57 cabd 3777 ddbd 142e 04be
000002e0: 6047 3fbe 4296 19be 1950 50be 7051 17be
000002f0: 05ba 1abe c65f a4be 26e5 8dbb 813a 85bd
00000300: 726f 31be c682 aebd 3816 b1bd d46b 3ebe
00000310: a73f 40bd 5a57 7dbe 45d9 9bbd c905 e9bd
00000320: ef05 1abe 1fe9 03bd c8f0 cdbd a16c fdbd
00000330: e164 0abe ea3f 47be 5f18 19be 7449 86bd
00000340: 1139 2ebe 50f6 debd 94de 4ebe e5cc 8bbe
00000350: 8132 20be 7e40 95be eae1 97be c64f 8cbe
00000360: e391 acbd 0fe7 90be 4827 2abe 37b1 a2be
00000370: a6d0 38be 8e43 133d d4bf 04be 39d0 91be
00000380: 86e1 ddbd eb58 85be 52d7 10be d840 46be
00000390: 48dd 24be c754 20be 978a 42be fbb2 1bbd
000003a0: bcbc 0abe dff6 4fbe 6356 c6bd 76bc 95bd
000003b0: 6021 debd fb97 12be 377e eebc 1e78 7fbd
000003c0: db11 41be 0214 03be f452 edbd 61ba 9dbe
000003d0: e63b 07be 7124 a8be 9eaf 39be 94e7 b0be
000003e0: 882d b5bd c643 d1bd d39c f6bd 0ba0 7cbe
000003f0: 93fa aebe ab27 f6bd 60fb 88be 5329 dcbd
-0.07807703 0.024354199 -0.037763093 0.037904985 0.027757736 -0.11040574 0.020172063 0.08707267
-0.0918279 -0.06035025 0.04619916 -0.0229112 0.025150295 0.022816718 0.059997924 0.022407137
0.108052984 0.0952843 0.026698958 0.030508284 -0.057792023 0.069361635 0.033118624 0.088816084
0.0636542 0.02114337 0.03582942 -0.034328308 -0.0023233935 -0.04992881 -0.038775004 -0.022842169
0.08807258 -0.005752325 -0.019555273 0.0071832202 -0.11371311 0.0008032386 0.08008238 0.12968996
0.054366104 0.008902028 0.051297534 0.1292662 0.021012506 -0.039499793 0.01044074 -0.060723957
-0.044596314 0.063190944 -0.044906516 -0.05270959 -0.007365123 -0.03766786 -0.023142548 0.03560629
0.069083095 -0.06699459 0.022266032 0.03188873 0.07240499 0.084525295 -0.046317864 0.006660687
0.079628706 0.023382189 0.06355184 0.095472746 -0.009491994 -0.021418467 -0.07156424 0.0049932157
0.062115524 0.0002781928 0.04850503 0.05958344 -0.019617682 0.09272616 0.038872372 -0.061660673
-0.046951212 -0.0543981 -0.047361847 0.023123814 0.013733821 0.15181424 0.07101983 0.009212888
0.0036441486 0.023371426 -0.041715305 0.074178 0.0020783956 0.0015648348 0.088284746 0.013076205
0.017672507 0.044024754 -0.073664285 -0.024917152 -0.021548036 0.059856843 0.057732675 -0.03927625
0.09113928 0.11620697 0.029297393 0.0066091814 0.00620303 -0.01615234 0.035301875 -0.016645124
-0.04872323 -0.0041995184 -0.004300413 0.09991158 -0.10102748 0.12124203 0.040046506 0.11430282
-0.026444744 -0.07887513 -0.07563189 0.015918646 0.014459879 0.033029404 0.0073415497 0.04398651
-0.16299133 -0.15833423 -0.18594407 -0.1038738 -0.1465627 -0.24186455 -0.061050892 -0.3078055
-0.10863674 -0.17238939 -0.17521271 -0.13571517 -0.12930863 -0.33843368 -0.18216822 -0.050671734
-0.31132156 -0.30423865 -0.21052973 -0.13376811 -0.19163276 -0.14722668 -0.17509079 -0.097744584
-0.1760962 -0.11943587 -0.1565866 -0.11839456 -0.07205805 -0.17478713 -0.19868574 -0.14571871
-0.243713 -0.23739514 -0.35283056 -0.22220999 -0.102798775 -0.21976058 -0.1446469 -0.21933143
-0.2001305 -0.12013296 -0.027129473 -0.24889198 -0.13304962 -0.12562615 -0.06505001 -0.13626893
-0.10269691 -0.06823412 -0.20012686 -0.06951797 -0.11852229 -0.0987991 -0.10813754 -0.12908202
-0.18679571 -0.14998725 -0.20343055 -0.1477716 -0.15110023 -0.3210432 -0.004330295 -0.06505299
-0.1732767 -0.08521037 -0.08646816 -0.1859582 -0.046935704 -0.24740353 -0.076098 -0.113780566
-0.15041326 -0.032204743 -0.10055691 -0.12374235 -0.13515045 -0.19457975 -0.14950703 -0.06556979
-0.17013957 -0.10886824 -0.20202094 -0.2730476 -0.15644266 -0.29150766 -0.29664546 -0.27404612
-0.08426263 -0.28301284 -0.16616547 -0.3177583 -0.18048343 0.035953097 -0.12963802 -0.28479174
-0.10834031 -0.26044402 -0.14144638 -0.19360673 -0.16100037 -0.1565734 -0.1899818 -0.038012486
-0.13548559 -0.20309018 -0.09684446 -0.07311337 -0.108462095 -0.14315788 -0.029112918 -0.062370412
-0.18854468 -0.12800601 -0.11588088 -0.30806258 -0.13206443 -0.32840303 -0.18133399 -0.3455168
-0.08846575 -0.10218005 -0.120416306 -0.24670427 -0.34175548 -0.12019285 -0.26754284 -0.107500695

gru.bias_hh_l0 f4 [384]
00000000: a035 623c c023 e13b 023e bdbc fa7b 193c
00000010: dde6 cb3a 0ae3 77bc 41f5 983c ef2d f53d
00000020: bd23 b8bd 39d7 d9bd 525a 94bc d7d0 0e3d
00000030: c1c2 ecba 3f2d 07bd 3754 42bd fb5e 1b3c
00000040: 06bb e93d 1305 283d 5dd1 d9bc 2e51 12bc
00000050: aa9a 3c3d cf17 bb3d 7886 3e3d 88b2 d13d
00000060: 66cb 003d d736 71bb 8359 b53d e04e 0bbd
00000070: fade babc bd0b a63d d950 a4bc 8acf 3cbc
00000080: c7ee 663d d74d c0bb 7533 103d 5646 583d
00000090: 84c8 31bd d070 ad3d 0fb1 ba3c 3595 d63d
000000a0: 5727 313d df63 f4bd 1b28 14bc 7989 8b3d
000000b0: 605e 093d c6b3 afbc e003 62bc 6716 a2bc
000000c0: 17d6 4a3a faee 213d 0dca cdbd 7f18 b83c
000000d0: d107 ddbc f1d9 b53c 6cb5 933c b5ef 943c
000000e0: cd24 25bc 11f9 a5bd 95ff a53d 5d41 fe3c
000000f0: 50f1 1abd d9f9 393d 08b0 3cbc 5b00 8cbd
00000100: b23c b73d dbf9 ce3c 50da 68bc f22c 8f3d
00000110: fc09 35bd fc82 0c3d 11b8 97bd b0ec b43d
00000120: b689 523d ea20 96bd 590f b8bc f694 a33d
00000130: e513 7dbd b5a8 443d 7f78 003d 6639 b2ba
00000140: 2d50 2a3d ee20 843c 0215 19bd 5a11 f73d
00000150: e614 92bd 6d99 be3d 32d9 cd3d 1f39 2c39
00000160: c16a 733d a248 bb3d 6462 44bc 83db df3c
00000170: 7fc7 92bc 8c29 fabc 1c05 963d 36db 26bb
00000180: c845 023d 0c0e 4d3d 4b7b 84bd 3d12 b2bc
00000190: 3910 e9bc f2bb 7cbc 8bd9 ab3d ba78 e53a
000001a0: 5629 bc3d d972 033e 0713 a83d 8880 2b3d
000001b0: 9469 2d3d 7a29 91bd 1cf3 103d 3923 e2bd
000001c0: bc03 3dbd 3abb 18bd 18bf 20bd ec88 8c3d
000001d0: 0166 8bbd 6b27 37bc 10fd 053e 5457 6a3d
000001e0: 41a7 d339 9e7f e53a 97d7 0dbd 9d3d db3d
000001f0: c527 573d ab5a 73bc 1ffc 493d bd4f 183d
00000200: 8533 96bd 6284 33be c3fa 51be ce64 ebbd
00000210: 2157 9ebd cd86 82be e272 84bd f12b adbe
00000220: 2073 25be 244b 0ebe 4044 d6bd 31f8 1dbe
00000230: e7ef 8cbd 1800 9fbe 7b35 20be 8c71 3bbd
00000240: 89b0 a1be 203a a5be a911 5cbe d747 0ebe
00000250: 32d1 4dbe 7461 37be 8dfd 1fbe f358 30be
00000260: 5589 53be 5c2a fbbd d53a 0fbe d2e1 0bbe
00000270: d996 88bd 3d6b 3dbe a573 d5bd bd3e 0cbe
00000280: 7a26 87be b590 5ebe 398b abbe aee5 88be
00000290: bc7e d8bd cc21 5cbe 6f50 19be 783f 46be
000002a0: 2869 6ebe e1cb d6bd 77f8 2ebd 93b7 89be
000002b0: 1114 f8bd 46b1 07be c3da afbd 8f4c 13be
000002c0: 48a0 d3bd 5af7 82bd 0a11 46be 8699 8bbd
000002d0: e3c0 11be 0eb4 0abe 8bc6 1dbe 44a9 e5bd
000002e0: f086 2dbe fdf8 03be 379e 3bbe 8590 b7bd
000002f0: abba 19be d735 a8be 2e7d 033b 0b54 bdbd
00000300: fa3e 33be 2683 fcbd 7891 7bbd 2fbf 29be
00000310: c124 6abd c1c8 66be 2dde 88bd cc54 b2bd
00000320: fd56 1fbe c95f fbbc dd67 a9bd 60f3 0bbe
00000330: 6765 18be 16f2 44be b8c0 1cbe 2e9f 03be
00000340: 3d19 2fbe a929 10be 1331 59be 396b 89be
00000350: 357f 15be 4542 a8be bf5e 8fbe f9df 88be
00000360: e0cc 69bd 617b 9ebe 48e2 3fbe 6deb abbe
00000370: b0af 26be aa6d 063d ff3e 14be 0031 92be
00000380: ddf2 90bd 8b18 87be 1621 23be 740e 64be
00000390: 9649 2bbe 2ad6 40be 6d44 1dbe 5458 b0bd
000003a0: 7ff2 1ebe d07b 02be 0df5 f1bc 69b8 93bd
000003b0: 1ed4 c9bd c745 40be 1456 04bd e7eb a8bd
000003c0: 42f0 21be 3647 00be 297c 13be 24c8 9bbe
000003d0: c3d6 05be 8795 b8be 278c fbbd b8c6 c0be
000003e0: 459e 8ebd d443 09be 1818 13be fa74 6cbe
000003f0: d6f1 99be d44c d6bd 2fbe 91be 3275 f9bd
0.0138067305 0.006870717 -0.023100857 0.009367937 0.0015556474 -0.015129814 0.018671634 0.11971652
-0.089911915 -0.106367536 -0.018109474 0.034867134 -0.0018063412 -0.033002134 -0.047443595 0.009483094
0.11412625 0.041020464 -0.02658909 -0.008930488 0.046045937 0.091354005 0.04651496 0.1023913
0.031443976 -0.0036806369 0.08854964 -0.034010768 -0.022811402 0.08107708 -0.020058082 -0.011524091
0.05638006 -0.005868654 0.035205323 0.052801453 -0.043404117 0.08468783 0.022789506 0.10477678
0.043250408 -0.119331114 -0.009042765 0.0681333 0.03353727 -0.021448027 -0.013794869 -0.019786073
0.00077375903 0.039534546 -0.10048304 0.022472618 -0.026981266 0.02219865 0.018030845 0.018180707
-0.010079575 -0.08104146 0.08105389 0.031037027 -0.03782779 0.04540429 -0.0115165785 -0.06836005
0.089471236 0.025265625 -0.014212206 0.069909945 -0.044198975 0.034304604 -0.07408155 0.08834207
0.051400863 -0.073304966 -0.022468256 0.079873964 -0.06178655 0.048012454 0.031364914 -0.0013597428
0.041580368 0.016128983 -0.03737355 0.120638564 -0.07132892 0.093066074 0.10051192 0.00016424478
0.05942798 0.09144713 -0.011986349 0.027326351 -0.017917393 -0.03053739 0.07325193 -0.002546025
0.03180483 0.050062224 -0.06468829 -0.021737212 -0.028450118 -0.015425669 0.083911024 0.0017507293
0.09187572 0.1283678 0.08206754 0.041870624 0.042337015 -0.07087989 0.035388097 -0.110418744
-0.04614614 -0.03728793 -0.03924474 0.06862053 -0.06806565 -0.011178832 0.13084817 0.05721219
0.0004036967 0.0017509346 -0.03462943 0.10705111 0.05252816 -0.01485316 0.049312707 0.03718542
-0.07334045 -0.17530969 -0.20505814 -0.11493836 -0.07731462 -0.2549347 -0.06467225 -0.33822587
-0.16157198 -0.13895851 -0.104622364 -0.15426709 -0.06881695 -0.3105476 -0.15645401 -0.045762584
-0.31579998 -0.32270908 -0.21491112 -0.13894592 -0.20099333 -0.17908269 -0.15624066 -0.17221431
-0.20657857 -0.12263939 -0.13987286 -0.13660362 -0.06669397 -0.1849794 -0.10422448 -0.13695808
-0.26396543 -0.21734889 -0.33504656 -0.26737732 -0.10571048 -0.21497267 -0.14972089 -0.19360149
-0.23282301 -0.104881056 -0.042717423 -0.2689787 -0.12113202 -0.13251218 -0.08586647 -0.14384674
-0.103333056 -0.06394835 -0.19342437 -0.06816392 -0.14233737 -0.13545248 -0.1540777 -0.112139255
-0.16946006 -0.1288795 -0.18322073 -0.08963112 -0.15012614 -0.32853577 0.0020063627 -0.092445455
-0.17504492 -0.12329702 -0.061418027 -0.16576837 -0.057163958 -0.22537519 -0.06683002 -0.0870758
-0.15560527 -0.030685322 -0.082717635 -0.13667059 -0.14882432 -0.19232973 -0.15307891 -0.12853691
-0.17099471 -0.14078392 -0.21210127 -0.26839617 -0.14599307 -0.3286306 -0.28001973 -0.26733378
-0.05708015 -0.30953506 -0.18738663 -0.33578053 -0.16277957 0.032819428 -0.14477156 -0.2855301
-0.070775725 -0.26385912 -0.1593059 -0.22271138 -0.1672729 -0.18831697 -0.15358134 -0.08610597
-0.15522192 -0.12742543 -0.029535795 -0.07212908 -0.09854911 -0.18776618 -0.032308653 -0.0824812
-0.15814307 -0.12527165 -0.14402832 -0.30426133 -0.13070206 -0.3605158 -0.12282591 -0.3765161
-0.06963781 -0.1340478 -0.1436466 -0.23091498 -0.3006732 -0.104638726 -0.2846541 -0.12180556

gru.weight_ih_l1 f4 [384, 128]
00000000: d0c6 593b b9e6 eb39 f915 1fbb 087a fa3a
00000010: fc30 69bb 8cf7 0fbb 3a8e 73ba e910 483b
00000020: ee53 be3a 6477 9fba b23c 913a e4b8 093b
00000030: b28b c9ba 7b07 0a3a f94c 0dba 6f2a 8d3a
00000040: 3b1c 80ba ac6d f8ba 6dcd ecb9 a6f3 3abb
00000050: 560b e73a 882d 67ba d1a5 f2ba a914 c9ba
00000060: f3e4 fa3a bf97 b73a f3b8 0ebb df95 aa3a
00000070: 24a8 b939 e093 3b3b 7f92 d13a 9d8f bfba
00000080: 93b0 f338 c6d7 c6ba b22e dd39 c363 2b3a
00000090: 2797 23bb 04a7 5bba fa0e 10ba 7121 a1ba
000000a0: ba36 bd3a 6deb a8b9 681c b43a 563d 4dbb
000000b0: 35c6 e1b8 a1cb e3ba 926d 193b 132d a439
000000c0: 408e 173b 36c4 f1ba 4722 d13a 44aa 59ba
000000d0: 5252 3e3b c5f1 303a d2e1 d9ba 889f 14bb
000000e0: e767 b1ba 0fd2 d73a f068 fbb8 641b a7ba
000000f0: fed8 4bba e1ac a0bb 9b4c 463a aae1 1a3b
00000100: db11 17ba 8bf9 ffb9 b4c8 26bb fb62 beb9
00000110: a5cb c4b9 c2b7 79ba aea6 27ba fad7 55ba
00000120: f4c0 4538 ee35 15ba cde9 24bb 3806 6839
00000130: 42e7 b83a 38d5 a5ba 72c9 43ba 5218 73ba
00000140: ef63 183b cc3a b43a 5435 123b 922d 26bb
00000150: c9b7 8aba 1356 b93b 305f b03a 4164 99ba
00000160: c6f7 09bb 572a d8b9 3fba 86b7 f9f3 b7bb
00000170: 55bf 7bba 3db5 89ba 7cc8 1d3b b91d 0d3a
00000180: f456 22bb e9db 3f3a 11b8 263b 8ef4 22bb
00000190: 2129 333a f565 f6b9 36ee 58ba de8f 34bb
000001a0: bb8e d83a f159 a1ba 5c98 83ba 5f3b cbb9
000001b0: 0685 9dba 3ed5 8eba 8334 12bb d9dd 3a3b
000001c0: 49a2 253a b5da 39ba a6ae 87ba 76dc 613a
000001d0: d487 72bb 55df 1a3b 356f c03a 986f 99ba
000001e0: af3b d9ba 56f8 c33a 07db b83a 37d8 233b
000001f0: ec44 40bb 12cf a0b9 9f11 303a 4ff0 b4ba
00000200: 7505 143b c150 923a b27a 81bb 4b86 a33b
00000210: 56d1 a33b a7e3 79bb fffa 3dbb febf 55bb
00000220: 63c7 aeb8 eb2a c43a 22b9 92bb 834d cebb
00000230: 8cd1 95bb 297c e23a da1e 45bb bafa 743a
00000240: 2b25 853c e4f6 e2ba 4a3b fcba d699 cd3b
00000250: c13b 0c3c 901c c63a 996f a13b 2399 17b9
00000260: d1c8 6c3b 7663 9e3b e017 0b3c 0b56 00bb
00000270: 1c29 b83b 4aec 863a 2c6a abb7 cf39 593b
00000280: 6234 603b fdec b9ba 7b93 5dba 4852 2fbb
00000290: ed11 02ba 60a6 54bb 9e66 5c3b 410a f63b
000002a0: 5a8f bbbb 1272 b73b 7a3a 19bb 64aa 3439
000002b0: 7662 92ba f761 86bb 7218 0cbb 7a08 073a
000002c0: 1179 cf3b dc3d 343b aa79 cf39 0f1f 6bbb
000002d0: 1ef2 8bba 4289 b5ba 17a9 61bb 3180 b738
000002e0: 536d a9ba 38c4 53bb 0434 ac3b 8c74 2b3a
000002f0: cf6b b7ba 0c84 873c df27 1cba c897 533b
00000300: f0a6 8b3a 582a feb9 cf91 85bb 1366 c4ba
00000310: 078a 4eba faf6 19bb 62eb fdba c202 24bb
00000320: 20a0 70ba e3ab 803b 9db1 98bb cc3d 18b9
00000330: b786 5c3b 5d05 84bb 301c 30bb efbd b13b
00000340: 8c9e 8b3a 192e 15bb a09f 283b 28ab 353b
00000350: d808 a0bb 67cd f3bc 85b0 2cbc 9ea0 c53b
00000360: 1d44 263a ec2b b13b 1e11 223a bfcd 653c
00000370: e0be 153c 2c3d 003b 6f6e 7cba 0aaa c83a
00000380: 7cea 083b 6d31 fbba 489b 583a 15c4 c0bb
00000390: 10bd 6b3b 2161 143b cf27 e2bb 8f35 1fbb
000003a0: c0b4 18b5 85cb 903b b674 273b 721f 0bbb
000003b0: 818e 4b3b 624d 23bb 7380 3abb a27a 9f3b
000003c0: 8379 123b 1ccc 99bb ad06 853b e81e 933b
000003d0: b515 33bb 2030 bdbc b234 4dbc 7ce4 623c
000003e0: f033 4abb 40ef a53b 949f 0d3b 37dd 15bc
000003f0: 0a3e 373b 88ee 41bb d046 ec3a 0383 cc3a
0.0033230074 0.00044994595 -0.0024274571 0.0019109854 -0.0035582175 -0.0021967618 -0.0009290908 0.0030527657
0.0014520863 -0.0012166318 0.0011080711 0.0021014744 -0.0015376715 0.0005265397 -0.0005390193 0.0010770092
-0.0009774038 -0.0018953583 -0.00045166482 -0.0028526573 0.001762728 -0.00088187354 -0.0018512552 -0.001534124
0.0019141719 0.0014007016 -0.0021777719 0.0013014636 0.00035411224 0.0028622076 0.0015989094 -0.0014614944
0.000116200325 -0.0015170507 0.00042187196 0.0006537998 -0.002496192 -0.0008379074 -0.0005495396 -0.0012293292
0.0014435865 -0.00032218863 0.0013741376 -0.0031317077 -0.00010765755 -0.0017379412 0.0023411256 0.000313141
0.002312556 -0.0018445316 0.001595565 -0.00083032646 0.0029040766 0.00067498937 -0.0016623086 -0.0022678096
-0.0013534994 0.00164658 -0.00011988159 -0.0012749252 -0.000777617 -0.0049034213 0.00075645157 0.0023633041
-0.00057628535 -0.00048823314 -0.0025449218 -0.0003631337 -0.0003753576 -0.0009525978 -0.00063953816 -0.0008157488
4.714816e-05 -0.0005691935 -0.002516377 0.00022127561 0.0014107006 -0.0012652045 -0.00074686774 -0.00092733384
0.0023252924 0.0013750433 0.0022309618 -0.0025356752 -0.0010583337 0.005656013 0.0013456102 -0.0011702852
-0.0021052225 -0.00041230276 -1.6060772e-05 -0.0056138006 -0.0009603401 -0.0010506284 0.0024075797 0.0005383152
-0.0024771066 0.0007318841 0.0025439302 -0.0024865004 0.0006834437 -0.0004699674 -0.0008275242 -0.0027551572
0.0016522029 -0.001231013 -0.0010039913 -0.00038763412 -0.0012017793 -0.0010897291 -0.0022309131 0.002851358
0.0006318433 -0.000708978 -0.0010351732 0.000861592 -0.003700723 0.0023631651 0.001468158 -0.0011706231
-0.0016573573 0.0014951329 0.0014103361 0.00250007 -0.0029337956 -0.00030671858 0.0006716493 -0.0013804528
0.002258626 0.0011162983 -0.003951394 0.004990374 0.00499932 -0.0038130076 -0.0028988717 -0.0032615657
-8.334105e-05 0.0014966404 -0.004477636 -0.006295861 -0.004572099 0.0017279434 -0.0030078203 0.00093452225
0.016253075 -0.0017316011 -0.0019243744 0.006274442 0.008559168 0.0015114713 0.0049266336 -0.0001445753
0.0036130438 0.004833634 0.008489579 -0.0019582536 0.005620135 0.0010293808 -2.0434229e-05 0.003314603
0.003421091 -0.0014185008 -0.0008452457 -0.0026751924 -0.00049617776 -0.00324478 0.00336305 0.0075085466
-0.005723876 0.005598315 -0.0023380802 0.00017229613 -0.001116826 -0.004101034 -0.0021376875 0.00051511044
0.006331571 0.0027502691 0.00039572763 -0.0035876667 -0.0010677015 -0.001385011 -0.003443306 8.7499975e-05
-0.0012926258 -0.0032313 0.005255224 0.0006540499 -0.0013993921 0.016542457 -0.0005956869 0.0032286514
0.001065461 -0.00048478204 -0.0040762196 -0.0014984034 -0.0007878844 -0.0023493157 -0.0019372518 -0.0025026058
-0.0009179134 0.0039267405 -0.004659845 -0.00014518871 0.0033649632 -0.0040289597 -0.002687227 0.005424253
0.0010652109 -0.0022763072 0.002572991 0.0027720425 -0.0048838668 -0.02976103 -0.010540132 0.00603111
0.0006342547 0.005406847 0.000618236 0.0140261045 0.009139746 0.0019567711 -0.0009629493 0.0015309465
0.0020891717 -0.001916451 0.0008262885 -0.00588275 0.0035970844 0.00226409 -0.006901718 -0.0024293398
-5.688744e-07 0.0044187927 0.0025551743 -0.002122846 0.003106028 -0.002491795 -0.002845791 0.004866914
0.0022350259 -0.004693521 0.0040596337 0.0044897683 -0.002732617 -0.023094237 -0.012524771 0.01384842
-0.003085371 0.005063921 0.0021610009 -0.00914698 0.0027960562 -0.0029591639 0.0018026475 0.0015603009

gru.weight_hh_l1 f4 [384, 128]
00000000: 88be aebb 2b2e 223c 3c95 3d3c b0bd cab9
00000010: fae9 e7bb 0949 3b3b a401 9e3b 439d 6abc
00000020: b703 003c cbca 6f3c cdf4 8c3b c5e1 5fbb
00000030: da94 2b3b f9cb ae3b 454b 3fba 589d 34bb
00000040: 0a27 1f3c b672 e4bb c180 053c e506 4abb
00000050: 2dcb 0bbc 171b 113c b64a 19bc b888 f6ba
00000060: d882 073b 95cb fa3b cf6a 96bb 5d45 99bb
00000070: b2c3 0cbc 5e07 c3b9 bc49 143c cc0d 9139
00000080: c237 8ebb 3822 303b cd93 413c 7cf9 80ba
00000090: 0db1 c93b 2567 043c 8449 3e3c bc4f febb
000000a0: 50f5 97bb 498b 8dbb b933 f1bb efb8 093c
000000b0: 3261 273b 9e3e 5a3b 2751 86bb d9f4 073c
000000c0: 5107 123c aaa0 05bc 3e36 453c 1850 a1bb
000000d0: bbf2 043c 108b 34bb 20ef 89ba 9bee d93b
000000e0: 0ce7 dcbb 421a 34ba 3716 d4bb 7e88 a6bb
000000f0: 2934 8cba 6c09 223c 17bf ecbb 8bc9 4c3c
00000100: f5c2 b3bb 400a ddba 6f26 89bb 6b90 26bc
00000110: 05ef bbbb 3b5f 23bb fc3e d9ba 43fe 38bc
00000120: e9d1 e83b 77a9 053a e7e5 26bb 3ffa 7bbb
00000130: 2aed 3e3c 43b0 a9bb e032 fc3a a07e 993c
00000140: fb84 febb ffd1 2e3c 31c7 203c 2409 64bb
00000150: 7704 b1bb 7863 66bc cc78 f839 cba7 a73b
00000160: 064b d0bb 3b37 b8bb a161 11bb 2f4b 1c3c
00000170: f113 f0bb 14bb 253b 8f25 353c 0a9a deba
00000180: 4a31 33bc 891a e43a 5430 0bbc 6fa9 043c
00000190: 4a3c 093c a840 fd39 5160 08bc 8f87 29bc
000001a0: f993 113b 57cf 0bbc c18e 17bc f1e0 573c
000001b0: 021f b43b 0ea2 af3b 416d 933a 56b1 3b3c
000001c0: 5937 1e3c e1f7 fabb 6c96 8abb 668a 1dbc
000001d0: 11d3 223c 55db 18bc 279b 4ebc 8b81 1dbc
000001e0: 97f9 803c 73e8 3dbb 13a4 58bb b268 96bb
000001f0: ca79 6bbb 30a7 a5bb 7c0c f73b fa41 9b3b
00000200: 42d2 d63c b811 223c 1aeb 913c b177 85bd
00000210: e813 28bc 3537 413d b442 33bd 6549 02bd
00000220: dcf1 ffbc 66f3 0c3d cc4f 01bc 6455 85bd
00000230: 3944 8c3d 7905 6a3c 7ee6 e93c 5acf 69bc
00000240: bbc6 273c 9d37 0ebd 9922 953d f1ba 80bd
00000250: 3bac 8dbd d3d0 083d 4838 81bd 6f1e 82bc
00000260: 50e5 763c 762e 653d a8e9 ccbc 984e 39bd
00000270: b2bf 0ebd 604d 043d 1f81 563d 6472 f83c
00000280: a3d1 8abc ef9d 453d 2170 cc3b 673b d33c
00000290: 8561 393d 903b 693d fc8a eebb 37e6 14bd
000002a0: f97f 5cbd edfc e43c b6f1 1b3d f8cb 1bbd
000002b0: 512a 7c3d 316e 563d 2502 a93c 7b92 1a3d
000002c0: 6551 ff3c 062a 59bd b501 5e3d fd94 61bd
000002d0: f562 6f3d e13b 9cbc a309 5cbd b35d 483d
000002e0: 71d6 0a3d 04ec 25bd 571b 20bd c6fe dd3c
000002f0: c433 89bd b1b3 cb3b 0f32 60bd d5de 3fbc
00000300: 6557 a3bc a898 03bd f3f9 96bd 568c 613b
00000310: 9a52 313d 397b d3bb 0289 a1bb 522b 59bd
00000320: 4a2c 41bd e7f8 2dbc 8621 1ebd 38de a43c
00000330: 69b6 2f3d 7032 1c3d 4055 33bc 71ef 3e3b
00000340: b2b2 35bc d5c7 3d3d 4188 0f3b 183a f9bc
00000350: 98ff 7fbc 348e 96bc 4375 803d d213 503d
00000360: 5495 00bd 02fd 26bd 9528 e83c 1d78 a93b
00000370: 1fe4 5fbc 814b 073b cf68 093d 25de 253c
00000380: dcdb 75bc 92d8 5dbd ce94 32bd 5713 6e3c
00000390: 7700 953b 641c 7abd 235a 093d a04e 00bc
000003a0: 72e2 1e3d db65 07bd cbaa 08bd 5e35 673d
000003b0: b138 0c3d f64b 463d af5d 0e3c 3d54 273d
000003c0: 80d4 9fb8 9f78 df3c a559 23bc ff67 1abd
000003d0: f40d 6839 3dc4 0fbd 48e0 49bd 6d30 3abd
000003e0: f273 123d 23ca 2ebd 3880 8ebc e3f0 03bd
000003f0: 8239 9fbb e256 83bd fcc0 3b3d 36e8 803d
-0.0053327717 0.009898703 0.011571225 -0.0003866977 -0.0070774527 0.0028577468 0.004821973 -0.014319721
0.007813386 0.014635752 0.0043016435 -0.0034161669 0.0026181252 0.005334374 -0.0007297288 -0.0027559604
0.0097138975 -0.0069716824 0.008148373 -0.0030826863 -0.008532328 0.008856556 -0.009356191 -0.0018809056
0.0020677354 0.0076536634 -0.0045903693 -0.004677458 -0.008591579 -0.00037198787 0.009050783 0.00027666835
-0.004340143 0.0026875865 0.011815024 -0.0009839977 0.0061551393 0.008081232 0.011614207 -0.00776097
-0.004637398 -0.0043195826 -0.007360902 0.008405908 0.002554011 0.0033301483 -0.0040990296 0.008298122
0.008912877 -0.008155981 0.012036858 -0.004922878 0.008114512 -0.0027548708 -0.0010523535 0.0066507584
-0.00674141 -0.0006870368 -0.006472375 -0.005082189 -0.0010696697 0.009889942 -0.007224928 0.012499223
-0.005485887 -0.0016864017 -0.00418549 -0.010166268 -0.0057352805 -0.0024928588 -0.0016574557 -0.0112910895
0.0071051014 0.00050987996 -0.0025466622 -0.003844872 0.011653224 -0.0051784827 0.0019241236 0.018737137
-0.0077673174 0.010670184 0.009813116 -0.0034795487 -0.0054021436 -0.014061801 0.00047392247 0.005116438
-0.0063565997 -0.0056218184 -0.0022183436 0.00953941 -0.007326596 0.002528851 0.011056318 -0.0016983163
-0.010937044 0.0017402928 -0.008495409 0.008097037 0.00837619 0.00048304093 -0.008323745 -0.010347261
0.0022213443 -0.00853332 -0.009250344 0.013176189 0.0054968605 0.0053598946 0.001124777 0.011455854
0.009656751 -0.007658944 -0.0042293575 -0.009615516 0.009938017 -0.009329637 -0.012610233 -0.009613405
0.015744014 -0.0028977662 -0.003305678 -0.0045901174 -0.0035930746 -0.0050553307 0.00753933 0.0047380896
0.026223306 0.00989192 0.0178123 -0.0651697 -0.010258652 0.04717179 -0.043764785 -0.031808276
-0.031243257 0.03441181 -0.00789256 -0.065104276 0.0684895 0.014283531 0.02855229 -0.014270628
0.010240252 -0.034721006 0.072819896 -0.06285656 -0.06917616 0.033402275 -0.06309563 -0.015883652
0.015069321 0.05595251 -0.02501376 -0.04524097 -0.034850784 0.032300353 0.052369233 0.030327983
-0.016945666 0.04824632 0.0062389527 0.025785161 0.045259017 0.05694157 -0.007279752 -0.036352362
-0.05383298 0.027952636 0.03807231 -0.038036317 0.061563794 0.05235118 0.020630905 0.03773735
0.031166742 -0.053018592 0.054200847 -0.055073727 0.058443982 -0.019071521 -0.053720128 0.048917484
0.033895914 -0.040508285 -0.039088573 0.027099025 -0.06699327 0.0062164892 -0.05473524 -0.011710842
-0.019939134 -0.032128006 -0.07371893 0.0034415922 0.043291666 -0.0064538983 -0.0049296627 -0.05301983
-0.047161378 -0.010618425 -0.03860619 0.020125493 0.04289857 0.03813404 -0.010945618 0.0029134417
-0.011089968 0.046333153 0.0021901282 -0.03042321 -0.015624903 -0.018378355 0.06272366 0.050800152
-0.03139241 -0.04076863 0.028339664 0.0051717893 -0.013665228 0.002064437 0.03354722 0.010123764
-0.015006032 -0.054161616 -0.043598942 0.014530978 0.0045471746 -0.06106223 0.033533227 -0.007831246
0.038790174 -0.03305612 -0.033366006 0.05644738 0.034233753 0.048412286 0.008689328 0.04085182
-7.621292e-05 0.027279196 -0.009970103 -0.037696835 0.00022130442 -0.035099257 -0.049286157 -0.04545634
0.035755105 -0.04267324 -0.017395124 -0.03221215 -0.0048591504 -0.06413056 0.04583834 0.06294291

gru.bias_ih_l1 f4 [384]
00000000: dd74 3fbc 091d 15bd 2e88 d23c 5481 87bc
00000010: f5f9 8d3d d8cf 12bd f8a9 49bd 50be 6f3c
00000020: 06d9 54bc 2520 0d3c ec42 afbb a79d b4bc
00000030: 723b cfbc fad0 2c3d 447c 79bd 0a47 b03b
00000040: dd80 46bd ee00 73bd 0b13 96bd ad6a 50bd
00000050: 3a45 28bd 3aa5 03bd ac0a 2dbd 945a 163d
00000060: 4c62 733d a1b0 eabc 525e 58bd 6ad3 3d3b
00000070: d196 9abd 4dd1 353d 1b19 00bd 01c7 6e3d
00000080: 1736 603d b47e 2dbd 8ba5 8cbc a246 2a3d
00000090: e2e4 d63c 60b7 8bbd 0831 2cbd 4ba6 56bd
000000a0: 6849 96bc d69c 1dbd a960 85bd 94cb e9bc
000000b0: c699 28bc 4fb0 a2bc 1091 503d bc53 e3bb
000000c0: 9497 5fbd 0a8a 5abd 7568 48bd c2e1 8e3b
000000d0: efe2 98bd c4f6 193d 1a45 e1bc cac6 6ebc
000000e0: c978 85bc a065 28bc 9aac 063d fc3f 3cbd
000000f0: 48ea 8bbd ff83 50bc 3f2d df3c cca5 1d3d
00000100: ed6b a9bc a16e 9abc c6ae 123c e3af 3cbd
00000110: a8e4 94bd 36af 5abd 3360 a9bc e432 1abd
00000120: dc25 a33c 01fa 833d 29ff c73c b554 f63b
00000130: f22f aa3c 8dd7 eeba 2019 98bc 16cd 0e3c
00000140: 6b45 debc 30ba 7a3b d30f 7ebc b99c 943d
00000150: 35e4 433d 9dc9 ab3d 6371 3ebd 77e8 2dbd
00000160: abea 8d3b be1d cfbc d05b 873c 785f 1abd
00000170: dc93 df3c 4305 6c3d a69f 75bd 79d3 263d
00000180: b7a7 0cbd 1561 17bd 91f7 3d3a c2b0 61bd
00000190: 0b38 65bd 2e46 09bd 0263 733c 6c43 4cbd
000001a0: 2a66 43bd d662 293d 8c08 8ebd 8591 59bd
000001b0: cd72 20bc f175 fa3c ee9e e53c 31b7 88bd
000001c0: 8846 15bc 0d33 8cbd 629c d93c f739 c839
000001d0: a74b 8ebd c774 8ebc dfd7 9dbc 69f9 a9bb
000001e0: 1a70 64bd 26c3 653c b94e 943c dd6d 2cbd
000001f0: 2e1b 1abd aea1 7ebc 33b9 9c3c 770a 78bd
00000200: f8af 38bd efd8 a0bd dfb6 633d 32f6 35be
00000210: eef7 d03d 9046 41bd 4510 30be dc50 8cbd
00000220: 633b e7bd e1cc 8d3d b09d 83bc f860 31be
00000230: b412 74be 626c 843d 8452 aa3d 83bd 083e
00000240: 1048 84bd 6822 aa3c 0285 6bbe d2f5 53be
00000250: c368 56be 271e 8cbd 1bd1 40be 3a42 c33c
00000260: f651 dd3d aae7 07be 3eb2 e03c 83cb 6b3c
00000270: 7cbc babd 6b51 f1bd 9436 5abd fd60 023d
00000280: 6541 ac3d 9805 50be 074f 9cbc 6df3 073c
00000290: 3e4a 63be fa42 1ebe 56bb 80bb 3161 92bd
000002a0: 7823 14be c450 6c3d f786 dabd db34 04be
000002b0: 7c7f 5ebe 66f0 d0bd 418a a93d 2847 303c
000002c0: ff1e a3bd 4164 0bbe 9636 f2bd dd5f 2cbe
000002d0: 712d 16be 39dc 883d 22ed 39be d343 ffbd
000002e0: b931 b0bd a117 bbbd 81e1 11bd 11ec 9e3d
000002f0: b2a2 1ebe 14b9 2fbd d6e5 a9bd 0acc e43d
00000300: 09d4 903d dbd3 18be 4719 72be be8e ca3c
00000310: eff1 59be e5f0 153e 1248 ec3d 5f16 ebbd
00000320: 2c44 02be 7831 cc3d 06cf e3bd 142f 0b3c
00000330: 89b7 c9bd 6de3 0abe 609c 4b3c 9688 e63d
00000340: 3e56 02bd 72a4 12be edd8 45bd a0c9 32bd
00000350: 0a66 353d 25d1 783c c1a1 7abe 8344 99bd
00000360: b0f9 06bd 719c 713d 1218 d4bc 67e8 9abd
00000370: 0d4f 753d 6957 a63d 86e0 e0bd 95d2 993d
00000380: 20f2 53bd 8fac 8dbd e801 13be 3532 673d
00000390: 39fa 00bb 2293 30be c3be d9bd 9aba 96bd
000003a0: fd4e 37be 073d f73c 6587 80bd fdc8 03be
000003b0: 3f0d 683c 1155 7ebd 7452 f23d 92c5 fb3c
000003c0: ab6b 64bd 0435 c53d 3d9d a63c c77d 49bc
000003d0: 74a9 3cbd e7b6 92bd de86 55bd 285b b2bd
000003e0: 7818 f13c 2618 23be 14f9 893d 3b3e 6b3c
000003f0: 2456 bc3d bf2e 73be c655 95bd dfae 38be
-0.011685577 -0.036404643 0.025699701 -0.01654116 0.06932441 -0.035842746 -0.04923436 0.014632776
-0.012991196 0.008613621 -0.005348554 -0.02204783 -0.0252969 0.042191483 -0.060909525 0.0053795623
-0.048462737 -0.05932706 -0.07327851 -0.050882984 -0.041081645 -0.032139994 -0.042246506 0.036707476
0.059419915 -0.028648676 -0.052824326 0.0028965124 -0.07548297 0.044389058 -0.031273942 0.058295254
0.054739084 -0.04235716 -0.01716878 0.041571267 0.026232187 -0.068220854 -0.042038947 -0.052404683
-0.01834555 -0.03847965 -0.06512577 -0.028539456 -0.010290569 -0.019859461 0.050919592 -0.006937472
-0.054587916 -0.0533543 -0.048927743 0.0043604085 -0.07465159 0.03758885 -0.02749877 -0.014573762
-0.016292946 -0.010278136 0.03287945 -0.045959458 -0.06831795 -0.012726783 0.027243255 0.038488194
-0.020681346 -0.01885158 0.008952802 -0.046066176 -0.07270175 -0.05338975 -0.020675754 -0.03764619
0.019915514 0.06444169 0.024413662 0.007517422 0.020774815 -0.0018222198 -0.018566668 0.0087158885
-0.02713271 0.003825795 -0.0155067025 0.07256455 0.047825057 0.08388064 -0.046494853 -0.042458024
0.004330953 -0.025282737 0.016523272 -0.037688702 0.027292185 0.057622205 -0.059966706 0.04072902
-0.034339633 -0.03695782 0.0007246668 -0.05510021 -0.05596165 -0.033514194 0.014855148 -0.049868986
-0.047704853 0.041354023 -0.06935224 -0.053117294 -0.009792996 0.030573817 0.028029885 -0.06675566
-0.009111054 -0.06845675 0.026563827 0.0003819016 -0.06948023 -0.017389668 -0.019267974 -0.0051872027
-0.05577097 0.014023578 0.018103944 -0.04209696 -0.037623577 -0.015541477 0.019131279 -0.060556855
-0.045089692 -0.07853877 0.05559432 -0.17769697 0.10203539 -0.047186434 -0.17193706 -0.0685136
-0.11290624 0.06923843 -0.016066402 -0.17322147 -0.2383526 0.06465985 0.0831652 0.13353543
-0.06459057 0.02076836 -0.22999957 -0.20699242 -0.20938401 -0.068416886 -0.18829767 0.02383529
0.108066484 -0.13271967 0.027428742 0.014391783 -0.09117982 -0.11783107 -0.053274706 0.031830776
0.084109105 -0.20314634 -0.019080652 0.008297783 -0.2219629 -0.15455237 -0.003928582 -0.07147444
-0.14466655 0.05769421 -0.10670274 -0.12910788 -0.21728319 -0.10202102 0.08278323 0.0107591525
-0.079648964 -0.13612463 -0.11826818 -0.16833444 -0.14665772 0.06682629 -0.18156865 -0.12464108
-0.08603234 -0.09135366 -0.035615448 0.0775987 -0.15491751 -0.042901114 -0.08295791 0.1117173
0.070716925 -0.14924566 -0.23642455 0.024726268 -0.21283697 0.14642675 0.11537184 -0.11478876
-0.12721318 0.09970373 -0.11123471 0.008495111 -0.0984946 -0.13563319 0.012427419 0.112565205
-0.03182053 -0.14320543 -0.04830258 -0.043649316 0.044286765 0.015186583 -0.24475767 -0.07483771
-0.032952964 0.058987085 -0.025890384 -0.075638585 0.05988984 0.08122141 -0.109803244 0.075108685
-0.05174458 -0.069176786 -0.14356196 0.056444366 -0.0019680394 -0.17243627 -0.10632088 -0.0735981
-0.17901225 0.030180467 -0.062758245 -0.1286964 0.014163314 -0.062092844 0.11832133 0.030733857
-0.055766743 0.096292526 0.020338649 -0.012298054 -0.04606004 -0.07163792 -0.052130572 -0.08708793
0.029430613 -0.1592718 0.06736961 0.014358099 0.091961175 -0.23748301 -0.072917506 -0.18035458
