datasets/Spirit5M/model/chronological_student.pth (torch, 3894 bytes, 6 tensors)

gru.weight_ih_l0 f4 [12, 30]
0	0x3abd8205	0.0014458305
1	0xbd2ded5e	-0.0424627
2	0x3ea66c0e	0.32504314
3	0xbe503bee	-0.20335361
4	0xbe5fdfb7	-0.21862684
5	0xbe311921	-0.17294742
6	0xbd747629	-0.059683
7	0xbe4f6b7b	-0.20255844
8	0x3eb482f2	0.35256153
9	0xbe020441	-0.12696935
10	0xbe1f70a9	-0.1557032
11	0x3eb3eece	0.3514313
12	0xbd076577	-0.03305575
13	0x3ec9b776	0.39397782
14	0x3dd1a959	0.102373786
15	0x3ede6cb2	0.43442303
16	0xbe20d7f5	-0.15707381
17	0xbd265440	-0.04060769
18	0xbee40cfe	-0.44541162
19	0x3d56a86a	0.052406706
20	0x3d93ad85	0.072108306
21	0x3ee16b80	0.44027328
22	0xbeb0f2c6	-0.3456022
23	0x3ee57cbe	0.44821733
24	0x3e3c03b7	0.18360792
25	0x3eee6cde	0.46567434
26	0x3ed5057c	0.41605747
27	0xbe5b6002	-0.21423343
28	0x3ebad8ce	0.36493534
29	0xbe371161	-0.17877723
30	0x3e688f4a	0.2271091
31	0x3eeb59a2	0.45966822
32	0x3e9971e4	0.29969704
33	0x3e8fc962	0.2808333
34	0x3e3fce76	0.18731102
35	0x3dffbc7c	0.124871224
36	0x3ecf27d6	0.4046008
37	0x3de7e9c5	0.11323885
38	0xbe4a1fd6	-0.19738707
39	0x3ec7abb6	0.38998193
40	0x3ed96d96	0.4246642
41	0xbce01788	-0.02735497
42	0x3eccf98e	0.40034145
43	0xbec61532	-0.38688046
44	0xbec38c98	-0.38193202
45	0xbeb93e8e	-0.36180538
46	0xbe29fb02	-0.16599658
47	0xbec71530	-0.38883352
48	0x3ec3d876	0.38251084
49	0x3e759046	0.23980817
50	0x3edd3f1c	0.4321221
51	0x3f09e5d0	0.5386629
52	0xbecc4b8e	-0.39901394
53	0x3f0b1949	0.5433546
54	0x3e99e6cb	0.30058894
55	0xbedff922	-0.4374476
56	0x3e8b845c	0.2724942
57	0xbed56e3c	-0.41685665
58	0x3eb0a738	0.34502578
59	0xbeb8584a	-0.3600486
60	0x3e67380e	0.22579977
61	0x3eb47c55	0.35251108
62	0x3dfb1e18	0.12261599
63	0xbcfa3b84	-0.030545957
64	0xbe87b148	-0.26502442
65	0xbd9e27d5	-0.07722441
66	0x3e944b58	0.28963733
67	0xbdb19b74	-0.086722285
68	0x3e8c8a1f	0.27449128
69	0xbeb0010b	-0.34375796
70	0x3e8910f2	0.2677074
71	0x3eaf93d7	0.3429248
72	0x3d72a539	0.0592396
73	0x3eac0a5d	0.33601657
74	0xbd8bd4a3	-0.068276666
75	0xbd0945a5	-0.033513684
76	0xbe91b9ac	-0.2846197
77	0xbe51b6be	-0.20479867
78	0x3b54eeda	0.0032491
79	0xbdfe2126	-0.12408666
80	0x3e981edf	0.29711053
81	0x3ecb1e3b	0.39671502
82	0xbe8b5302	-0.27211767
83	0x3e568ce4	0.20952183
84	0x3e644401	0.22291566
85	0x3ee0284d	0.43780747
86	0x3e7b5ea9	0.24547829
87	0x3e84f4ce	0.2596802
88	0x3e891064	0.26770318
89	0x3efded4e	0.49595112
90	0x3d8e2f48	0.06942612
91	0xbf02704d	-0.5095261
92	0xbeb27ce0	-0.34860897
93	0x3e16e17c	0.14734453
94	0x3eb1ae1c	0.34703147
95	0x3e730b18	0.237347
96	0xbd017d3e	-0.03161358
97	0xbf0cb840	-0.54968643
98	0x3e53e05e	0.20691058
99	0xbea0266a	-0.31279308
100	0x3d41de45	0.047331113
101	0xbe8ca47e	-0.27469248
102	0xbf0fc291	-0.5615626
103	0xbe146ea3	-0.1449533
104	0xbec3e28a	-0.38258773
105	0xbf020011	-0.5078135
106	0xbeb35c80	-0.3503151
107	0x3e862dcc	0.26206815
108	0xbeda26f4	-0.42607844
109	0xbf07909e	-0.52955043
110	0xbef47f1d	-0.4775323
111	0xbebba012	-0.3664556
112	0x3dd59b41	0.10430003
113	0xbeb63cb2	-0.35593182
114	0xbe9a37b4	-0.30120623
115	0xbefc65aa	-0.49296314
116	0x3ec95022	0.3931895
117	0xbea469c4	-0.32111943
118	0xbf00481b	-0.50110024
119	0x3e5f7263	0.21820979
120	0x3ec62a08	0.38703942
121	0x3f6a46b4	0.91514134
122	0x3ea87b3a	0.32906514
123	0x3ebc2f9f	0.36755082
124	0x3f355f44	0.7084849
125	0x3f6ba3ca	0.920468
126	0x3f093eec	0.53611636
127	0x3f1d8476	0.61530244
128	0x3f24a43f	0.6431312
129	0x3ee74b7d	0.4517478
130	0x3ea271ad	0.31727353
131	0x3f88ee1a	1.0697663
132	0x3f8bebe0	1.0931358
133	0x3f317d6a	0.6933199
134	0x3f4117f6	0.75427186
135	0x3f9b4f30	1.2133541
136	0x3f5b0ecb	0.8556945
137	0x3ec298dd	0.3800725
138	0x3fa00388	1.2501078
139	0x3eb6a193	0.35670146
140	0x3f2b3818	0.6688247
141	0x3f16fa8a	0.5897604
142	0x3f433a0e	0.7626046
143	0x3f156a9e	0.5836581
144	0x3e8670c2	0.26257902
145	0x3f31edd3	0.69503516
146	0x3eb7436c	0.35793626
147	0x3f7c7a8d	0.986245
148	0x3eeb90e2	0.46008974
149	0x3f687995	0.9081052
150	0xbeca5a5d	-0.39522067
151	0x3caffded	0.021483386
152	0x3c443be6	0.0119771715
153	0xbee1e582	-0.44120413
154	0x3d33a536	0.04385873
155	0x3cafd093	0.02146176
156	0xbd86418a	-0.06555469
157	0xbf0e2385	-0.5552295
158	0xbf4c7185	-0.7986072
159	0xbf1236c2	-0.57114804
160	0xbf46d815	-0.77673465
161	0xbf3006e6	-0.68760526
162	0xbe83942b	-0.2569898
163	0xbf11d044	-0.56958413
164	0x3dad143d	0.08451126
165	0xbf388c11	-0.72088724
166	0xbf0f7664	-0.56040025
167	0xbe561866	-0.20907745
168	0xbed3c1dd	-0.41358843
169	0x3dd2bfbb	0.10290476
170	0xbf5a35ec	-0.8523853
171	0xbe8f138b	-0.27944598
172	0xbf5cf0ca	-0.86304915
173	0xbf4de1fc	-0.8042295
174	0xbd37a7b8	-0.044837683
175	0xbf5c7674	-0.86118245
176	0xbe69284a	-0.22769275
177	0xbcb66080	-0.022262812
178	0x3cde8b5a	0.027166057
179	0xbf4c3949	-0.7977491
180	0x3f911f74	1.1337724
181	0x3edf0b4b	0.43563303
182	0x3ee210bc	0.44153392
183	0x3f4dfc57	0.80463165
184	0x3f8281e9	1.0195895
185	0x3f31a319	0.6938949
186	0x3f0a1bc3	0.5394861
187	0x3e913129	0.2835782
188	0x3f73a39b	0.9517152
189	0x3f8300e1	1.0234643
190	0x3e898b9b	0.26864323
191	0x3e5fd2c2	0.21857741
192	0x3e65fc6b	0.22459571
193	0x3f6931f3	0.9109184
194	0x3e9522c7	0.29128096
195	0x3f3fa520	0.74861336
196	0x3e6e3c84	0.23265272
197	0x3f6e415f	0.930685
198	0x3e5f6b0a	0.21818176
199	0x3f2ed4b2	0.682933
200	0x3ef2f2e0	0.47450924
201	0x3eff71f4	0.49891627
202	0x3f320054	0.6953175
203	0x3f0a34af	0.5398664
204	0x3f45406c	0.77051425
205	0x3e59553d	0.21223922
206	0x3f67dfdd	0.90575963
207	0x3f33c479	0.7022167
208	0x3e8b95ad	0.2726263
209	0x3efc3832	0.49261624
210	0x3ea24888	0.31695962
211	0x3f7bde0d	0.983857
212	0x3f31ab48	0.6940198
213	0x3e63126b	0.22174995
214	0x3f8c4f5d	1.096172
215	0x3f4b6d34	0.79463506
216	0x3f1f38b6	0.6219591
217	0x3eba184a	0.36346656
218	0x3f0d847c	0.5528028
219	0x3f5fe163	0.8745329
220	0x3f4de14e	0.8042191
221	0x3e305389	0.17219366
222	0x3f5b7db6	0.85738695
223	0x3f0bb7d2	0.5457736
224	0x3f8174c9	1.0113765
225	0x3f294d1e	0.66133296
226	0x3e30a846	0.17251691
227	0x3ec4cdf5	0.38438383
228	0x3f4927d8	0.7857642
229	0x3eea75e0	0.45793056
230	0x3f33c13d	0.70216733
231	0x3f5b3efe	0.85642993
232	0x3f464d5a	0.7746178
233	0x3f0aab6a	0.5416781
234	0x3f0e3982	0.555565
235	0x3f9188c5	1.1369864
236	0x3ec55fe5	0.38549724
237	0x3e6229c7	0.2208625
238	0x3f204858	0.6261039
239	0x3f355f70	0.7084875
240	0x3f12e0c3	0.5737421
241	0x3eec29e6	0.46125716
242	0x3e7770b8	0.24164093
243	0x3efdddf9	0.49583414
244	0x3ef28e31	0.47374108
245	0xbd5188cc	-0.05115585
246	0xbc1cfe2d	-0.009582085
247	0x3eb7435c	0.3579358
248	0x3f3ece4d	0.7453354
249	0xbe1fb74e	-0.15597269
250	0x3ebcd0ab	0.3687795
251	0x3ecf8d14	0.40537322
252	0xbb006ef6	-0.0019597388
253	0x3ee52b09	0.44759396
254	0x3e160185	0.14649017
255	0x3f401def	0.75045675

gru.weight_hh_l0 f4 [12, 4]
0	0xc013fee9	-2.3124335
1	0x3c843411	0.016138108
2	0x3e503db9	0.20336045
3	0x3ec7c4b4	0.3901726
4	0xbf95f4ab	-1.1715292
5	0xbe1cec16	-0.15324435
6	0x3f660ca2	0.89863026
7	0xbf337e81	-0.70114905
8	0xbf87ce9b	-1.0609926
9	0x3fa940f6	1.322295
10	0x3f0fbc95	0.5614713
11	0xbe779aed	-0.24180193
12	0x3fe03902	1.7517397
13	0xc014683f	-2.3188627
14	0x3f698481	0.9121781
15	0xbf89309c	-1.071796
16	0x3eae0025	0.33984485
17	0x3f28de49	0.6596418
18	0xc0077c4c	-2.1169615
19	0x3e63e4cc	0.22255248
20	0xbf8822d0	-1.0635624
21	0xbeeccb29	-0.4624875
22	0x3f438e04	0.76388574
23	0x40339b67	2.80636
24	0xbfd4c04f	-1.6621188
25	0xbefb4cfb	-0.4908217
26	0xc0155257	-2.3331506
27	0xbf21e027	-0.63232654
28	0xbf0ee33d	-0.5581549
29	0xbf028de0	-0.50997734
30	0xc02cb089	-2.6982749
31	0x3f04b7b1	0.5184279
32	0xbeea864d	-0.45805588
33	0x3fac41ef	1.3457621
34	0xbfb533d0	-1.4156437
35	0x3de25eec	0.11053261
36	0xc0179d35	-2.3689702
37	0x3d7db95a	0.061944343
38	0x3f49815b	0.78713006
39	0x3f34fddb	0.7069985
40	0xbef16ba2	-0.4715243
41	0x3f51f90a	0.8202063
42	0x3e9801a6	0.29688758
43	0x3d8ab9cc	0.06773719
44	0xbf7ad696	-0.9798368
45	0x3f92e464	1.1475949
46	0xbf7b06ec	-0.98057437
47	0xbe804f92	-0.25060707

gru.bias_ih_l0 f4 [12]
0	0xbe0ca443	-0.13734536
1	0x3eb7ea0a	0.35920745
2	0x3dee1f7f	0.11627101
3	0xbfb15051	-1.3852636
4	0x401567fa	2.3344712
5	0xbef1a4f3	-0.4719616
6	0xbeb5456e	-0.35404533
7	0x3fe559d3	1.7918037
8	0x3db4845d	0.08814309
9	0x3dfaba37	0.12242549
10	0x3ee4083b	0.4453753
11	0x3f03d406	0.514954

gru.bias_hh_l0 f4 [12]
0	0x3e8f033a	0.2793215
1	0xbe89f00e	-0.2694096
2	0x3e28ac02	0.16471866
3	0xbf2db362	-0.6785184
4	0x400889c0	2.1334076
5	0x3e26f87e	0.1630573
6	0xbee6619a	-0.4499634
7	0x3fcfea71	1.6243421
8	0x3ea963b3	0.33083877
9	0x3f3e238c	0.7427299
10	0x3f13d988	0.577538
11	0x3cce2cf0	0.025167912

fc.weight f4 [2, 4]
0	0x3e20cb68	0.15702593
1	0x3eb42557	0.35184738
2	0x3f619a99	0.8812652
3	0x3f1317e6	0.5745834
4	0xbedd7f6e	-0.43261284
5	0x3d005884	0.031334415
6	0xbf6f9f5a	-0.93602526
7	0xbf4d6345	-0.802296

fc.bias f4 [2]
0	0xbe626565	-0.22108991
1	0xbe336781	-0.17519952
